Deep Reinforcement Learning Nano Degree/Collaboration and Competition/model/checkpoint_actor_target_1.pth (torch_old, 531474 bytes, 10 tensors)

fc1.weight f4 [400, 24]
000000 3b da 8a bc 47 82 c8 3d 7a 42 05 bc 82 51 ef bc
       -0.016949764 0.097904734 -0.008133525 -0.02921367
000010 89 74 94 bd c4 75 93 3d 99 23 7f 3c 32 a1 08 3d
       -0.0724879 0.072001964 0.015572452 0.033356853
000020 d2 a5 4b 3d 84 8b 53 3c df 9c bf bc cd a3 ea bc
       0.049718685 0.012911681 -0.023390232 -0.02864256
000030 6f 7e 56 3c 02 e8 77 3d 50 c9 0c 3d fe 35 fe b9
       0.013091668 0.060523994 0.034371674 -0.00048486883
000040 1a 88 0e 3c c0 73 1b bc 89 b7 0e bd 99 bb 3f b9
       0.008699441 -0.009488046 -0.034843 -0.00018285065
000050 32 78 20 3e 7b 4e 00 bd a5 ae 34 3d 4a b4 06 3d
       0.15670851 -0.031324845 0.044111867 0.03288678
000060 0a c8 4f 3d f4 67 a8 3b 6a b9 1e 3c 26 df 28 3d
       0.05072788 0.0051393453 0.009687761 0.041228436
000070 e1 e3 f2 ba 80 c4 cf bd 65 30 57 3b 02 81 15 3d
       -0.0018531048 -0.10144901 0.0032835242 0.036499985
000080 e0 aa ea bc 7f f2 be bc 3a f5 e6 3c 53 0c 6b 3c
       -0.028645933 -0.02330899 0.028193105 0.0143462
000090 ea ca 9f bd f9 56 30 3c 48 bc 0a bc ce be 07 3c
       -0.07802375 0.010762923 -0.008467741 0.0082852375
0000a0 0d f1 0c 3d 25 28 06 bd 50 22 74 3b 85 0b 2d 3e
       0.03440957 -0.03275313 0.0037251897 0.16898926
0000b0 15 c5 ff 3a ae 30 d8 bd 6b d3 81 bb 25 30 3e 3e
       0.0019513691 -0.1055616 -0.0039619706 0.18573053
0000c0 db eb 60 bc 82 bc af bd 23 3e 5c bc 4f 4c 00 3d
       -0.013728107 -0.08580877 -0.013442549 0.031322774
0000d0 57 43 92 3a 9f 36 9b bd 0b c1 12 bc 76 8a 2c 3d
       0.0011158985 -0.075787775 -0.008957158 0.042124234
0000e0 ae 7d c8 3c 07 03 91 bd f5 aa 07 3d 70 2d bc bd
       0.024473991 -0.070806555 0.03312202 -0.09188354
0000f0 d8 41 ca 3c 45 62 5e bd eb 97 cd 3c 48 63 5c bd
       0.0246896 -0.054292936 0.025096854 -0.05380562
000100 2e 8b 9a 3c 73 a1 c5 bd 53 bc 9a 3c 10 90 78 bc
       0.018865194 -0.096499346 0.018888628 -0.015171066
000110 10 9c 20 3d 42 f2 a7 bd 58 28 a2 3d 5b 75 67 bd
       0.039211333 -0.08200504 0.07917851 -0.056508403
000120 f9 b1 af 3d 84 7b 81 3b 8f 29 91 3c a6 96 dd 3b
       0.085788675 0.003951492 0.017720012 0.0067623435
000130 4b c6 89 bb 03 86 f4 3d 13 85 d3 bc ce ad aa 3c
       -0.0042045466 0.11939623 -0.02582029 0.02083483
000140 f1 5b 0c 3e 7c ed f5 3b 17 76 cd bc f0 51 60 3d
       0.13706948 0.007505117 -0.025080724 0.05476564
000150 28 c9 a0 3c 69 be 4f bd 06 9a f6 3b f1 89 62 3d
       0.019627169 -0.0507187 0.0075256852 0.055307332
000160 92 0b a0 3d ed 20 32 3d 40 bf c2 bc 1f a3 58 3c
       0.07814707 0.04348843 -0.023772836 0.013222485
000170 63 33 76 bd 15 87 04 be 16 ce bf 3c 80 c3 53 bc
       -0.0601076 -0.12942155 0.0234137 -0.012925029
000180 11 dc bc bc dd 1e b9 bd d7 f5 e0 3c 33 cb 3f 3b
       -0.023054155 -0.0903909 0.027460976 0.0029265403
000190 cb bf 18 bd 7c 7f 9f bd 22 08 93 3c c0 02 80 3d
       -0.037292283 -0.077879876 0.017948214 0.062505245
0001a0 e1 8b b0 bd ac fc 3e bd 81 51 81 3d af c8 0d bd
       -0.0862043 -0.046627685 0.06314374 -0.034615215
0001b0 6a a1 4a bd 6e 78 8d 3b dd f5 09 3c 17 01 91 bd
       -0.049470343 0.004317335 0.008420435 -0.07080286
0001c0 79 9b 7a bd 1a 8d 93 bd 7e 9a ff 3c 87 69 42 3d
       -0.061183427 -0.07204647 0.031201597 0.04746392
0001d0 07 e5 8f 3c 83 3d ea 3c 1a 18 4c 3d 20 0b 2f 3d
       0.017565263 0.028593784 0.049827673 0.04273522
0001e0 b0 31 a6 bc 19 03 57 ba 94 08 91 3c 98 8b 24 3d
       -0.020287365 -0.00082020607 0.017704286 0.04017219
0001f0 ba 86 95 3c dc ae 4b bd ba 3d 53 bd 24 71 35 3d
       0.01825272 -0.049727306 -0.05157254 0.044297352
000200 cd 34 9b 3c 1a cb 83 3d 03 54 2e bc fd ff 24 3d
       0.018946076 0.06435223 -0.010640147 0.040283192
000210 2f 7d 6b bd a8 0e 8a bd 22 74 b3 bd 7f 4d 2b bd
       -0.05749243 -0.06741077 -0.08762385 -0.041821953
000220 78 c2 96 bd df 95 98 3d 56 6e ec bc 63 f7 28 bc
       -0.07361311 0.07450461 -0.028861206 -0.010312888
000230 1c d8 91 bd d2 fa 11 3d 04 bd a6 bc 1b 6b 6a 3d
       -0.07121298 0.03563959 -0.020353802 0.05723105
000240 a2 56 96 3d 8c df 5b 3d 7a 93 0d 3b cb 7c 19 3d
       0.07340743 0.053679988 0.0021602795 0.037472527
000250 58 bc f3 bc f0 dc b7 bd 43 19 3e 3b 12 ec 8d 3d
       -0.029752895 -0.08977687 0.0029006756 0.069297925
000260 26 d0 22 3d af 8c b5 3d 86 4e 46 3c ee e4 c2 3d
       0.039749287 0.08864724 0.012103682 0.09516321
000270 f8 ab 44 bd f5 d4 b9 bd 26 97 5c bc b9 21 b2 3d
       -0.048015565 -0.090738215 -0.013463771 0.08697838
000280 ad 74 29 3b e7 e7 85 3d 2b 9f 5c bb 86 ad 9a 3c
       0.0025856898 0.065383725 -0.0033664207 0.01888157
000290 39 77 1b 3b 90 b2 29 bd a8 60 f5 bc bd 21 10 bd
       0.0023722185 -0.041430056 -0.029953316 -0.035188425
0002a0 c7 3c fd 3d df b4 94 bc db 87 9e bb bf 81 99 3c
       0.12365108 -0.018152652 -0.0048379726 0.018738626
0002b0 6f b0 98 3d 7b 93 c1 bd 1a bd 3b bc 2f 7f e7 3c
       0.07455527 -0.09451958 -0.01145866 0.028258888
0002c0 0e 1c d5 3d ce 4b a5 bd e2 b7 5f bc 58 ef 60 bc
       0.10405742 -0.08071099 -0.013654681 -0.013728939
0002d0 d7 5f 3c 3d f9 b8 da bc b3 3c 87 3b 1c 61 6f 3d
       0.045989837 -0.02669953 0.004127109 0.05844222
0002e0 77 2f f3 3c 1f d8 ce bc 5e d8 fb 3c d4 85 a0 3d
       0.029685719 -0.025249539 0.03074282 0.07838026
0002f0 2f 87 2f 3d 3b 03 a1 bd 9a a6 f9 bc 27 cb e3 3d
       0.04285353 -0.07861944 -0.03047495 0.111227326
000300 fc a2 94 bd 68 2d af 3d 41 e5 c7 bc d5 40 fc 3c
       -0.07257649 0.085535824 -0.024401309 0.030792633
000310 86 e5 69 3d e8 c4 81 3b c8 78 1b bd 15 f8 9c bc
       0.057103656 0.0039602406 -0.037956983 -0.019161263
000320 1b 9f 3c bd 86 8f 1e 3d 63 89 71 3d 07 0e 99 3d
       -0.046050172 0.038711093 0.058968913 0.07473379
000330 79 2a be 3d dc d3 b2 3c 18 de ed bc cc 33 68 3d
       0.09285445 0.021829538 -0.029036567 0.056690022
000340 4f 9c 54 bd 1e 0c 93 3d 8e 3d 72 bb 19 57 41 bd
       -0.05190688 0.071800455 -0.003696296 -0.047202203
000350 7b 89 a2 3d 71 d6 8d bd ac 3d 2c 3d 5b 1b 6e bd
       0.079363786 -0.06925667 0.042051002 -0.058131557
000360 e6 ff 48 3c c6 b9 61 bd 20 4d 9b bc 00 a1 17 bd
       0.012268042 -0.055108808 -0.018957675 -0.037018776
000370 0b 7e e7 3c fe 5f 77 3c 98 d4 c2 3b 9f 01 c7 3c
       0.028258344 0.01509857 0.0059457533 0.024292765
000380 29 38 a7 3d f9 43 b6 bd e5 cf 1d 3d cf 7e e3 3c
       0.081650086 -0.088996835 0.03852834 0.027770428
000390 3c 49 f1 3b 8a 74 24 bd 88 80 1b 3d 8f c0 3e 3d
       0.0073634665 -0.040150203 0.037964374 0.046570357
0003a0 ca 38 df 3c 5f 31 ac bd 5d 5f 77 3d 17 95 5f 3d
       0.027248759 -0.08407854 0.06039368 0.054585543
0003b0 6c 8f 1a bd f8 e1 fb bc 84 22 8b 3d a7 27 b7 3c
       -0.037734434 -0.030747399 0.06793693 0.022357775
0003c0 56 c7 51 3d ad 26 1c 3c 00 8b d8 bc a2 2d a8 3c
       0.051215492 0.009530705 -0.026433468 0.020529572
0003d0 c8 32 a1 bd 29 87 f6 bc d4 9e c1 3c 43 b1 1d bd
       -0.07871014 -0.030093746 0.023635305 -0.038499128
0003e0 22 03 f2 3d 21 1a c0 3d 1f 70 65 bc 7b 6a 86 3c
       0.11817004 0.09379984 -0.0140037825 0.016408196
0003f0 11 9c 83 bd d9 e2 85 bd be 4a 88 3c aa c5 4b 3d
       -0.06426252 -0.065374084 0.016637202 0.049749054

fc1.bias f4 [400]
000000 fc 75 18 be a3 5c b5 bd 32 cf 01 3e 32 cf 15 bd
       -0.14888757 -0.0885556 0.12676695 -0.03657455
000010 38 5e 5d 3e 9e b4 42 be 22 65 48 be 3c cd b8 3d
       0.21617973 -0.19014212 -0.19569829 0.0902352
000020 08 40 e7 3d 24 93 82 3d be 61 83 3d c7 be 13 3c
       0.1129151 0.06375721 0.06415127 0.009017653
000030 a4 cb 22 be 46 f2 ca bc ba 66 fd bc 9a 08 9f be
       -0.15897995 -0.024773728 -0.030932773 -0.3106125
000040 5b ea 75 be df 2b ce bd 78 c1 0f bd 6d c4 3f 3c
       -0.24015181 -0.100669615 -0.035096616 0.011704546
000050 ed 39 f6 bd 88 0d 6b be 90 b2 3a be 9d 2a 1b 3e
       -0.12022767 -0.2295438 -0.18232179 0.15152974
000060 6c 28 a5 bd 60 c6 66 bd a1 0e b7 bd 55 58 3b be
       -0.080643505 -0.05634153 -0.08938337 -0.18295415
000070 27 a0 70 be 59 b9 6b bd fc a6 20 3e 0a 7e 99 be
       -0.23498593 -0.05754981 0.156887 -0.29978973
000080 17 33 73 3d 20 38 1a be 58 27 01 bd 57 6f f2 3d
       0.059374895 -0.15060472 -0.03153166 0.11837643
000090 33 73 87 bd 6a ba c6 3c 1e 8d f3 bd 38 6d 0e 3c
       -0.066137694 0.024258811 -0.1189215 0.008693032
0000a0 18 d4 34 be 1f f7 fd 3d 51 88 01 bd 19 af e8 bc
       -0.17659032 0.1240065 -0.031624142 -0.028403806
0000b0 2f 87 d6 bd c9 ef 56 be c0 02 e3 3d 46 01 1b be
       -0.10475003 -0.20989908 0.11084509 -0.15137205
0000c0 ef e5 3c 3d 94 60 b2 bd 81 e6 8f be c2 64 17 bd
       0.04611772 -0.08709827 -0.28105548 -0.036961325
0000d0 c3 86 ba 3d c5 20 7a 3d 54 ba cb bd e5 1d dd bd
       0.09107735 0.061066408 -0.09947649 -0.107967176
0000e0 b5 60 8e 3d 43 44 86 be 54 50 72 bd 0e 42 1a be
       0.06952039 -0.26223955 -0.059158638 -0.1506426
0000f0 a1 ec 2f 3d 58 89 1d bc 5c 75 d5 3d c1 be b8 bd
       0.042950276 -0.009615265 0.10422775 -0.090207584
000100 43 a3 3f 3e 8e 62 c3 bb 4e 06 6f 3d 4c 91 7b 3e
       0.18714623 -0.0059626764 0.058355622 0.24567145
000110 ae 85 41 3d ce a9 80 be 53 c3 97 be 5e 58 26 bd
       0.047246628 -0.2512955 -0.29641208 -0.040611617
000120 49 e1 2c be 91 c1 64 3d 98 be fc 3d 8b 5f 55 be
       -0.16882814 0.05584866 0.123410404 -0.20837228
000130 71 6a af 3d 23 1d 97 3d 62 cc d3 3d 7c 45 2d be
       0.08565224 0.07378604 0.10341717 -0.16921037
000140 b9 8f b5 3b d5 03 f0 bd 96 8b 65 3e d0 36 ff bd
       0.0055408147 -0.11719481 0.22416529 -0.124616265
000150 d4 34 a9 3c 71 cd 93 bd 5f d2 48 bd 41 da 66 3c
       0.020655073 -0.07216919 -0.04902875 0.014090122
000160 e3 44 7e 3d 28 a1 20 be 60 eb 15 bd 0a a9 b3 bd
       0.062077414 -0.15686476 -0.036601424 -0.08772476
000170 70 fb 0f 3e cc 08 40 3c 15 bb c4 bd 07 da 3f 3d
       0.1406076 0.011720847 -0.096059956 0.046838786
000180 65 b9 f7 3d c6 d9 2a be a0 8c be 3c 21 ac bb bd
       0.12095908 -0.16684636 0.023260415 -0.0916369
000190 65 fb 23 bd 22 b1 08 3e 9a 06 39 be be ae 70 be
       -0.04003467 0.13348821 -0.18068925 -0.23504159
0001a0 19 46 3d be 0e 95 0c bd 15 5d b8 3c e9 56 8d be
       -0.18483771 -0.034321837 0.022505322 -0.2760537
0001b0 da 88 0b 3d ec b0 98 bd c5 c9 35 3e 1a 0c 41 be
       0.03406606 -0.0745562 0.1775275 -0.18852273
0001c0 a4 d9 73 be e3 73 53 be 81 22 65 3d 13 ef 58 3c
       -0.23813492 -0.20649676 0.05594111 0.0132405935
0001d0 47 88 d4 3d 91 57 a4 bd e7 83 c6 bd 5a 26 db bd
       0.10377555 -0.080245145 -0.09693127 -0.10700674
0001e0 96 92 a3 bd 13 fe 27 be 61 8c 2c be db 15 17 3e
       -0.079869434 -0.16405515 -0.16850425 0.14754431
0001f0 93 67 3d be 46 a2 34 3e ee c9 9d bd 5a 69 0b be
       -0.18496542 0.17640027 -0.07704531 -0.13614407
000200 f0 35 f5 3d 61 59 a9 bd 55 87 94 be ba e4 6c be
       0.119731784 -0.08269001 -0.290095 -0.23134127
000210 87 8e 6d be e8 9c 8b 3d 7f f7 05 be 7b 43 f7 bd
       -0.23198901 0.06817037 -0.13082694 -0.12073418
000220 ae e8 df 3c 29 75 c6 bd e8 bd 19 3d 8c 63 3b 3e
       0.02733263 -0.09690315 0.037534624 0.18299693
000230 5b 77 8b bd 28 91 65 bd de 14 33 bd cb fc 54 3e
       -0.068098746 -0.056046635 -0.043721072 0.20799558
000240 bd 4e b9 bd b2 4a 00 bd 81 f4 cf 3d 21 ea a8 3b
       -0.09048221 -0.031321235 0.10154057 0.0051548635
000250 08 5e fb bc a0 c6 2f 3d 3e 3e 49 be d0 ed 67 be
       -0.030684486 0.042914033 -0.1965265 -0.22649312
000260 bf e9 66 3d b9 3e 15 3d e0 a5 57 be b0 74 95 bc
       0.05637526 0.03643677 -0.2105937 -0.018244117
000270 35 cf 8e bd 7c be 44 bd c4 1d c2 bc 73 34 ba bc
       -0.06973115 -0.048033223 -0.023695834 -0.022730088
000280 25 d6 7b bd a5 c9 eb bd 89 a3 82 be 3a 95 30 be
       -0.06148352 -0.1151307 -0.25515392 -0.17244425
000290 59 b3 41 3e c7 a0 96 3d c8 4f 77 bd 42 cd fc bd
       0.18916072 0.073548846 -0.06037882 -0.12343837
0002a0 5d b1 82 bd 04 f3 44 be cf ee bb 3c 37 81 19 3c
       -0.063814856 -0.19233328 0.022941021 0.009369186
0002b0 de 44 e7 bd ef 27 b9 bd 3f 1a 2b 3d f0 dd 22 3d
       -0.11292432 -0.0904082 0.041773077 0.039762437
0002c0 7e bc 07 3e a6 35 98 bd 0e d0 9e 3d 40 ae f1 bd
       0.13255498 -0.074321076 0.07754527 -0.11800814
0002d0 f0 31 58 3d 40 39 b0 bd 1a a8 bc 3d 4f 11 e2 bd
       0.052782 -0.086046696 0.0921175 -0.110384576
0002e0 0c 78 00 be 8b 9a 8c 3d 55 78 e0 bd a8 4b 90 3d
       -0.12545794 0.06865414 -0.109604515 0.0704568
0002f0 0e 13 1d be 85 01 b5 3d f3 3f 2f be b9 18 9f bc
       -0.153393 0.088381805 -0.17114238 -0.019420968
000300 0d 13 3a 3e b0 51 0a be e3 8a 60 bd 03 f6 30 3e
       0.1817133 -0.13507724 -0.054819953 0.17281346
000310 0a 6a 78 3d 90 96 a2 bd c4 44 18 be ff 97 61 3d
       0.060648 -0.07938874 -0.14869982 0.055076595
000320 d9 8f 9b 3d 72 4e 21 3e 1d f7 79 bd c4 17 d8 3d
       0.07595796 0.15752581 -0.06102668 0.10551408
000330 d2 a0 e4 bd ab 28 96 bd fa 06 1b be c3 b6 d1 3d
       -0.111634865 -0.073319755 -0.1513938 0.10239937
000340 9b ba d9 3d e9 7a ef 3d cc 0a 0d be 9d e7 4b bd
       0.10631295 0.11693365 -0.1377365 -0.04978143
000350 45 0a dd bd 24 45 00 be a3 c6 c8 3c ad 16 34 3d
       -0.107929744 -0.12526375 0.02450878 0.043966938
000360 b2 39 e5 3d 76 d8 83 3c d4 7a 47 be 29 4e a8 bd
       0.11192645 0.016094428 -0.19480449 -0.08218033
000370 12 9c 30 3d d5 62 9a bc 2a 08 8f bd 52 69 02 bd
       0.04311759 -0.018845955 -0.06983979 -0.031838723
000380 95 e3 a5 bd 18 79 37 3e 91 ae 0e be 81 ad 82 be
       -0.081000485 0.17917287 -0.1393378 -0.25522998
000390 a3 a9 64 3d b2 05 73 be 11 06 cf bb 0d ae 0f be
       0.05582584 -0.23732641 -0.006317862 -0.14031239
0003a0 33 75 e8 3d 3e de d8 3d e5 91 eb bd 43 a9 c7 bd
       0.11350479 0.10589264 -0.115024365 -0.09749081
0003b0 51 ff a4 bd 79 24 48 3d 0f 03 e3 ba 6d 80 b7 bd
       -0.0805651 0.048862908 -0.0017319637 -0.08960042
0003c0 dd b8 2f be dd 28 15 3d 83 f7 20 3d ac f7 0e 3b
       -0.17160363 0.036415923 0.039298546 0.0021815104
0003d0 57 29 d4 3d 74 f3 04 3c 95 85 16 be 79 d0 79 3d
       0.103594474 0.008114684 -0.14699395 0.06098983
0003e0 3d 28 c5 bc d2 38 8b bd 09 7f 04 bd 11 39 34 bd
       -0.024067039 -0.06797947 -0.032347713 -0.043999735
0003f0 08 a0 de 3d 51 e1 46 be f5 69 38 be fb 3a 05 be
       0.10870367 -0.19421889 -0.1800917 -0.1301078

fc2.weight f4 [300, 400]
000000 f6 a0 3f 3e 03 6c 1e bc ac ff b5 bc a7 49 3e 3d
       0.18713745 -0.009669307 -0.02221664 0.04645696
000010 52 1b 60 bd e0 7a 86 bc 8d dd 7b 3d 14 cc f1 bb
       -0.054713555 -0.016416013 0.061490584 -0.0073790643
000020 21 ba 58 3d 10 23 01 bd 8d 9d ee 3c 82 66 35 be
       0.05291188 -0.03152758 0.02912786 -0.17714885
000030 a3 7b 63 bd 6a 86 80 3c df 46 c1 bd 55 3e 08 bd
       -0.05553783 0.015689094 -0.09437346 -0.03326257
000040 05 d8 4b 3c a5 6f 53 bd 3c 41 f2 3d 27 21 1f 3d
       0.01244164 -0.051620144 0.11828849 0.038849976
000050 62 e0 3e 3d f1 a9 84 3c 41 04 c1 3c 3e e6 c1 bb
       0.046600707 0.016194316 0.023561599 -0.0059173396
000060 b6 0f 4e bc c5 65 15 3d ed 75 cb bc b4 df 33 3e
       -0.012576988 0.036474008 -0.024836505 0.17565805
000070 81 ff d7 ba f5 25 9d bb 0c c9 76 bd 8a 7a 4e 3d
       -0.0016479344 -0.0047957846 -0.060250327 0.05040983
000080 a8 e8 71 bc 59 e3 e3 bd a0 67 39 bc d4 d6 fe bd
       -0.014764942 -0.111273475 -0.01131621 -0.12443319
000090 4f 60 58 3d 86 23 7a bd a0 dd dd 3d 06 a1 ba 3d
       0.052826222 -0.061069034 0.10833287 0.09112744
0000a0 de f7 85 bd cf d5 f5 3c 5d 8e 92 bd 2b 2f 5e 3c
       -0.065414175 0.030009178 -0.0715606 0.01356105
0000b0 fc 3b 28 3d 92 3c c8 bd 7c 30 19 bd 5a 87 19 3d
       0.04107283 -0.09777178 -0.037399754 0.037482597
0000c0 c1 32 a3 3d 00 5f 40 bd f2 18 9f bc a2 54 33 bd
       0.07968665 -0.0469656 -0.019421075 -0.043781884
0000d0 fc 2a 79 bc a6 20 17 3d 91 5b ae 3c a5 d2 99 bc
       -0.015208002 0.03689637 0.021283897 -0.018777201
0000e0 fa d5 4d 3e 9c fd 19 3c 28 3e 55 bd 44 cc ac bd
       0.20101157 0.009398844 -0.05206123 -0.08437398
0000f0 49 76 f4 3c 04 9d 67 bd d8 93 07 3d 45 f3 d6 bc
       0.029841559 -0.056546226 0.03309998 -0.026239047
000100 93 79 05 3d 99 b6 da bb 8c 26 57 bd 5d 83 98 3d
       0.032586645 -0.0066745994 -0.052526996 0.074469306
000110 1e 58 51 bd 7c b5 b3 bd 6b 58 0d bd 56 0a 95 3d
       -0.051109426 -0.0877485 -0.03450815 0.07277362
000120 5f f3 29 bd 22 09 e5 3c f8 e8 13 be a9 0c 65 3c
       -0.041491862 0.027958456 -0.1444434 0.013980069
000130 30 ae 24 be 65 59 16 bd 2a 24 25 3d 82 e9 d9 3d
       -0.16082072 -0.036706347 0.04031769 0.10640241
000140 d2 09 04 be 1d 6c 4b 3d 1a 5b 04 3d cb 12 02 3a
       -0.12894371 0.04966365 0.032313444 0.0004961907
000150 9c bf 9b 3d 32 2c eb bc 3d 69 bc 3d dd 7d b1 ba
       0.07604906 -0.028707597 0.0919976 -0.0013541539
000160 bf ad d5 3c ee 7c b0 bc 13 71 8c 3d b2 a9 13 bd
       0.026083825 -0.021543946 0.06857505 -0.036050506
000170 4f 20 85 bc 06 5e 12 3d e2 fd 2f 3d ec fc 04 3b
       -0.016250758 0.0357342 0.04296673 0.0020292355
000180 99 b4 e6 3d a1 f9 d6 bc a1 5c 6a bd 6d 65 25 3b
       0.11264915 -0.02624208 -0.057217244 0.0025237456
000190 ef 67 19 bd 26 50 5b 3c 5a d6 57 3c f1 a4 e1 3d
       -0.037452634 0.013385808 0.013173664 0.11017788
0001a0 89 ce 2f 3c 13 0e c7 bc 23 cf b8 3c 03 32 26 3d
       0.010730394 -0.024298703 0.022559708 0.04057504
0001b0 58 e7 7f 3c 1e d5 8e bc b0 ec 48 3d eb 3f aa bc
       0.0156191215 -0.017435607 0.049053848 -0.020782432
0001c0 48 19 5e bd 31 20 b7 3c 0b 37 9a bd b9 89 95 bd
       -0.05422333 0.022354217 -0.0753003 -0.07301659
0001d0 0f 52 7c 3c ff 06 e8 3c 95 a1 4e 3d bb b5 d4 bc
       0.015400424 0.028323648 0.050447065 -0.025965562
0001e0 37 22 84 bd b4 2f 40 3c 35 d6 0a bc 5c f9 63 3d
       -0.064518385 0.011730123 -0.0084739225 0.05565773
0001f0 53 97 27 3e b6 03 50 3d ca 1c 1a 3d 71 b5 5c bd
       0.1636632 0.05078479 0.03762511 -0.053883974
000200 6e 53 2b 3d 4d 67 a4 3d 05 44 2c bd da 6d 38 3d
       0.04182761 0.080275156 -0.042057056 0.045026638
000210 6c 43 cc 3d c7 87 e8 3c 86 2a 48 bd 40 f1 ab bb
       0.09973797 0.028385056 -0.04886868 -0.005247265
000220 c3 a6 4b bd 9e 04 00 bd fe d1 b6 3b 08 ce 89 39
       -0.049719583 -0.031254403 0.0055792322 0.00026284182
000230 e1 a0 c7 bd 34 5f 72 3c 85 25 6e bd 16 99 a4 3d
       -0.09747482 0.014793206 -0.05814125 0.08037011
000240 9b ca 17 be 3e 9c e1 3c 98 31 3a 3c ac 96 f7 bd
       -0.14823382 0.027540322 0.011364363 -0.12089285
000250 33 7f 39 bc 4d 97 8e 3d 68 e0 0a 3d 10 b2 71 3d
       -0.011321831 0.06962452 0.033905417 0.059007704
000260 d1 63 a1 bd 74 a9 26 3b ce 7d 5a 3d 4f 04 0a bd
       -0.078803666 0.0025430592 0.053342633 -0.033695515
000270 15 c2 dd bd fd ce 71 bc 80 ad 97 3c 66 7b d1 3c
       -0.10828034 -0.0147588225 0.018515348 0.025571536
000280 0a ef 25 bd a3 b1 37 bd 02 5d e3 3d 56 17 7d 3c
       -0.04051117 -0.044847142 0.11101724 0.015447458
000290 b9 a4 3a bd bf 7e 83 3d 8e 9c 4a 3d 92 1b dd 3c
       -0.045567248 0.06420659 0.04946571 0.026990686
0002a0 3a c3 d8 bc 6a ec 1f bd 8e be 5d bd d0 78 fc bc
       -0.026460279 -0.03904382 -0.054136805 -0.030819327
0002b0 a7 55 22 bd 7a 89 81 3e b8 0b cb 3c 2a 5d 50 3b
       -0.039632466 0.253002 0.024785861 0.0031793811
0002c0 91 f9 d6 bd df 6b 6f bd bc fa cf 3c 83 55 77 bd
       -0.1049682 -0.058452483 0.025388114 -0.060384285
0002d0 79 cb 2d bd ac 5e 25 bd 02 1f 15 3d 7a 9c 35 bd
       -0.042430375 -0.04037349 0.036406524 -0.04433868
0002e0 2e d8 9c 3d 92 4d d9 3c 6f 71 72 bc 97 bb 99 3c
       0.076584205 0.026526246 -0.0147975525 0.018766208
0002f0 3c 82 27 bb 63 52 ee 3b e1 97 08 bd 87 34 97 bd
       -0.0025559803 0.007273005 -0.033347968 -0.07383066
000300 e7 23 15 bd a0 03 03 bd dd 00 f0 bc 25 a3 0a bd
       -0.036411192 -0.03198588 -0.029297287 -0.033846993
000310 0c cf 9a bd 48 92 e7 3c 28 a9 3f 3d 6d 76 3e bd
       -0.07559022 0.028267995 0.04679218 -0.04649966
000320 b4 fe db 3c 1a 35 1b bd 46 6f 16 3d c6 43 c2 bb
       0.02685485 -0.03789244 0.036727212 -0.0059284894
000330 f5 1e 8f bd 0c cb cb bb de 9e 29 3c 6a b5 e6 3c
       -0.069883265 -0.0062192734 0.010352818 0.028162677
000340 ee 18 4e 3d 91 31 39 bd ec b9 0d bd b1 ef a8 3d
       0.050316744 -0.045213286 -0.034601137 0.082488425
000350 f2 6e 80 be 09 01 ca bc ec 80 54 bd d4 02 bf bd
       -0.25084645 -0.024658697 -0.051880762 -0.09326711
000360 2f 78 c4 3c e8 0d a6 3c e9 8c f5 bc 8e 11 a4 bd
       0.02398309 0.020270303 -0.029974418 -0.08011161
000370 04 8f 96 bc b1 3a 1b be 4a 05 e3 bd 18 e9 e1 bc
       -0.018378742 -0.15159108 -0.11084993 -0.027576968
000380 d8 b1 15 be ee 43 97 3d 59 f5 f4 bc 3e 8d 1f 3d
       -0.14618623 0.073860034 -0.029902147 0.03895306
000390 90 67 c0 bd 87 8c 8e bb 76 35 7a 3d a8 30 4b bc
       -0.09394753 -0.0043502483 0.06108614 -0.012401737
0003a0 5b 4e 2a bd c1 09 ef 3c 65 53 1e bc b3 bf c5 3b
       -0.04157863 0.029179456 -0.0096634375 0.006034815
0003b0 93 a5 93 bd 85 91 92 3d 9b 1b a1 bd a7 26 92 bd
       -0.07209315 0.07156662 -0.078665935 -0.071362786
0003c0 2d e4 ed bd f1 28 8b 3c 15 61 c0 3b 93 83 e6 bb
       -0.11615787 0.016987296 0.005870948 -0.007034728
0003d0 9d 12 39 bd 1a bc f5 bd 1b bd 62 3d 36 1e 17 bc
       -0.045183767 -0.11998768 0.055356126 -0.009223511
0003e0 0c ea a2 3d 07 dd 2e be 37 2e 21 bd fc fa c2 bd
       0.07954797 -0.17076503 -0.039350715 -0.09520528
0003f0 53 52 bc bd b3 0a bc bc 33 10 01 bc e5 fc fb bb
       -0.091953896 -0.02295432 -0.007877397 -0.0076900595

fc2.bias f4 [300]
000000 1f f5 63 3d 61 9b 9b 3d 55 18 14 bd 00 9a 8e 3c
       0.055653688 0.075979955 -0.036156017 0.017407417
000010 75 da aa 3c 1c 6b 3b 3d ed c1 60 3d 3e 92 b2 3c
       0.020856122 0.045756444 0.054872442 0.02179825
000020 26 e9 9a 3c 3f 27 45 3d b1 85 b4 3d df 3c bb 3c
       0.018910002 0.04813313 0.08814562 0.022856174
000030 67 83 6d bc a0 41 90 3c 8b 97 2d 3c a6 fd 6b 3c
       -0.014496661 0.017609417 0.010595213 0.014403736
000040 3a 79 9b bb 57 b7 82 3d 44 44 16 3d f7 1f 7b 3d
       -0.004744676 0.063826256 0.036686197 0.06130978
000050 3c 1a 6d 3d 48 e4 16 3c 64 1b 85 3d c1 63 9a 3d
       0.057886347 0.0092097 0.06499365 0.07538558
000060 72 6a da 3d 3a 71 a7 3d 50 be c2 3c 20 0f a2 3c
       0.10664834 0.08175893 0.023772389 0.019782603
000070 c0 5a c3 3d 8b af 54 bc 58 43 6e 3c b9 2d bc bc
       0.095387936 -0.012981306 0.014542423 -0.022971021
000080 09 41 04 3d 05 ec 87 3d ae 3e 57 3d 83 39 89 3c
       0.032288585 0.06636814 0.05255001 0.016751057
000090 7f f7 64 3d f1 bd c3 3d 8b 61 a4 3d 19 60 a8 3c
       0.055900093 0.09557713 0.08026417 0.020553635
0000a0 51 b8 9b bb 4b 30 59 bd 6a 36 69 3d b3 c5 b0 3d
       -0.004752197 -0.05302457 0.05693666 0.08631458
0000b0 78 20 be 3d df 48 bf 3d ac 78 af 3d 93 6c e2 3b
       0.09283537 0.09340071 0.08567938 0.0069099157
0000c0 ea 02 8f bd 07 39 9f 3d 73 60 0e bd df 5f b5 3d
       -0.06982978 0.07774549 -0.03475995 0.088561766
0000d0 ac e3 9f 3d 48 94 69 3b 8b bf 9a 3d 68 02 0c 3c
       0.07807097 0.003564136 0.07556065 0.008545496
0000e0 d8 d2 06 3d 81 38 9d 3d 15 7e 51 3d ea 7d b9 3c
       0.03291592 0.07676793 0.05114563 0.022643048
0000f0 d8 c8 d8 3b 2a c7 09 3c 7b 14 75 3d 07 82 a1 3c
       0.0066157393 0.008409301 0.059833985 0.019715322
000100 9f a6 ff bb 1c e6 2c 3c 56 56 d9 bc 41 01 19 3d
       -0.007801845 0.010552909 -0.026530426 0.03735471
000110 ee a7 c4 3c 88 9f 31 3d c7 b6 54 3d 29 0d 84 3d
       0.024005856 0.04336503 0.051932123 0.064478226
000120 4d 50 d4 3d 91 2b 89 3d 98 b4 98 3d b9 af 65 ba
       0.10366879 0.06697763 0.074563205 -0.00087618415
000130 74 24 c1 3d e7 4a d7 bc c1 9d 01 bd 0f ca ff 3d
       0.09430781 -0.026280833 -0.031644586 0.124897115
000140 ec 05 73 3d 98 f7 ed 3d ba 64 01 3c f6 b9 54 3c
       0.05933182 0.116194904 0.00789755 0.01298379
000150 f6 75 da 3b 1b e3 c9 3d 69 24 11 3d 59 9d 00 3c
       0.006666894 0.0985777 0.035435114 0.007850015
000160 d6 6b c7 3c c9 2c 3b bd 46 f9 3c 3d da c3 c6 bc
       0.024343412 -0.045697007 0.046136163 -0.024263311
000170 4b 0d 1c 3e 4d da 8d 3d f5 2a 64 3d 1b 8a 96 3d
       0.15239446 0.06926403 0.05570503 0.0735056
000180 ce 8a a6 bd 8e ff 9a 3c ff 8a 62 bd 17 3d b7 3c
       -0.08131944 0.018920686 -0.05530834 0.022367997
000190 db 29 99 3d 68 04 1d 3e e7 59 cd 3d 7e ac d7 3c
       0.074786864 0.15333712 0.10026913 0.026327368
0001a0 4c 37 50 bd 03 5a 02 3d 96 fd 22 3d df e9 6a bd
       -0.050833985 0.031824123 0.03979262 -0.057351943
0001b0 c6 fe 89 3d fe 94 58 3c dd 95 75 3c d5 03 13 3d
       0.06738047 0.013219116 0.0149893435 0.035892326
0001c0 7f 97 54 3b fa a8 72 bd 41 e9 89 3d f8 51 95 bd
       0.0032438932 -0.05924318 0.06733943 -0.07291025
0001d0 b1 a7 3c 3b ed a1 8f 3d 52 c2 42 3d aa eb fb 3c
       0.0028786475 0.07013307 0.0475486 0.030752022
0001e0 fe 91 94 3c fc ba 1e 3d 2b 30 08 bd ad ce b6 3d
       0.01813602 0.03875254 -0.03324906 0.08926139
0001f0 0f e4 88 3d 71 a1 b7 3d 91 1c 85 3c 9e 18 6a 3c
       0.06684124 0.089663394 0.016248973 0.014288096
000200 f7 6f bb 3d 48 82 01 3c 5d f7 d9 3c 18 ca c4 3d
       0.09152215 0.007904597 0.02660721 0.09608859
000210 ca 20 fa 3d 65 7e c8 3c 22 0e dc 3d da db 83 3d
       0.12213285 0.024474332 0.10744883 0.06438418
000220 f7 9d 1e 3d 66 d7 a9 3d 3c 4d 01 3d ae cb 98 3b
       0.038724866 0.08293037 0.031567797 0.0046629524
000230 13 85 cc 3c 0a 35 11 3d 23 dd 8d 3c dd 53 44 3d
       0.024965798 0.035450973 0.01731736 0.04793154
000240 41 60 00 3e 64 e4 91 3d e5 73 86 3c a4 8e 94 3d
       0.12536718 0.0712364 0.016412685 0.07253769
000250 34 7a 6e 3d 98 f0 a3 3d 3a 22 02 3d 16 a7 98 3d
       0.05822201 0.08004874 0.031770922 0.07453744
000260 a3 22 a0 3d 63 a2 9b bc 96 86 bb 3d c1 1b 0b 3c
       0.078191064 -0.01899833 0.091565296 0.008490504
000270 db 66 24 3d 8b 83 2b 3d fe ba 84 3d 76 0f 80 bd
       0.040137153 0.041873496 0.064809784 -0.06252949
000280 0c f2 75 3c 01 a5 de 3d 74 79 87 3d 75 78 d8 3c
       0.015011322 0.10871316 0.06614962 0.026424626
000290 28 00 4b 3c 55 88 1c bc a6 d1 40 3d 8f 36 d9 3c
       0.012390174 -0.009553988 0.047074936 0.026515273
0002a0 72 80 91 bc 43 36 e3 bc 3e e0 81 3d e9 57 1e 3d
       -0.017761443 -0.027735835 0.06341599 0.038658056
0002b0 ff de 55 3d f9 f4 00 3d 67 43 1b 3c c9 a2 d0 3b
       0.05221462 0.031483624 0.009476519 0.0063670618
0002c0 52 b2 1e 3d 61 e4 d6 3c 0d 89 71 3d 10 5f b8 3a
       0.03874428 0.026231946 0.058968592 0.0014066417
0002d0 d7 cb 46 3d 1a e4 d4 3d 35 43 96 3d c2 84 97 3d
       0.04853424 0.103950694 0.073370375 0.073983684
0002e0 a4 60 b1 bc 5a 80 00 bc ca 58 14 3d d7 90 b1 bb
       -0.021652527 -0.007843101 0.03621749 -0.0054188776
0002f0 1c f5 e6 3d 6d 85 64 3d c8 41 90 3d fa 36 23 3d
       0.1127722 0.055791307 0.07043797 0.03984735
000300 7f 18 8e 3d 31 3e 9c bc b5 74 ae 3d 12 63 d1 3d
       0.06938266 -0.019072624 0.08518354 0.10223974
000310 71 4c 2e 3d e4 38 82 3d 94 7d 87 bc 73 81 59 3d
       0.04255337 0.06358507 -0.016539373 0.053101968
000320 52 21 00 bd 9a 85 94 bd 4f ca ee 3c 56 ed 43 3d
       -0.031281777 -0.07252045 0.029149203 0.047833763
000330 7d 6e 5c 3d 2e 72 67 3d dc f2 47 3d 0f a6 06 3d
       0.053816307 0.056505375 0.048815593 0.03287321
000340 c5 55 ac 3c 3d fa 86 3d cf 4a 2f 3d 22 90 39 bc
       0.021036992 0.06590698 0.042795952 -0.011325868
000350 b4 85 a7 3d 4b 9e 02 3d 46 97 e1 3c 9d ac a8 3c
       0.08179799 0.03188924 0.027537953 0.02059012
000360 2a 6c aa 3d 07 55 3c 3d 6a 36 ab 3d 70 ca de b9
       0.08321412 0.045979526 0.08359988 -0.00042493967
000370 d7 ec 53 3d 24 81 88 3d 0b 42 fc 3d 7c 0b 49 bc
       0.05173954 0.066652566 0.12317284 -0.0122708045
000380 5e 24 16 3a 16 a8 bb bd a4 89 fd 3d 87 e8 bf 3d
       0.0005727465 -0.09162919 0.123797685 0.09370523
000390 7f 91 e7 3c 46 fc 12 3d 1f f8 e6 3d ac 03 b8 3c
       0.02826762 0.035885118 0.11277794 0.022462688
0003a0 09 be 78 3d f9 10 f1 3d 93 4a 12 3d 22 80 16 3c
       0.060728107 0.117708154 0.03571565 0.009185823
0003b0 66 70 f0 bb 16 29 9c bd 90 3f e3 ba 4c 01 d3 3d
       -0.0073376177 -0.07625024 -0.0017337669 0.10302982
0003c0 57 2c c4 bc 76 f5 21 bd 09 28 6b 3d b7 81 1f 3d
       -0.023946924 -0.03954073 0.057411227 0.038942065
0003d0 52 d7 19 3d 96 43 ab 3d fd 4e 8f 3d 8c b1 88 3d
       0.03755886 0.083625 0.06997488 0.066744894
0003e0 48 ff 64 3d a4 8f b8 3d 66 16 a7 3d 42 a5 a8 3d
       0.055907518 0.09011772 0.08158569 0.082346454
0003f0 69 ad 03 3e 47 90 cf 3d 29 9b 50 3c 4f a3 5e 3d
       0.1285912 0.101349406 0.012732306 0.054354962

fc3.weight f4 [2, 300]
000000 f8 66 bb bc 38 ef 61 3d 16 97 13 3e 94 06 83 3e
       -0.022876248 0.055159777 0.14413103 0.25590956
000010 10 4a 46 be 8d c2 41 3e ae 96 76 3e c5 84 07 be
       -0.1936419 0.18921871 0.24080917 -0.13234241
000020 4b e7 52 be e8 7b 68 3d aa 87 2e be 1f 93 77 3e
       -0.20596044 0.05675879 -0.17043939 0.24177216
000030 00 c9 ba ba 80 eb 13 be 0e cd 42 be 28 ea aa 3e
       -0.0014250576 -0.14445305 -0.19023535 0.33381772
000040 67 1b aa bc 4b 12 ec bd ed 60 06 be e0 d5 8c bd
       -0.02076502 -0.115269266 -0.13122912 -0.06876731
000050 e6 c5 74 bc 03 30 9f bd df 08 43 be 0f 35 85 bd
       -0.014939761 -0.077728294 -0.19046353 -0.06504261
000060 e0 a8 35 be 04 f9 2e 3d a7 3a e3 3c ba 86 23 be
       -0.17740202 0.04271795 0.027737929 -0.15969363
000070 14 7a 83 bd cc de 22 3e 86 0e 9a bd 44 79 0f 3e
       -0.06419769 0.15905303 -0.075223014 0.14011103
000080 20 a4 4f 3e 5a dc 16 3d f3 ef e7 bd 32 8d 88 be
       0.20277452 0.036831237 -0.113250636 -0.26670223
000090 35 66 30 3e 14 2c 23 bb 41 5f 5f 3e 3f 75 17 be
       0.17226489 -0.0024898099 0.2181368 -0.1479082
0000a0 17 3c ab 3e bc 2a ce 3d f2 5d 37 3e c1 e5 1b be
       0.33444282 0.10066745 0.17906931 -0.15224363
0000b0 fa ce f4 bd 77 7d 0b be f4 19 35 be 07 b5 09 be
       -0.1195354 -0.1362208 -0.17685682 -0.13447963
0000c0 02 de 6a be 1d e3 60 3d d0 5c fe bd c1 27 02 be
       -0.22936252 0.054904092 -0.12420046 -0.12710477
0000d0 c9 a0 69 3d cc 48 97 3d db 13 36 3e 6e 17 90 3d
       0.057038102 0.07386932 0.17781012 0.07035719
0000e0 cb 42 8c bd 89 6e 82 3c 02 7f a3 3d 1a ec 58 3e
       -0.06848677 0.015921848 0.07983209 0.21183816
0000f0 1a 8b 1f be bd 96 a5 bd f2 d8 e9 bd 9c da 71 3d
       -0.15580407 -0.08085392 -0.11418332 0.059046373
000100 7f 3f 00 be aa 84 8f 3d c1 cb 5d 3e cb 3e 04 3e
       -0.12524222 0.070077255 0.21659757 0.12914579
000110 12 b5 33 3e e1 70 0f 3d 67 c0 03 be dd a2 10 be
       0.17549542 0.03501976 -0.12866364 -0.14124627
000120 d5 c7 97 bd 1e ca ee 3d ee b3 7d be 39 90 12 3d
       -0.07411162 0.116596445 -0.24775669 0.035782073
000130 d4 a8 3d be ff 18 0d be df e9 b2 3d 1c 0d c5 3d
       -0.18521434 -0.13779067 0.087360136 0.09621641
000140 16 39 d6 3d d6 b6 2e 3e 52 f2 ca bd 7e 46 83 3d
       0.10460107 0.17061934 -0.099095 0.0640993
000150 4a ce 20 be 3d a3 c1 3d 07 a5 01 be de 4f 2b 3d
       -0.15703693 0.09454963 -0.12660609 0.041824214
000160 ce 95 62 3e fd 36 ef 3d b9 8a da bd c3 95 40 3e
       0.22127458 0.1168041 -0.106709905 0.1880713
000170 b3 88 ac bd 9a fa 3e be e7 bf 87 3d 9e f4 a3 3e
       -0.08424511 -0.18650284 0.06628399 0.32022566
000180 b7 a9 6f 3e 58 f0 9d bd c0 0f 35 3e 60 b3 75 3e
       0.23404585 -0.077118576 0.1768179 0.23994207
000190 c7 fe 2a 3b 93 ea a0 be 79 4d bd 3d 8b 9e 36 be
       0.00260918 -0.31428966 0.09243292 -0.17833917
0001a0 c8 ef 18 3d 65 3c 22 3d 0c fa d5 3d 9a c3 51 3e
       0.03733805 0.039608378 0.10448083 0.20484772
0001b0 c3 39 c6 bc e8 bb 8f 3c af d3 c6 bd 45 d7 16 3d
       -0.024197465 0.017545655 -0.09708344 0.03682639
0001c0 35 ba c6 bd 7d b0 85 3d 17 2c 03 3e e5 1e 7c be
       -0.09703485 0.06527803 0.12809788 -0.2462116
0001d0 ce 66 fb 3d fd 96 ac 3d a4 3d 53 3d 0f 40 f7 bd
       0.12275468 0.08427236 0.051572457 -0.12072765
0001e0 ed ad f9 3d 7b 37 67 be dc 22 cc bd 66 47 de 3e
       0.12191377 -0.22579758 -0.099675864 0.43413848
0001f0 31 f4 4f bd d6 26 f9 3d a4 26 b3 3d 9d 67 40 3e
       -0.05076999 0.121656105 0.087476045 0.18789525
000200 de b7 37 be 72 68 25 3e d3 11 00 3e 12 f1 84 be
       -0.17941234 0.16153124 0.125068 -0.25965172
000210 22 4c 8d 3e f2 a9 c6 3c 32 47 a3 3b 44 8b 0f be
       0.27597147 0.024250958 0.0049828524 -0.1401797
000220 cd 3b b4 bd fa bc 2e be b9 91 82 3e b6 ef 06 3e
       -0.088004686 -0.17064276 0.25501803 0.1317738
000230 b4 f5 1c 3d 39 8a 22 3d 8b 9d 2a 3e e7 88 1a 3d
       0.03832026 0.0396826 0.1666166 0.037728216
000240 46 5c c2 bd 04 43 98 3d ef 5f ed 3d a8 b6 8d 3e
       -0.09490256 0.07434657 0.115905635 0.27678418
000250 c1 f6 3f 3d af 83 42 be 1d a9 33 be ed 39 a9 3e
       0.046866182 -0.18995546 -0.1754498 0.33052006
000260 e7 6f ba 3d 3f da 6c 3e 2f 1d 17 be b6 ed 74 3d
       0.09103375 0.2313013 -0.14757226 0.05979701
000270 66 57 21 be a8 6d e1 3d 88 d5 fc bd d0 97 b2 bd
       -0.15755996 0.110072434 -0.12345415 -0.08720362
000280 65 1c 58 bd e6 c7 ea 3c a5 61 60 3d 3e 6b a4 3c
       -0.052761454 0.028659772 0.05478062 0.020070668
000290 af 9a 99 3d 97 73 0d 3e 61 f6 1a be 87 95 90 3d
       0.07500207 0.13813625 -0.15133049 0.0705977
0002a0 4a f9 57 3e 9e a5 86 3e 20 11 66 3e 47 39 0f be
       0.2109119 0.2629823 0.2246747 -0.13986693
0002b0 2f 57 72 bc 33 0f 25 3d f8 48 94 3d cd 2a 0a 3e
       -0.014791294 0.0402977 0.0724048 0.1349289
0002c0 53 22 49 3d 89 7c 13 be 4c 5e f0 bd 1d 8e 40 bd
       0.049105 -0.14402975 -0.11736736 -0.04701053
0002d0 c8 e5 06 3e d8 5d 07 be dd d7 8d bd de 88 00 3e
       0.13173592 -0.13219392 -0.06925938 0.1255221
0002e0 71 46 7c 3d 72 cc 88 3d f6 d4 54 be 95 32 ee bd
       0.061590616 0.0667962 -0.20784363 -0.116307415
0002f0 52 c7 48 bd 4d 3b ad 3d 33 32 c2 3c 90 1e a7 bd
       -0.04901821 0.08458576 0.023705577 -0.08160126
000300 ca f9 c0 3e 38 09 08 bd 51 37 91 3e 17 1c 67 bc
       0.37690574 -0.033211917 0.28362516 -0.014105818
000310 18 59 e1 3b ff fb 5c bd 7e f6 1d 3c ba 1e 23 3e
       0.006877076 -0.05395126 0.009641288 0.1592969
000320 8d 45 20 3e 95 37 94 3d ad c5 86 3e 0e 7e 5e be
       0.15651532 0.07237164 0.2632269 -0.21727774
000330 e3 c3 9a 3d 16 51 e9 3d 4a 2d 5f be c0 db 33 3c
       0.07556894 0.11392419 -0.2179462 0.010977685
000340 52 c5 45 3e 2f bd 21 3e 2a 8f 5f 3e f7 e4 c6 3e
       0.19313553 0.15794824 0.21831957 0.3884656
000350 5e 93 43 3e 4d a5 e9 3d 71 04 b2 bd 11 12 29 bd
       0.19099185 0.11408482 -0.086922534 -0.041276995
000360 b9 e9 30 be 03 27 17 3e 2c b4 b3 bd 83 32 ad 3c
       -0.17276658 0.14760976 -0.087745994 0.02114225
000370 61 7c c6 bd bb 5e 9d be e6 a5 29 be e6 9e 5d 3d
       -0.09691692 -0.30736336 -0.16567191 0.054106615
000380 1b 70 45 3e e2 7d be bc f3 ce d6 3c 6a 28 d9 bd
       0.19281046 -0.023253385 0.026221728 -0.106034115
000390 28 d4 24 3b a4 47 b5 3c d7 3e 3b be 8f 14 e5 bd
       0.002515087 0.022128887 -0.1828569 -0.11185562
0003a0 97 e0 91 3e 3e d6 e6 bd 87 5c 90 bd 44 6c 2f 3d
       0.2849166 -0.11271332 -0.07048898 0.04282786
0003b0 75 7a d7 3d 9b b6 29 3d d4 d2 c5 3e 82 6c 8a 3d
       0.10521404 0.04143391 0.38637412 0.067589775
0003c0 4a b5 03 3e db 07 9c 3d b4 a2 7b 3e ec fb 14 be
       0.12862125 0.07618686 0.24573785 -0.14549226
0003d0 84 65 52 3e dd b2 4e 3e b9 99 26 be e0 34 ca bc
       0.20546538 0.20185418 -0.16269578 -0.024683416
0003e0 aa 91 3b 3c cc 72 0c be 75 75 f3 bd 0a c8 b0 bd
       0.011448303 -0.13715667 -0.118876375 -0.086319044
0003f0 6d e2 99 ba 66 2e 55 3d 4d f1 f6 3c c2 12 1f be
       -0.0011740454 0.052046202 0.030144358 -0.155345

fc3.bias f4 [2]
000000 b7 07 1e 3d 60 b4 b4 bc
       0.038581576 -0.022058666

bn1.weight f4 [400]
000000 39 5d fd 3e 1a 95 9b 3e 7f e5 3f 3f 05 cb 56 3f
       0.49485186 0.30387193 0.7495956 0.83903533
000010 91 87 3a 3f 31 43 c3 3e 62 c2 33 3f 6e 05 87 3f
       0.7286311 0.381372 0.7021848 1.0548532
000020 ee b1 c2 3e 68 04 94 3d 71 de 48 3f 7f b1 d8 3e
       0.38026375 0.07227403 0.7846442 0.4232292
000030 67 c6 f6 3e 52 cb 72 3e 85 2b 22 3f 23 8d ee 3e
       0.48198244 0.23710373 0.63347656 0.46592054
000040 84 ea 7d 3f 85 9a 13 3f fc 1a 88 3f a0 f9 91 3e
       0.9918597 0.57657653 1.0633235 0.2851076
000050 06 f1 5d 3f 4e 36 4d 3e a2 73 6b 3f e9 02 4b 3f
       0.866959 0.20040247 0.91973317 0.79301316
000060 e8 07 58 3e 5e e5 67 3f 2d 4f 62 3d f4 49 df 3e
       0.21096766 0.9058436 0.05525129 0.4361111
000070 57 13 26 3e fd ba dd 3e fc 9e d0 3e f5 06 83 3f
       0.16218315 0.43306723 0.40746295 1.0236498
000080 47 c3 3e 3f 3c 5b 75 3f 56 e3 22 3f 1e bd 3c 3f
       0.7451672 0.9584234 0.6362814 0.7372607
000090 e8 19 e9 3e 50 d9 88 3e 96 bf 4d 3e b8 92 87 3e
       0.45527577 0.26728296 0.20092615 0.26479125
0000a0 6d dc 63 3f 8c c2 1d 3f e0 75 a0 3e 5b 26 6e 3f
       0.8900822 0.6162498 0.3133993 0.93027276
0000b0 b3 49 63 3f 1d a6 e0 3e f5 08 86 3f ec 01 36 3f
       0.8878433 0.43876734 1.0471483 0.7109668
0000c0 52 99 96 3e b9 46 28 3f 35 8e b5 3e 72 cf e7 3e
       0.2941385 0.65732914 0.35460058 0.45275456
0000d0 1d 9a a8 3e b9 69 7b 3f 6c 7a 7b 3f 7a 7c 5d 3f
       0.3293008 0.98208195 0.98233676 0.8651806
0000e0 fb 59 40 3f 1f c0 79 3e 61 de 87 3e 39 a2 38 3f
       0.751373 0.24389695 0.2653685 0.7212253
0000f0 19 fe 88 3f 4d c1 7e 3f 9d 03 c3 3e dd 1e 3f 3f
       1.0702544 0.99513704 0.38088694 0.7465647
000100 0c 9f 7c 3e 8b 25 cf 3e 57 3a fa 3e 12 e8 26 3e
       0.24670047 0.4045833 0.48872635 0.16299465
000110 c0 99 3e 3f 01 74 78 3f 37 16 b6 3e 65 f7 10 3f
       0.74453354 0.9705201 0.35563824 0.56627494
000120 96 a4 0d 3f 90 d7 c4 3e 1f 52 5b 3f 21 df 88 3f
       0.55329263 0.3844571 0.8567218 1.0693094
000130 c3 01 33 3f 53 c5 78 3f 13 48 bf 3e e9 94 02 3f
       0.69924563 0.9717609 0.37359676 0.5100847
000140 cd b2 b1 3e 50 98 1e 3f ee 95 25 3f ac 71 2c 3f
       0.34706727 0.6195116 0.646819 0.6736095
000150 1d 80 9a 3e ff d4 09 3f b1 ad 76 3f 28 6b 4c 3f
       0.30175868 0.5384063 0.9635878 0.7985101
000160 e8 cd 01 3f be 28 d2 3e 95 05 86 3f 58 30 e5 3e
       0.50704813 0.4104671 1.0470454 0.44763446
000170 58 49 4d 3f a9 38 77 3f 98 bd f2 3e 87 b5 01 3f
       0.8019004 0.9657083 0.47410274 0.50667614
000180 73 21 9f 3e 78 bb ac 3e 7d 53 81 3f ac 70 61 3e
       0.31080207 0.33736777 1.0103604 0.22015637
000190 0d a3 1e 3f 55 2a 02 3f cb 91 55 3f d1 ab af 3e
       0.61967546 0.50845844 0.8342559 0.34310773
0001a0 02 5c 15 3f 60 47 ed 3e 5e 18 8b 3e c7 ea 72 3f
       0.5834352 0.46343517 0.27167028 0.9488949
0001b0 3a 9e 4e 3f f3 28 48 3f 63 6d 60 3f 8c 2f 8f 3e
       0.80710185 0.78187484 0.8766691 0.27965963
0001c0 15 29 da 3e 6a 93 2b 3f 70 9e 80 3e 15 81 6a 3f
       0.42609468 0.6702181 0.25120878 0.91603214
0001d0 d0 6b a0 3e f8 8d 49 3f fd 02 5c 3e 6b 0e 6f 3f
       0.31332254 0.7873225 0.21485515 0.93381375
0001e0 a2 0b 83 3f d7 fc 4c 3f 8e 27 eb 3e e2 9f 78 3f
       1.0237925 0.80073303 0.45928615 0.9711896
0001f0 47 20 d1 3e 30 90 91 3f 27 16 e3 3e 1e 08 8c 3f
       0.40844938 1.1372128 0.44352838 1.0939977
000200 3c 3b 3d 3f 98 ca 96 3e 61 f1 24 3e 69 44 24 3e
       0.7391851 0.29451442 0.16107704 0.16041721
000210 01 fe 2c 3f d3 d5 2a 3f d7 c3 d9 3e 62 aa 3f 3f
       0.6757508 0.6673252 0.42532226 0.7486936
000220 3e 30 e4 3e 4a c4 04 3f ee 92 14 3f b8 18 20 3f
       0.44568056 0.51862013 0.58036697 0.6253772
000230 1c 96 8d 3f d4 55 d1 3e 0b 48 cd 3e df e6 0e 3e
       1.1061435 0.40885794 0.40094027 0.13955258
000240 19 37 b8 3e ef 2e 3a 3f 6d 0e dc 3e 71 da e3 3e
       0.35979536 0.72727865 0.42979756 0.44502595
000250 85 a6 a2 3e 49 6b 81 3f c3 45 04 3f 7d b3 e5 3e
       0.3176767 1.0110866 0.5166895 0.448635
000260 7a 96 2c 3f b9 30 d5 3e e1 79 3e 3f d7 9c 03 3f
       0.6741711 0.41638735 0.7440472 0.51411194
000270 78 06 2a 3f 1b 8c 89 3e 78 cc d1 3e 43 c1 80 3f
       0.6641612 0.26864704 0.4097631 1.0058979
000280 e8 c6 88 3f 46 4c 7f 3f de 32 a9 3e 11 a0 87 3f
       1.0685701 0.9972576 0.3304662 1.0595723
000290 70 85 0e 3f 6c 8b 5b 3f 9a 75 66 3e bc 23 14 3f
       0.5567236 0.85759616 0.22505799 0.57867026
0002a0 c5 5d 98 3e bc 1a 4a 3f 9b 55 73 3f 2e b8 d3 3e
       0.2975904 0.78947043 0.950525 0.41351455
0002b0 0e 88 74 3f 79 8f c4 3e 61 6f 93 3e 84 2f 2f 3f
       0.955201 0.3839071 0.28795913 0.6843188
0002c0 25 1d 87 3e 2f 11 7b 3f 10 2a 93 3e 15 ce 36 3f
       0.26389423 0.98073095 0.2874303 0.71408206
0002d0 02 10 0c 3f ed 11 0d 3e 78 5a 06 3f a3 4f 47 3f
       0.54711926 0.1377637 0.52481794 0.7785589
0002e0 ea be da 3e 25 4d 15 3e ce 6b 38 3f 79 8f 6c 3f
       0.4272378 0.1458021 0.72039497 0.9240642
0002f0 ff 35 85 3f 4c 24 95 3d 02 ee 81 3f 29 e7 b0 3f
       1.0407103 0.07282314 1.0150759 1.3820544
000300 1d 67 b8 3e e5 b6 5a 3f 6d 33 a9 3e c6 83 9e 3e
       0.3601617 0.85435325 0.33047047 0.3095991
000310 31 43 3b 3f b3 1e d1 3e a3 83 8b 3e 0d 4c 34 3e
       0.731494 0.40843734 0.27248868 0.17607136
000320 4e 5d bb 3e 7c 1f 4b 3f 67 db 52 3f 3e 09 26 3f
       0.36594623 0.79344916 0.8236603 0.6485785
000330 b1 86 16 3f 31 fb e0 3e d1 37 20 3e e3 75 87 3f
       0.5879927 0.43941644 0.15646292 1.0582851
000340 50 df 64 3e e4 35 9a be 09 73 44 3f 34 4d f2 3e
       0.22350812 -0.3011924 0.7673803 0.47324526
000350 fb 57 8e 3f 71 a4 69 3f e8 3b ad 3e bc 38 87 3f
       1.11206 0.9126654 0.33834767 1.0564189
000360 fa f8 01 3e 73 a4 c2 3e e2 ec 36 3f 09 f7 7b 3f
       0.12692633 0.3801609 0.71455204 0.9842382
000370 4d 66 38 3e db 5c 56 3f b2 7b 43 3f 60 bf 5c 3e
       0.18007775 0.83735436 0.7636062 0.21557379
000380 f9 cd d6 3e 16 9e 58 3e 0a 27 e5 3e 90 8f af 3e
       0.4195402 0.21154055 0.44756347 0.34289217
000390 39 a4 d4 3e 2b 0b 84 3e 9a ed 63 3e 76 35 44 3f
       0.41531542 0.2578977 0.22258607 0.76644075
0003a0 a8 19 2f 3f 4f 6e 62 3f e3 c4 30 3f 85 a3 44 3f
       0.68398523 0.8844957 0.69050425 0.7681201
0003b0 61 ba 53 3e fb 87 49 3f a6 c3 87 3f 20 23 3c 3f
       0.20676567 0.78723115 1.0606582 0.73491096
0003c0 a7 11 c8 3e 42 fc c5 3e d5 30 2f 3f 9b 2c 64 3f
       0.39075968 0.3866902 0.68433887 0.8913056
0003d0 bd 6c 82 3f 92 82 fd 3e 72 6d 3f be bc a4 68 3f
       1.0189434 0.4951368 -0.18694094 0.90876365
0003e0 b8 04 5a 3f e9 67 ff 3e ce a5 47 3f 3a 76 6f 3e
       0.8516345 0.49883965 0.7798737 0.23384944
0003f0 88 18 24 3e b6 be 17 3f 8f 62 83 3f 88 86 43 3f
       0.16024983 0.59275377 1.0264453 0.76377153

bn1.bias f4 [400]
000000 b5 03 d7 bc 8a b2 08 3b 35 87 60 3c 3b ac 36 3c
       -0.026246885 0.002085837 0.013704111 0.011149461
000010 02 29 9f 3c 48 20 30 3d 60 93 13 3d 5c 4d 43 bd
       0.019428734 0.042999536 0.03602922 -0.047681198
000020 66 2a 13 bc 3f 9c 80 3d 14 26 d1 bc 6c 0a 2a bc
       -0.008982277 0.062798016 -0.025530852 -0.010378461
000030 43 1d ab 3b 94 1f 56 3d dc 06 3a 3c 1d 7f c4 3b
       0.005221994 0.05227621 0.011354174 0.0059965984
000040 36 6a 9c bb bf eb 19 3d 0f 01 30 3b cd fc 9b bd
       -0.0047734035 0.03757834 0.00268561 -0.07616577
000050 52 94 05 bd 60 89 8b bd 9d b3 a3 bc ec 2b 43 3d
       -0.032612152 -0.068133116 -0.019983107 0.04764931
000060 5f 46 94 bd 6a 85 9c 3b 34 6b bb 3d 09 6e 4b 3d
       -0.07239985 0.0047766464 0.09151307 0.049665485
000070 d5 5f a6 3c f1 44 06 3c d2 33 54 bc 7c e5 f6 bb
       0.020309368 0.008195148 -0.012951808 -0.007534681
000080 ab 25 35 3c a0 97 85 3b 36 06 ac 3d 37 5b df 3c
       0.011056344 0.004076913 0.08399622 0.027265174
000090 e7 82 7f bd f6 d6 43 bd 71 63 92 bc 17 02 c4 3d
       -0.062380698 -0.047812425 -0.017869683 0.09570711
0000a0 db 09 a2 bc 07 5a d0 bc ea e4 99 3b d1 cf 34 bd
       -0.01978009 -0.025433553 0.004696478 -0.0441435
0000b0 53 35 1f 3c a2 a9 ad 3c 39 92 3b bd 35 18 22 bd
       0.009717303 0.021199051 -0.045793746 -0.039573867
0000c0 7d 9b 96 3c 9f 11 b9 bc e0 73 71 3d a0 fd 90 bc
       0.01838469 -0.02259141 0.058948398 -0.017699063
0000d0 b1 59 a8 bc ba a0 06 bd 1a 0e c7 3c da 1b 15 3d
       -0.02055058 -0.032868125 0.024298716 0.036403514
0000e0 89 f2 7c 3d 8a 97 84 bd 56 6c 47 3d 12 40 1b bd
       0.061754737 -0.06474216 0.0486873 -0.0379029
0000f0 1f 5e 23 3d 4a ed fb 3b cb 3d 8c 3d 55 56 4c 3c
       0.039884683 0.007688199 0.068477236 0.012471755
000100 96 fa c7 3d 72 8c bc 3d 39 1a 4c 3d 25 42 a1 3d
       0.09764592 0.09206475 0.049829695 0.07873944
000110 44 8a 81 3c ea 13 19 bd 5d 23 c7 bd 87 f3 94 3c
       0.015813 -0.037372507 -0.09723542 0.01818253
000120 a5 a2 13 3d 0c 54 06 ba 97 88 21 3d 9f 67 0b bd
       0.03604378 -0.00051242183 0.039436903 -0.034034368
000130 1b 6d 48 bd e7 16 54 bd 8d 83 1b 3c ce e8 e1 3c
       -0.048932176 -0.051779654 0.009491813 0.02757683
000140 89 0c 29 bc b5 a5 fe 3c 4c 86 bd 3b 1d 54 20 bd
       -0.01031793 0.031084875 0.0057838317 -0.039142717
000150 5c 21 49 bc c1 74 89 bd 22 79 36 3d 34 70 72 3d
       -0.01227602 -0.06711722 0.044549115 0.059189036
000160 19 03 f9 3c 1a a7 6a 3d 70 56 eb 3a 30 df 9a bb
       0.030396985 0.057288267 0.0017954838 -0.004726313
000170 d7 5f 00 bd 4c a7 ba bb 68 21 31 3c e6 3f 14 3b
       -0.0313414 -0.005696213 0.010811187 0.0022621094
000180 ce 1f a4 3c 5a 3e 47 bd 24 14 25 bd 39 d3 e3 3d
       0.020034697 -0.048643447 -0.04030241 0.11124272
000190 0d d4 58 bd b3 72 92 bc 1f a9 76 bd ba bd e4 3c
       -0.052936602 -0.017876958 -0.06021988 0.0279225
0001a0 05 cf 4a 3d 82 59 12 bd cd 47 82 3d 9e e1 93 3b
       0.049513835 -0.035729893 0.06361351 0.0045129796
0001b0 ef 32 99 bc 67 9d 76 3b 83 17 a6 3c 7d fa 1b 3d
       -0.018701045 0.003763044 0.020274883 0.03808068
0001c0 94 70 cf 3d 69 39 41 3c 29 9e c7 bc f9 a7 01 bd
       0.101288944 0.011793473 -0.024367409 -0.03165433
0001d0 f2 4f 8b bc 69 5a a0 3c a9 f3 c5 3c c2 06 b1 bc
       -0.017005894 0.01957436 0.024164038 -0.021609668
0001e0 47 78 8b 3d 8d b3 48 bc ed 13 66 bd 1d 74 ab bb
       0.068100505 -0.0122498395 -0.056171346 -0.0052323476
0001f0 49 e5 50 3d 6e 52 d5 3d ac 6f 72 bd 75 97 28 bd
       0.050999913 0.10416113 -0.05918853 -0.041160066
000200 92 5e 2a bc b2 d5 8e bc e6 d6 96 3d 8c 97 ba bc
       -0.010398524 -0.017435882 0.073652074 -0.022777341
000210 18 40 a2 3c aa 6a 66 bd 14 26 65 3b 00 6e b6 3c
       0.019805953 -0.056254067 0.0034965323 0.022269249
000220 c2 f7 cf bc dd 7a 71 bd 4f 41 63 3c 1a da 85 3d
       -0.025386695 -0.058955062 0.013870551 0.0653574
000230 bf 4f a9 bb 42 ef 3f 3c 41 2e 37 bd 35 ab 7f 3d
       -0.005166977 0.011714758 -0.044721846 0.062419135
000240 39 be 7e bc db 03 ac bc bc 33 1b bd 8e df 22 3d
       -0.015548282 -0.020997932 -0.037891135 0.03976398
000250 79 9f 48 bd 24 0f ce 3c d2 72 82 bd c7 54 38 bd
       -0.04898021 0.025153704 -0.063695565 -0.045002725
000260 63 ea ee bc 82 fd 21 bd 8e 2b 2d bc a1 5a 9b bc
       -0.029164499 -0.039548405 -0.010569466 -0.018964114
000270 2e dc 4d 3c 9d 2b bb 3c 7d 17 03 3d 7e 91 0e bd
       0.012564702 0.022847945 0.032004822 -0.03480672
000280 de fe 73 3d 93 49 b0 3c 2c cf 2d 3d 5f de 5d ba
       0.059569232 0.021519458 0.042433903 -0.0008463617
000290 9e 63 69 3d 2d 05 05 ba d2 29 82 bc 16 5f 49 bd
       0.056979768 -0.00050743186 -0.015889082 -0.049162947
0002a0 5a 19 92 3c 26 9b 9a 3d c4 b5 1d 3d 99 92 02 3d
       0.017834354 0.075491235 0.038503423 0.031878088
0002b0 6e 8a 46 3c c4 4e 12 3d dd d2 8d 3d 08 05 57 bc
       0.012117965 0.035719648 0.069249846 -0.013123758
0002c0 77 b6 9e 3a a3 6b 27 3d 29 57 f7 3d 89 6f a2 3d
       0.0012108822 0.040874135 0.12077171 0.0793143
0002d0 ca cb ac 3b 98 84 2b bd af 84 65 3b 18 a8 94 bc
       0.005273317 -0.041874498 0.0035021713 -0.01814656
0002e0 5a 00 0a 3d 17 9f 6f 3d 29 ad 5d bb d4 87 ca 3c
       0.03369174 0.05850133 -0.0033825135 0.024722971
0002f0 95 80 e7 3c cb 63 e2 3d 02 3f 24 3c ef 7c ba bb
       0.028259555 0.1105419 0.010024788 -0.005691163
000300 2b 4f bc bc a7 45 e7 3c b9 a3 1f 3d d4 63 e8 3d
       -0.022986969 0.028231455 0.038974497 0.11347166
000310 79 0c 31 bc d6 19 8b 3c dc 0f 6c 3c d2 fe a3 bc
       -0.010806196 0.016980093 0.014408078 -0.020018969
000320 5d 28 77 bc a2 75 29 3d 32 00 87 3b 22 8b b7 3c
       -0.015085307 0.04137195 0.0041198963 0.02240521
000330 02 ce 87 3d b0 45 49 bc f2 99 42 3c 2a c6 39 3d
       0.0663109 -0.012284681 0.011877524 0.045355
000340 f5 dc fa bc 98 4f c6 3d 99 f3 55 bc 21 0d 0e bd
       -0.030622939 0.0968315 -0.0130585665 -0.03468049
000350 ae a0 aa bc e1 b0 de 3b 6c e1 77 3d 8b dd 1e bd
       -0.020828571 0.006795988 0.060517713 -0.0387855
000360 8c 6a 9b 3d 10 53 88 3d ec 1c 0c 3d 7a d4 9e 3a
       0.075886816 0.06656468 0.03420727 0.0012117766
000370 bc 6c bb 3c fa c4 04 bd 19 27 53 3b a6 2b 2a 3d
       0.022878997 -0.032414414 0.003221935 0.041545533
000380 52 a0 53 3d 92 13 2c bd 77 27 1d 3d 06 2a a1 bd
       0.051666565 -0.04201085 0.038367715 -0.078693435
000390 e1 c6 15 bb ee 0b 2e bd 11 07 54 bb 2d 55 10 bd
       -0.0022854137 -0.042491846 -0.0032352845 -0.03523748
0003a0 d3 e9 2c bd 5d 1e 00 bc 70 54 41 3d 16 2b 10 3d
       -0.04221518 -0.007819739 0.047199667 0.03519734
0003b0 4d 93 b4 bd 36 2b 52 bd cb d0 6a bd 76 8f a6 bc
       -0.08817158 -0.05131074 -0.057328027 -0.02033208
0003c0 11 03 17 bd bd 29 33 bc 57 55 a0 3d ae 12 73 3d
       -0.03686816 -0.010935244 0.07828777 0.059343986
0003d0 c7 2a 4a 3d 65 02 46 bd 1f b7 8b 3d b4 81 70 3d
       0.049357202 -0.048342127 0.06822037 0.058717445
0003e0 ad ea 91 3b f9 80 4c bd d4 ed 29 3d 6d e1 da bc
       0.0044530244 -0.049927685 0.041486576 -0.02671882
0003f0 89 22 b0 bc 55 b6 2e bd 2d ba 8b bc 4a 70 0f bd
       -0.021500843 -0.042654354 -0.017056549 -0.035019197
