Deep Reinforcement Learning Nano Degree/Collaboration and Competition/model/checkpoint_actor_local_0.pth (torch_old, 531450 bytes, 10 tensors)

fc1.weight f4 [400, 24]
000000 f7 5b d3 3c ff 9b d0 3c 1b ec a3 bc 74 4a b7 bc
       0.025800688 0.02546501 -0.020010045 -0.02237437
000010 0b 5e 90 bd 9e 06 9f bd 79 36 72 3b 03 a4 24 3d
       -0.07049187 -0.07764934 0.0036958738 0.040195476
000020 7b d6 88 3d a5 9f aa bd 35 65 d8 bc 4b aa 4e bd
       0.06681534 -0.08331231 -0.026415447 -0.050455373
000030 be ad 9d bd 92 43 27 bd 36 64 00 3d 8f a9 b6 bc
       -0.07699154 -0.040835924 0.03134557 -0.022297649
000040 37 48 d9 3b 73 6b 92 bd 68 50 66 bd 7b 80 8e 3c
       0.006630923 -0.071494006 -0.056229025 0.017395249
000050 cf b0 19 bd 46 ec ff bd d4 27 ba 3c 15 b4 4e 3d
       -0.037522133 -0.124962375 0.02272407 0.05046471
000060 9a 92 82 3d 0e 61 d1 3b 12 b3 f9 bc 60 b7 46 3d
       0.06375618 0.0063897436 -0.030480895 0.048514724
000070 af bc 8e 3d 48 da 10 be ce 14 17 bd 53 59 33 3d
       0.06969582 -0.14145768 -0.036885075 0.043786358
000080 15 f5 8e 3b ca 8a 6d 3c f2 b2 c4 3c 8c 08 92 3c
       0.004362712 0.014498422 0.024011109 0.017826341
000090 ca 90 ed bc df 4e 48 bd 33 3f 4f bc fc c2 40 3c
       -0.028999705 -0.048903342 -0.012649345 0.011765238
0000a0 61 ec 96 3d 07 79 b5 bc b2 bd 43 ba 20 56 62 3d
       0.073693044 -0.022152437 -0.00074669265 0.055257916
0000b0 4c 88 0d bc 37 74 e8 bd 0f 2d 0a bc 50 74 93 3d
       -0.008638453 -0.11350291 -0.008433594 0.07199919
0000c0 e0 bc ac 3b 63 84 17 3d 01 91 b9 bb ad c8 e6 3c
       0.005271539 0.03699149 -0.0056630378 0.028171862
0000d0 11 f7 86 3b e2 13 ed 3c 36 64 9a ba 5b a2 1f 3d
       0.004118808 0.028940145 -0.0011779133 0.038973194
0000e0 5b 42 1e 3d b3 7e a1 3d d7 ee 04 3b 3d d7 f5 bc
       0.0386375 0.07885494 0.0020283961 -0.03000986
0000f0 a7 f2 41 3c f7 a7 f7 bc 0f 7f c4 bb 00 2b 04 3c
       0.011837638 -0.030231459 -0.005996592 0.008066893
000100 93 2c 8e 3c b9 57 c6 3d 85 a8 fe bc ec 6f 28 3d
       0.017355239 0.096847005 -0.031086216 0.041122362
000110 44 83 80 3d a4 9a 93 be 06 3a ef 3c c3 ce 60 b9
       0.06275037 -0.2882892 0.029202472 -0.0002143933
000120 00 58 90 bc 36 24 2c 3d 72 7b cf 3c 86 ed c0 3d
       -0.017620087 0.04202672 0.025327418 0.09420304
000130 4b 01 e2 3d cd 98 fb 3c bf 31 95 bc ec bf dd 3d
       0.11035403 0.03071251 -0.018212197 0.10827622
000140 3f c3 1d 3d de d1 aa 3c cb 07 d4 bc cc 4f 38 3d
       0.03851628 0.020852026 -0.025882622 0.044997975
000150 f1 b8 c3 3d 9a c6 f4 bc 81 4e dc 3b e0 87 3a 3d
       0.09556759 -0.029879857 0.0067232256 0.045539737
000160 f8 9b 81 bc 43 3d 01 3d e5 ff 69 bc 73 9c 30 3d
       -0.015821442 0.031552564 -0.014282201 0.04311795
000170 c7 04 4f bc 99 a0 4b 3b 9b c6 06 3d b6 05 8b 3c
       -0.012635416 0.0031071065 0.03290425 0.016970497
000180 5d 13 ad 3c 02 a2 b4 3d 54 5d 77 3d 44 9c db bc
       0.021127397 0.08819963 0.06039174 -0.026807912
000190 5f 44 10 bd 6c 85 0b bd f4 65 50 3d 1b 39 06 3d
       -0.035221454 -0.034062788 0.05087848 0.032769304
0001a0 e4 19 27 bd da 62 10 3e 8b d7 17 3d d7 71 d2 3c
       -0.040796176 0.14100209 0.037070792 0.025689049
0001b0 19 b9 4b bd c2 80 79 bb f9 99 90 bc e5 03 2c bc
       -0.04973707 -0.003807113 -0.017651545 -0.010498975
0001c0 64 5c a7 bc 0c ba f5 3d 79 11 f3 3a fc af f9 3d
       -0.020429797 0.11998376 0.0018544636 0.121917695
0001d0 f2 3e 79 3c e0 b2 98 3c ce c5 a7 3c d1 00 f0 3d
       0.015212761 0.018639982 0.020480063 0.11718906
0001e0 20 81 e5 3c ae a5 5c bd 7d 46 5d bb 25 6f a9 3d
       0.028015673 -0.053868942 -0.0033763938 0.08273152
0001f0 71 99 d7 3c 8a e0 2c 3d 7e ca 94 bd de e1 b1 3d
       0.026318284 0.042206325 -0.07265185 0.08685659
000200 4a 96 cf 3d 0e 6e 1e bb 5f 77 68 3d 50 3e a7 3d
       0.10136087 -0.0024174484 0.056754466 0.08166182
000210 d0 9e 0a bd ca dd 80 bc bc b6 a5 bc d8 0d e8 b9
       -0.03384286 -0.015730757 -0.020228736 -0.00044260803
000220 ff 75 96 3d 38 25 56 3d 7e 1d 1f bb 79 ac b4 bc
       0.07346725 0.05228159 -0.0024279053 -0.022054898
000230 5c ac dd bb 16 48 24 bd 96 35 c7 3b 8f 51 3a 3d
       -0.0067649316 -0.04010781 0.006079386 0.045487937
000240 ae eb dd 3d 4f a2 84 3d 30 c5 45 3a 2f 07 06 bd
       0.10835968 0.064762704 0.0007544337 -0.032721695
000250 89 9a ec b9 19 7c c9 bd 21 ee c3 3a 14 2d 6b ba
       -0.00045128565 -0.09838123 0.0014948287 -0.0008971256
000260 0f 85 a7 3d 56 30 8d 3d f5 d7 ae 3c f5 32 6b 3d
       0.08179676 0.06893985 0.02134321 0.057421643
000270 88 10 23 bd f2 7b bf bd 6f 68 8a bb a5 ac 49 3d
       -0.039810687 -0.093498126 -0.0042238752 0.049236912
000280 d5 bd 29 3d 54 32 0e 3d 42 76 d6 3c a9 6e 1d 3d
       0.041440804 0.034715965 0.026179437 0.038435612
000290 ec 56 88 bb d4 5f 92 bd 61 52 d5 b9 c4 13 80 bc
       -0.0041607525 -0.07147184 -0.00040687903 -0.015634425
0002a0 19 82 2d bd c6 cf 80 3d 3c f4 d4 bb b9 31 f6 3c
       -0.0423604 0.0628963 -0.0064988416 0.030053006
0002b0 04 fa af 3d a3 26 06 3d bf f2 56 bc 56 17 22 3d
       0.085926086 0.03275169 -0.013119399 0.039573036
0002c0 a9 33 e0 3b b6 e8 5c 3d c9 fa 45 bc 23 2b 91 3d
       0.006842096 0.053932868 -0.012083718 0.07088306
0002d0 f0 84 ac 3c 08 4f 6a 3d 83 b0 ba 3b 97 7c 12 3e
       0.021059483 0.057204276 0.0056973114 0.1430534
0002e0 b3 52 85 bd 59 ab ad 3d bc e1 2d 3d bc aa d0 3d
       -0.06509914 0.084799476 0.042451605 0.10188815
0002f0 0d f8 10 3c e7 c9 c6 bc 4f b9 99 bc f5 f7 09 3e
       0.008848202 -0.024266196 -0.01876512 0.13473494
000300 d7 b6 89 bc 84 7a 32 bc b0 de 97 3b 21 f2 08 bd
       -0.016810818 -0.010893468 0.0046347007 -0.033434037
000310 8c 10 70 3b cb 1e b9 bd 36 29 12 bc f3 c6 aa bd
       0.0036630956 -0.090390764 -0.008920958 -0.08338728
000320 58 f0 7c 3c 79 84 8e bd 8a ce 40 3d 46 3d de 3c
       0.015438162 -0.06958861 0.04707197 0.027128827
000330 67 60 87 3d 0b 9b 47 bd 4d a8 27 bd fb d8 14 3c
       0.06610184 -0.048731845 -0.04093199 0.009084935
000340 e1 14 3f 3c 0a 1e 7b bd 63 93 a4 bc e2 50 15 bd
       0.011662693 -0.061307944 -0.02008981 -0.03645409
000350 1a 1d 1c 3e 65 cf 23 be cd 2d d2 3c 32 15 42 bd
       0.15245476 -0.15997083 0.025656605 -0.047383495
000360 fd 28 3a 3d b6 b7 98 3d 67 7b 91 bc f0 a1 f3 ba
       0.045449246 0.07456915 -0.017759038 -0.001858769
000370 06 9d c7 3c c1 71 b9 bc 47 19 ea 3b fd 84 73 3d
       0.024366867 -0.02263725 0.0071441266 0.059453
000380 89 27 f7 3d dd 60 09 3d 0a a4 21 3d 62 c3 a8 bb
       0.120680876 0.03353964 0.03946308 -0.0051502446
000390 68 74 52 bc 22 1a 10 bd a0 54 1f 3d e5 a1 5f 3c
       -0.012845136 -0.035181172 0.038899064 0.0136494385
0003a0 a5 c0 a9 3d e3 61 8f 3d 60 27 4b 3b e8 dc 16 3d
       0.08288697 0.07001092 0.003099881 0.036831766
0003b0 42 d3 82 bd 39 39 a3 bd 57 61 2e 3c d3 e2 96 3b
       -0.063879505 -0.07969899 0.010643325 0.0046046763
0003c0 a7 55 f5 3c d4 3a 0b be 42 19 e6 bc 9d dd 47 3d
       0.029948069 -0.1359666 -0.028088216 0.04879533
0003d0 89 7a 94 bd 46 f0 a6 3a 5a 10 b4 3c 39 a3 27 bc
       -0.07249934 0.0012736402 0.021980453 -0.010231786
0003e0 07 e1 3a 3d 57 c7 48 bd 27 4b 58 bc 0d 21 80 bc
       0.04562476 -0.04901823 -0.013201511 -0.01564076
0003f0 1e 1e c3 bd b7 5b 04 bc 20 dc 8e 3c 23 fe 90 3c
       -0.09527229 -0.008078507 0.017438948 0.017699307

fc1.bias f4 [400]
000000 86 38 f9 bd a1 0a bb bd 7f 8c 16 3e 5a b7 b0 bd
       -0.12168984 -0.09132887 0.14702033 -0.086287215
000010 07 4c 2d 3e bf a9 6b be 26 4b 71 be 00 59 20 3e
       0.16923533 -0.23013972 -0.23563823 0.15658951
000020 84 53 dd 3d 43 1f c4 bd d5 7a 94 3d 7c 5a 34 3d
       0.10806945 -0.09576275 0.07249991 0.044031605
000030 78 7f 48 be 92 4e 5c 3c 0d 07 0f be 64 64 9b be
       -0.19579875 0.013446467 -0.13967533 -0.3035003
000040 46 6b 1f be d4 79 b1 bd 52 72 48 bd b2 fd b1 bc
       -0.15568265 -0.08665815 -0.04893715 -0.021727417
000050 07 d0 ce bd fa e3 81 be f1 7d 0e be ac 23 de 3d
       -0.10098272 -0.25369245 -0.1391523 0.108466476
000060 47 fa af bd 0e f5 4a be b8 52 5d be 90 df 1a be
       -0.085926585 -0.19820043 -0.21613586 -0.15124345
000070 a4 55 6d be 38 59 08 be 80 02 93 3d c5 d7 a7 be
       -0.231772 -0.13315284 0.07178211 -0.32781807
000080 08 c6 92 3d 94 c8 f4 bc c2 a6 6c bd 29 4a ce 3d
       0.07166678 -0.0298808 -0.05777622 0.10072739
000090 27 82 c1 3c 2e 4b 99 3d 5e 65 8f bd f0 0a c0 bd
       0.023621632 0.074850425 -0.07001756 -0.09377086
0000a0 61 6d 6e be 31 90 3d 3e 3f da b3 bc 02 1b 0d be
       -0.23283912 0.18512036 -0.021954654 -0.13779834
0000b0 61 35 dc bd 9c 81 c7 bd f5 46 6a 3d ef c8 cc bd
       -0.10752369 -0.09741518 0.057196576 -0.099992625
0000c0 fe 4a a6 3d 44 f2 c7 3b f7 73 68 be 1b a8 41 bd
       0.081197724 0.0061018784 -0.22700487 -0.04727946
0000d0 3a 1c fa 3d f2 c8 1e 3e a6 a4 a0 bd b0 89 dd bd
       0.12212415 0.15506342 -0.07843904 -0.108172774
0000e0 51 24 33 3e ec 24 7d be c8 82 b9 bc 90 8a 18 be
       0.17494322 -0.24721116 -0.02264537 -0.14896607
0000f0 67 ff d8 3d 86 1a 39 3d 32 6f ea 3d ec ff 0e be
       0.10595589 0.04519131 0.1144699 -0.13964814
000100 e5 c5 ee 3d 54 d3 33 be ba 05 83 3d 6d d5 12 3e
       0.11658839 -0.17561084 0.06397577 0.14339228
000110 ba c6 12 bd eb 66 82 be 5f 20 69 be 12 95 b8 bd
       -0.03583405 -0.25469145 -0.22766255 -0.09012808
000120 dc 30 26 be 48 23 d6 bd ee 06 cb 3d 1c 64 4a be
       -0.16229576 -0.10455948 0.09913431 -0.19764751
000130 e1 c3 53 3b 24 56 e9 3c a9 76 90 3d 30 69 36 be
       0.0032312798 0.028483458 0.07053883 -0.17813563
000140 61 b4 02 bb 22 d0 37 be f7 68 41 3e 8b 1b 0e be
       -0.001994394 -0.1795049 0.18887697 -0.13877694
000150 45 fe c9 3d 4a b5 26 3c d7 26 2d 3e bf f6 c7 3c
       0.09862951 0.010175059 0.16909347 0.02440965
000160 9a 3c 92 bc c3 64 05 be e0 fb 54 bd 63 74 85 bd
       -0.017851163 -0.13026719 -0.05199802 -0.0651634
000170 c7 9d 32 3e 1c 71 cc 3c bb 3d fe bc db 61 2d 3d
       0.17443 0.024956279 -0.031035295 0.04232965
000180 ac e2 8e 3d 14 dc 57 be ba 33 61 bd ba 7d a7 bb
       0.06976828 -0.21080047 -0.05498097 -0.0051114233
000190 a0 46 89 bd 75 f7 39 3e fb 2c 8d be d8 08 30 be
       -0.06702924 0.18160804 -0.2757338 -0.17190874
0001a0 14 c0 94 be 03 86 1f bd 2c 1c 88 bd a0 6a 87 be
       -0.29052794 -0.038946163 -0.06645998 -0.26448536
0001b0 3c 4d 6d bc 26 91 4b be 55 15 68 bc ef 9f 3e be
       -0.014483746 -0.19879588 -0.014165242 -0.18615697
0001c0 94 37 44 be db 56 40 be dc 2e 1b bc 03 ac 59 3c
       -0.19161826 -0.18783133 -0.009471621 0.01328564
0001d0 a8 4b 5c 3d 43 89 23 be 44 ab f8 bd a1 d9 d3 bd
       0.05378309 -0.1597033 -0.12142041 -0.10344244
0001e0 dd e4 3d be a2 fe 52 be d8 e0 52 be ac 59 0e 3e
       -0.18544336 -0.20604947 -0.20593584 0.13901395
0001f0 42 72 2b be 6d bd 8f 3d b7 01 5f bd 4c 54 68 be
       -0.16742805 0.07018552 -0.054444995 -0.22688407
000200 2e 69 fe 3d 68 3b 9e bd 46 74 79 be 2d 79 79 be
       0.12422405 -0.077261746 -0.24360761 -0.24362631
000210 5a 00 73 be 18 20 0b 3d 94 b5 2c be 98 d5 20 be
       -0.23730603 0.033966154 -0.16866142 -0.1570648
000220 f7 78 18 bd 55 c6 ac bd ce 81 0b bd 60 56 b4 3d
       -0.037224736 -0.08436266 -0.03405934 0.08805537
000230 7f 7c 19 3b 52 ec 96 bc 3f 62 78 bd f8 db 32 3e
       0.0023420153 -0.018423233 -0.06064057 0.17466724
000240 f2 1b d1 bd 2b 2d 53 bc a3 8e 7b 3c 50 b3 d9 bc
       -0.10210408 -0.012889187 0.015353831 -0.02657476
000250 45 04 42 3c a5 a3 2d 3c d8 05 29 be 34 2e e7 bd
       0.011841838 0.010598098 -0.16506135 -0.112881094
000260 9c b9 6e bd bd ae 0c 3d ad 8a 4e be 58 e7 1a be
       -0.05828248 0.03434633 -0.20170088 -0.15127313
000270 23 ef 98 bc 2d 08 7a 3d 23 c2 9b bd b0 ce 7a bb
       -0.018668717 0.061042953 -0.07605388 -0.0038270168
000280 f5 3f 24 bd 69 4a 73 be bf e7 88 be c7 ce 12 be
       -0.040100057 -0.23758854 -0.26739308 -0.14336692
000290 8c 59 fc 3d af 15 2e 3d 18 1d 3d bd 75 10 ca bd
       0.12321767 0.042501148 -0.046170324 -0.0986642
0002a0 c6 d6 81 bd f9 f7 7d be 3e 15 a2 bc d7 61 26 3d
       -0.06339793 -0.24801625 -0.01978552 0.04062065
0002b0 c3 8d 55 be 07 dc 1b 3d 5c 3f af 3c 06 e1 36 3c
       -0.20854859 0.03805163 0.021392517 0.011162048
0002c0 cf 99 8b 3d 48 21 b7 bd 95 f0 00 bd c2 30 14 be
       0.06816446 -0.08941895 -0.031479437 -0.14471725
0002d0 a1 23 c3 3d f2 60 27 be 55 73 76 3d 54 07 b2 bd
       0.0952828 -0.16345575 0.060168583 -0.08692804
0002e0 a9 eb 47 be 2c ce 16 3d 5c 19 e9 bd 8d 94 ba 3d
       -0.19523491 0.036817715 -0.1138179 0.09110365
0002f0 35 70 60 be bf 3c c8 3d c6 57 47 be 23 18 6f 3d
       -0.21917804 0.097772114 -0.19467077 0.058372628
000300 08 51 23 3e 6b 68 55 be e4 ec 17 bd 63 ea 8b 3d
       0.1594888 -0.20840614 -0.03709115 0.06831815
000310 08 43 83 3b 51 ff b8 bd a8 5f 53 be 98 26 db 3d
       0.0040057935 -0.09033073 -0.20641959 0.107007205
000320 ef 9c a1 3d 5b 2d 3f 3e 09 05 ee bd d1 63 ab 3d
       0.07891261 0.18669645 -0.11622054 0.08368648
000330 9a 72 59 bd 7c da ec bd 80 bd 13 be e1 03 22 3e
       -0.05308781 -0.1156511 -0.14427757 0.15821792
000340 da 99 17 3e 10 6b 1e 3e 9f c3 66 be b0 87 9d bd
       0.14804783 0.15470529 -0.22535561 -0.07691896
000350 00 aa 51 bd 67 a8 01 bd 22 76 df 3c 4a 50 0c 3e
       -0.051187515 -0.03165474 0.02727801 0.13702503
000360 a6 cd d2 bb 7f e8 54 3d 9e 14 23 be 9e 0d a1 bd
       -0.0064332066 0.051979538 -0.15925834 -0.078639254
000370 e5 a3 d5 3c 1a 53 2e 3d 82 f6 93 bc 75 1d 45 bd
       0.026079128 0.04255972 -0.01806188 -0.048123796
000380 bb be 94 3d 91 f7 02 3e a6 44 6b be 56 22 23 be
       0.072629414 0.12789752 -0.22975406 -0.15931067
000390 e3 31 79 3d 45 a7 9c be 05 44 b3 3d e5 4e fe bd
       0.06083859 -0.30596367 0.08753208 -0.12417392
0003a0 38 c9 21 3e e5 b9 af 3d 28 62 2c be a0 97 28 bd
       0.15799415 0.085803784 -0.16834319 -0.041160226
0003b0 fd 11 ef bd d2 98 96 bc ca 51 1e bd 26 a3 7e be
       -0.11673353 -0.018383417 -0.03865222 -0.24866924
0003c0 95 28 17 be 49 55 53 3d e3 21 e8 3c 5e 9a 52 bd
       -0.14761575 0.051595006 0.028336471 -0.051416747
0003d0 94 6e ad 3d 3f ab fb 3d d0 80 dd bd c1 9a a6 bd
       0.08468357 0.12288522 -0.10815585 -0.08134986
0003e0 ac fa 67 bd f0 5f d5 3a 23 50 36 be fb 38 9a bd
       -0.056635544 0.0016279202 -0.17804007 -0.075303994
0003f0 d9 02 ac 3d 13 cd 67 be 2f b9 51 be 84 19 18 be
       0.08398981 -0.22636823 -0.20480798 -0.14853483

fc2.weight f4 [300, 400]
000000 1a 72 f3 3b 5f 34 df 3b 00 f1 44 3d 3d e9 bb 3d
       0.0074293735 0.006811663 0.048081398 0.09175346
000010 c2 6a 67 bd 75 b8 2a 3d ec d9 71 bc ca da 58 3d
       -0.056498297 0.04167982 -0.014761429 0.05294303
000020 ea 2b 3d 3d 2c c6 7c bd 62 df d6 3c 4e a3 e3 bd
       0.046184458 -0.06171243 0.026229564 -0.11115132
000030 22 4d b4 bd 90 7e 5e 3c 1c 13 d3 3d 12 94 6a 3d
       -0.088037744 0.01357998 0.10306379 0.057270117
000040 9b 51 58 3b 4b ff bc bc d7 76 ef 3c 46 15 dc 3d
       0.0033007625 -0.023070952 0.029231472 0.10746245
000050 76 d6 a0 3c 1b f1 b5 bd 0a 32 1e 3d d0 39 1b 3d
       0.019633513 -0.08883878 0.03862194 0.03789693
000060 f6 95 b5 3c c3 45 01 3d b4 41 12 bd 01 f3 aa 3d
       0.022166234 0.03156067 -0.03570719 0.083471306
000070 53 b4 86 bd eb e2 0b bd 79 b6 60 bb 4c e5 03 3e
       -0.06577363 -0.034151953 -0.003428845 0.12880439
000080 9c f7 81 bd d2 f0 8f bc 78 31 44 bd 53 d0 45 be
       -0.06346056 -0.017570887 -0.04789874 -0.1931775
000090 66 7e 69 bd ca fa 7f bc a7 df 67 3d b5 10 13 3e
       -0.05700531 -0.015623758 0.056609776 0.14361842
0000a0 80 a5 2b bd d5 bd 6b bd e7 3c b5 bd 5c 65 91 bc
       -0.04190588 -0.057554085 -0.08849507 -0.017748527
0000b0 14 3d 1c 3c 42 4d 9c bd 91 25 fb bb 2c d8 85 3d
       0.009536047 -0.07631923 -0.0076643904 0.06535372
0000c0 ce ea 18 3e ab 1f 8c 3d b5 d1 2b 3e e5 cd 16 3d
       0.14933321 0.06841978 0.16779216 0.03681745
0000d0 95 b0 7e 3d 02 60 9f 3d 12 f7 f3 bc d2 8c 23 3d
       0.06218012 0.07781984 -0.029780898 0.03992922
0000e0 38 1c d5 3b a7 f9 0a bd 89 e5 38 bd 30 75 10 be
       0.006503608 -0.033929493 -0.045140777 -0.14107203
0000f0 6e 90 6e 3d 41 84 02 3a c4 8b 77 3c e5 af f1 3c
       0.058243208 0.0004978814 0.015109006 0.029502818
000100 a4 59 49 bd 7d a8 51 be a6 38 80 bd de e6 bc 3d
       -0.049157754 -0.2047443 -0.06260805 0.09223722
000110 2b 2f f1 bc 3b 54 b2 bc 24 e4 d0 bd a0 8d 83 3d
       -0.029441437 -0.02176868 -0.10199764 0.06423497
000120 d9 80 29 bc e2 c2 60 3d 18 78 c3 bd 19 3c aa 3d
       -0.010345661 0.054873355 -0.095443904 0.08312244
000130 b7 28 10 3c 04 ce d1 bc 9b be d3 3c 47 14 36 3e
       0.00879877 -0.025610931 0.025847724 0.17781173
000140 6b 5b a0 bc 1e 87 43 3d d8 30 12 3d 63 ff 64 bd
       -0.019574841 0.04773628 0.035691112 -0.05590762
000150 d8 85 02 3d 51 4e 6d 3d 11 f3 e9 3c 9a e3 e8 bc
       0.031865925 0.057936016 0.028558286 -0.028428841
000160 62 e2 87 3d b0 d0 b6 bc 02 6b c4 3d d6 3c 09 bd
       0.06634976 -0.022316307 0.095907226 -0.033505283
000170 58 9d 8f bd 1d 71 12 3d 79 9a ea 3b 01 ae a7 bc
       -0.07012433 0.035752404 0.007159528 -0.020468714
000180 86 c9 e7 3c 4f df 92 3d 0c 60 8e bd 7e 72 66 bd
       0.028294336 0.07171499 -0.06951913 -0.056261532
000190 7a b5 3a 3d 9d 7d cd 3c 5e a3 50 3d cd 06 32 3d
       0.045583226 0.025084311 0.05093705 0.043463517
0001a0 e6 37 08 3c 0b 84 9a bd ac 4a 47 3d c0 23 a8 3d
       0.0083141085 -0.075447164 0.048655197 0.08209944
0001b0 e9 99 92 bd bd 60 49 bd 88 d6 07 3d 50 68 b4 3b
       -0.07158262 -0.049164522 0.033163577 0.005505599
0001c0 3a 71 96 bd 2d 6b a4 3c 97 c9 b4 3c 48 f5 e0 3b
       -0.07345815 0.020070637 0.022068782 0.0068651773
0001d0 39 d1 e9 bc a4 21 6d bc 9a 66 35 bd b0 4c 27 bc
       -0.028542148 -0.014473353 -0.0442873 -0.010211155
0001e0 2a 83 4b bc bd 8f 42 3d 86 58 c7 3d 36 36 81 3d
       -0.012421409 0.04750036 0.097336814 0.06309168
0001f0 aa c4 66 3c c2 82 c6 3c 7f d5 96 3c 2c d7 9c 3d
       0.014084974 0.024232272 0.01841235 0.07658228
000200 28 fc a3 bd 7d 88 95 3d dd ad c9 3c 08 77 77 3d
       -0.08007079 0.07301424 0.024619037 0.06041625
000210 93 a9 11 3d c4 da 20 ba fe c3 b4 bd 8b f3 30 bd
       0.03556211 -0.0006136114 -0.08826445 -0.04320101
000220 85 3b d3 3d c0 89 0c bd f5 8e 84 3d 7f ca 6d bd
       0.10314087 -0.034311056 0.064725794 -0.058054443
000230 41 e1 f4 bc 78 0e 13 3c 7a a3 75 bd de 71 85 3d
       -0.029892566 0.008975618 -0.059970357 0.06515859
000240 47 45 4c 3b a4 19 c0 bc 8e 3e bc 3d 2c 6a 95 bd
       0.0031169222 -0.023449726 0.09191619 -0.07295641
000250 b2 5f 42 3d cd 4d e8 3d 8b 7b 51 bd d0 d3 00 3d
       0.047454543 0.11342964 -0.05114321 0.031452
000260 26 28 a1 bb 4a 9f 98 bc 49 54 76 3d 45 b0 04 3c
       -0.004918116 -0.018630642 0.060138974 0.008098667
000270 01 c3 42 bd 2a 96 35 3c f7 87 99 3c 19 ee 45 3d
       -0.04754925 0.011083165 0.01874159 0.04832277
000280 59 82 8c bd e5 30 92 bd b5 ff 27 bb a4 66 21 3d
       -0.06860799 -0.07138232 -0.002563459 0.039404526
000290 fe a6 ad 3c e1 45 c6 3d bd ec c2 3d 68 a0 cd 3c
       0.021197792 0.09681297 0.095178105 0.025100902
0002a0 9b 52 26 bb b7 cb a7 bc a2 7f 2d 3d f1 4f f7 3d
       -0.0025378827 -0.020482881 0.04235805 0.120757945
0002b0 89 53 cd bc 40 ca db 3c e8 35 2e 3e 6e d4 bf 3c
       -0.025064247 0.026829839 0.17012751 0.023416724
0002c0 68 36 00 3d 06 3f 82 3c aa fd 88 3d dc 21 75 bd
       0.031301886 0.015899193 0.066890076 -0.059846744
0002d0 19 e6 9c bc 04 98 c9 bc 84 36 d6 3c 77 ec 76 bd
       -0.019152688 -0.02460862 0.026149042 -0.060284104
0002e0 82 16 d3 3d 1d 26 77 3c e7 eb f8 3c ff c8 5a bd
       0.103070274 0.0150847705 0.030385925 -0.05341434
0002f0 2a 7a 9e 3d 5d 99 b9 39 fa 56 28 3d b8 74 81 3c
       0.07738145 0.00035400214 0.041098572 0.015802726
000300 9a 10 12 3d f2 0a ab bc 84 73 3f bc 3a 23 cb 3c
       0.035660364 -0.020879243 -0.011685256 0.02479707
000310 a4 71 08 bd 5f 9f 9c bc 1c 9f f7 3c c6 cc 99 bd
       -0.0333115 -0.019118963 0.030227236 -0.075097606
000320 36 da 93 3c 8b 80 37 bd 0c 0c 6c 3d 3c 84 64 bd
       0.018048387 -0.044800323 0.057628676 -0.05579017
000330 f9 fc bb 3c b1 cf 44 3d 3c 49 35 bd 48 58 e2 3c
       0.022947775 0.048049632 -0.044259295 0.027629986
000340 4d 98 77 3d 44 64 51 bd 4f fe 96 bc 88 09 8f 3d
       0.06044798 -0.05112101 -0.01843181 0.0698424
000350 53 a8 85 bb 66 0b ad bc ba d6 24 bd b0 b1 12 3d
       -0.0040789037 -0.0211236 -0.04024384 0.035813987
000360 09 f1 1c bd 7c 0e 90 3c 84 c7 e9 3a 3a e5 60 3c
       -0.038315807 0.017585032 0.001783595 0.013726527
000370 97 6c 9d 3d bb 65 08 bb 0e ec 82 bd e6 68 a7 bd
       0.076867275 -0.002081259 -0.0639268 -0.08174305
000380 e6 c6 9f 3c e2 1b a3 3d a4 17 8a 3d 3e 34 6e 3d
       0.019504022 0.079643026 0.0674279 0.05815529
000390 a0 a9 09 be b1 77 23 3d e4 ae 1c bd 90 b3 b5 3d
       -0.13443613 0.03990907 -0.038252726 0.088721395
0003a0 46 0f 35 bd 34 47 2a 3d 9f 10 b0 3c 04 7a 83 bd
       -0.04420402 0.04157181 0.0214923 -0.06419757
0003b0 93 07 2e bd 9e 5f 82 3d 1e 52 f4 bd 6d 0a e1 3d
       -0.042487692 0.06365894 -0.11929725 0.10988317
0003c0 4e 9a 35 be a9 71 5b 3d d9 8b e3 3c 61 cd 1d bd
       -0.17734644 0.05357519 0.027776645 -0.038525943
0003d0 84 cb fc 3c 56 f9 48 bb 9f 9f 02 3d a2 63 42 bd
       0.030858763 -0.0030666194 0.031890508 -0.0474583
0003e0 c5 ea 92 3d ec f5 92 bd 82 d2 ff 3d 08 6f 69 3d
       0.07173685 -0.07175812 0.12491323 0.056990653
0003f0 aa 7d 39 bd 04 27 f6 3c df f0 c9 3d f8 e0 69 3d
       -0.04528586 0.030047901 0.09860396 0.057099313

fc2.bias f4 [300]
000000 0d 0f 66 3d f5 b8 e8 3d 19 e9 3a 3d 6a 25 84 3b
       0.056166697 0.11363403 0.045632455 0.0040327804
000010 00 73 1b 3d e2 33 1b 3c 20 35 c9 3d 8f 05 a4 bc
       0.03795147 0.009472819 0.09824586 -0.020022182
000020 2b 7d 10 3d e0 c6 c7 3c 9c 51 6e 3d dd ae a7 bb
       0.03527562 0.024386823 0.058183298 -0.005117281
000030 a9 31 00 3d 3f c5 87 3c 87 e5 6f bd 3a 64 41 3b
       0.03129736 0.016573546 -0.058568504 0.0029509203
000040 02 9d f7 bc be b0 73 3d 0d 47 88 3c d9 10 8b 3d
       -0.030226234 0.059494726 0.016635442 0.06790323
000050 4c 4a 80 3c 8e 2c 12 bc 89 44 30 3e d4 07 c1 3d
       0.015660428 -0.0089217555 0.17213644 0.09425321
000060 8e bf dc 3d ee 4c 85 3d 94 e5 96 3d b6 c8 b3 3d
       0.10778724 0.06508814 0.07368007 0.08778517
000070 1f a8 08 3e 71 52 ac bd 21 f9 e2 3c f8 46 f2 39
       0.13345383 -0.08414162 0.027706685 0.00046210713
000080 74 94 07 3d 3b 73 dd 3a 0c e1 8e 3d 8d 7a 0a 3d
       0.03310056 0.0016895303 0.06976518 0.03380828
000090 fc b7 34 bc 11 b2 99 3d e7 e8 a5 bb 09 35 12 3d
       -0.011030193 0.075046666 -0.0050631645 0.03569511
0000a0 90 4a c4 3b 69 19 1a b9 ff ae fd 3d a9 81 4c 3c
       0.005990334 -0.0001469605 0.123868935 0.012482085
0000b0 f5 a2 b1 3d a5 f3 d6 3d bf 68 79 3d b2 31 b0 3d
       0.0867366 0.1049569 0.06089091 0.08603229
0000c0 6f 83 01 3d ed 09 0b 3d e1 0f 9e 3c 03 a5 13 3e
       0.031619485 0.033945013 0.019294681 0.14418416
0000d0 40 4f 7e 3d 6d a8 1a 3d 8c 16 9a 3d c8 a0 91 3d
       0.062087297 0.03775828 0.07523832 0.07110745
0000e0 c4 02 97 ba 07 f2 63 3d ba bf e5 3d c5 ad d4 3c
       -0.001152121 0.055650737 0.112182096 0.025961766
0000f0 6e 0b 9a 3c 23 24 9e 3d cf c7 8d 3d c7 d7 1e 3c
       0.018804278 0.07721736 0.06922876 0.009695
000100 98 89 a4 3c 52 ef 6b 3d bc f3 05 bd f1 97 6a ba
       0.020085141 0.05760128 -0.032703146 -0.00089490326
000110 a2 53 58 bc da 7c 5f bc 9a b4 4d bd d5 27 64 bd
       -0.013203533 -0.013640607 -0.050221063 -0.05570205
000120 13 e8 8f 3d f4 74 b5 3d da 54 4c 3d 78 7c d2 bb
       0.070266865 0.08860198 0.04988561 -0.0064235292
000130 c5 1e 8b 3d 1f 8d 81 bc 40 78 b9 3c da d6 b6 3d
       0.06792978 -0.015814362 0.022640347 0.089276984
000140 78 df 88 ba 90 33 b2 3c 13 bd 9d bc a6 17 0b 3d
       -0.0010442575 0.021753103 -0.019255197 0.0339581
000150 cb 0a 56 3d 28 48 de 3d e2 d1 e6 bc c1 6a 84 3d
       0.052256387 0.108536065 -0.028176252 0.06465674
000160 8f d0 b0 3d 2c 5b 0d 3d ae fc 4e bc 0e df d2 3b
       0.086335294 0.034510776 -0.012633486 0.0064352816
000170 81 c3 ba 3d dc 84 c7 3d 51 55 83 3d 91 bd 21 bd
       0.09119321 0.09742138 0.06412757 -0.039487425
000180 e4 aa 02 bd f0 09 a4 3d 20 c3 1c 3c 71 91 5d 3d
       -0.031901255 0.08009708 0.009568006 0.05409378
000190 14 48 2d 3d 7f b2 f6 3c c3 3d 2b 3d 08 97 f1 bb
       0.042305067 0.03011441 0.041806947 -0.0073727407
0001a0 04 88 67 3d 94 03 5e 3c 2a 7a 2c 3d 1a ec cb bc
       0.0565262 0.013550658 0.042108692 -0.024892855
0001b0 ff 3c 23 ba 8d b1 be bc af d5 c0 3c 75 1f e2 ba
       -0.00062270457 -0.023278022 0.023539392 -0.0017251807
0001c0 9b eb 0e bd 1b 3a 9b 3c d1 b1 7f 3d 96 93 05 3d
       -0.03489266 0.018948605 0.06242544 0.032611452
0001d0 31 b9 79 bc 01 9c d1 3d b3 0a 3b 3d 99 fc 32 bb
       -0.015241907 0.102348335 0.0456645 -0.0027311204
0001e0 bf 32 44 bd bc 99 c6 3c bf 88 4a bc a3 a1 c3 3d
       -0.047899958 0.024243228 -0.012361704 0.09552314
0001f0 d8 e8 8b 3d d9 f5 bb 3d 77 66 45 3d e1 6f 6d 3c
       0.06831521 0.09177751 0.04819342 0.014492006
000200 0a 9e a4 3d c3 fb e7 3c 27 62 06 3d 10 8a 91 3d
       0.08037956 0.028318292 0.03280845 0.071064115
000210 2f 1d de 3d fa b7 87 bd c5 1d 0b 3d d7 bf 33 3d
       0.1084541 -0.066268876 0.033963937 0.043884125
000220 39 57 18 3d 99 40 90 3d 42 e5 54 3d 63 c8 09 bc
       0.037192557 0.07043571 0.05197645 -0.008409592
000230 99 8e 69 3d 15 b7 d7 3d 3b 5e e6 3a c2 66 7b bd
       0.057020757 0.10532967 0.001757569 -0.061377294
000240 e4 8f ea 3b 34 b8 58 3d c6 99 08 3d 34 89 92 3d
       0.0071582664 0.052910045 0.033349775 0.07155076
000250 ea 12 75 3d 8b 9e 51 bb 6a 7e ad 3c ba 40 b3 3d
       0.05983249 -0.0031985368 0.021178443 0.0875258
000260 bb fd 01 3e 87 62 3d 3d 38 87 15 bc f0 49 42 bd
       0.12694447 0.04623654 -0.009126477 -0.047433794
000270 81 92 94 3d cf 4d d8 3c 3a 06 50 3d e4 76 4a bc
       0.07254506 0.02640429 0.050787188 -0.012357447
000280 13 99 9f 3c 77 72 6b 3d 57 a1 cf 3d cd 26 af 3c
       0.019482171 0.05748221 0.10138195 0.021380806
000290 b5 3b ad 3b 17 bf f8 3c cb df 96 3d c2 62 a2 3c
       0.0052866586 0.030364556 0.07366904 0.019822482
0002a0 ec 3f 94 3c fd 5f 84 3d 37 8c b4 bb 85 be 95 3c
       0.018096887 0.06463621 -0.005509879 0.018279323
0002b0 26 8c 84 3d 6f b5 2d bd f0 f4 24 3d 08 d4 64 3c
       0.06472044 -0.042409357 0.040272653 0.013966568
0002c0 fb 0e 84 3d cb 53 8a 3c 56 6f 95 3b 50 16 3c 3d
       0.0644817 0.016885659 0.0045603914 0.045919716
0002d0 1b 14 a4 3d fd d1 5a 3d 5b 3a 24 3d 0d 38 83 3d
       0.08011647 0.053422917 0.040094715 0.06407175
0002e0 3f 01 b4 3c 2f 9a 4c 3d ec 4d e5 3b 74 9a 87 3c
       0.02197325 0.04995173 0.0069978144 0.016553141
0002f0 ff 18 25 3d 48 50 04 3d 9c 0a a3 3d 0c f8 bc bd
       0.04030704 0.032303125 0.07961008 -0.09226999
000300 67 37 44 3d 89 4b 8d 3c 00 f2 18 3d 69 2f b3 3c
       0.0479044 0.017247932 0.037340164 0.021873193
000310 36 9f df bb e2 62 a7 bc 16 e8 82 bc 1c d5 45 3d
       -0.0068243993 -0.020432893 -0.015979808 0.04829894
000320 9f fd 48 bd 6e 1e 84 3c 7d 68 27 3d 23 cb bb 3c
       -0.049069997 0.016127791 0.040871132 0.022924012
000330 a9 17 13 3d 04 3a 2a 3d e9 a1 86 bc e0 57 f1 3c
       0.035911236 0.041559234 -0.016434627 0.029460847
000340 7c 13 1f 3d 83 ef b9 3c ec 3b ff 3c 1e 23 56 bc
       0.03883694 0.022697216 0.031156503 -0.013069896
000350 ca 92 85 3d 3b db d0 3d 6a 9d 7c 3c 59 3a 79 3d
       0.065221384 0.10198065 0.01541839 0.06084666
000360 d2 08 9b 3d 3c 2d c9 3c 6e 31 d7 3d 45 4b 82 bc
       0.07570042 0.024557702 0.10507475 -0.015905032
000370 f1 a5 74 3d a8 66 13 3e b9 5b 75 3d f8 fb 5a 3d
       0.059728567 0.14394629 0.059901927 0.053462952
000380 63 4e fc bc 01 27 e6 3c 29 af e9 3d 18 6f 68 3d
       -0.030799096 0.02809477 0.11410362 0.056746572
000390 cf 13 6b 3d ae 91 61 3d b8 06 cd 3d ce 94 b5 3c
       0.057391938 0.05507057 0.10011047 0.022165682
0003a0 71 b4 a8 3c 4e 96 f8 3c 0a d8 f2 3c 3f 0c 1b 3d
       0.020593854 0.030345108 0.029644031 0.037853476
0003b0 c9 0e a3 3c 6a ad 6a 3d 9b 7a 34 3c 72 36 3d 3d
       0.019904511 0.057294287 0.01101556 0.0461945
0003c0 f9 42 70 3d 59 e6 e7 bc a4 0b 0a bd 51 32 aa bd
       0.05865762 -0.02830808 -0.033702508 -0.08310378
0003d0 6b 59 b7 3c d6 0c 97 3c 0e 1e 56 3d a0 ce 78 3d
       0.022381505 0.018438738 0.052274756 0.060743928
0003e0 5b 34 88 3c 0a 1f 8f 3d 69 18 a7 3d b0 06 87 bd
       0.016626528 0.06988342 0.08158953 -0.065930724
0003f0 17 ec ad 3d fc ff e4 3d 72 bb 16 bd 3e c9 65 3d
       0.08492296 0.11181638 -0.036799856 0.056100123

fc3.weight f4 [2, 300]
000000 58 f3 f3 3d 41 28 35 be c7 f7 03 3c 89 3f 4a 3e
       0.119116485 -0.17691137 0.00805468 0.19750799
000010 53 30 11 be da 5c 46 3e 0b f9 06 be f3 22 92 bd
       -0.1417859 0.19371358 -0.1318094 -0.07135572
000020 59 ae 1e be 6e b4 a6 3d bd ae 96 3d 26 b7 5b bb
       -0.15496196 0.08139883 0.073575474 -0.0033525913
000030 03 9c ba 3d 2e aa 8d bd 49 7e 96 be 97 44 ec bd
       0.09111788 -0.06917225 -0.29393223 -0.1153652
000040 ee 23 0a be 50 cc 8e 3c 9f 14 86 bd d1 2a 66 bd
       -0.13490269 0.017431408 -0.06546902 -0.056193177
000050 23 83 0d be 03 60 47 be 54 8c d3 3b 56 e2 34 be
       -0.13819556 -0.1947022 0.0064559374 -0.17664465
000060 ef c2 89 3d 0d 38 c8 3d b5 a8 da bd 2f 45 b9 bd
       0.06726634 0.09776316 -0.106767096 -0.09046399
000070 da 1a 04 3e c3 3f 7b 3e e0 7c 1d 3d cf c0 40 3d
       0.12900868 0.24536042 0.03844917 0.047058877
000080 23 2d bf bc df 92 47 3e 33 ac ca 3d 86 a2 ae bd
       -0.023336953 0.1948962 0.09896126 -0.08527093
000090 b8 d0 23 be c4 e6 0e 3e 3b aa 59 be 75 b7 8e 3a
       -0.15997589 0.13955218 -0.21256344 0.0010888415
0000a0 46 08 13 3e 49 06 e8 bc dc 8a 88 3e 10 d0 d5 bc
       0.14358625 -0.02832331 0.2666844 -0.026100188
0000b0 78 d6 61 bd e8 c3 8d 3d fa 25 55 bd 12 e3 8b 3e
       -0.055136174 0.06922132 -0.05203817 0.27321678
0000c0 d3 71 81 bd 37 e8 84 3d 16 8a ac bd 5f 2d c9 3d
       -0.06320538 0.06489604 -0.08424775 0.09823107
0000d0 90 67 60 bd 67 90 d7 3d e4 1d c5 3c dd 94 33 3d
       -0.054786265 0.105255894 0.024062105 0.04384314
0000e0 74 cc 49 3e 1e 6d 92 3c d5 6f 44 bc 34 4d 4d be
       0.19706899 0.017874297 -0.011989553 -0.20048982
0000f0 49 e2 43 3d 1a ab 01 be 3b c9 5d be e7 c1 3e 3d
       0.047823224 -0.12662926 -0.21658795 0.04657164
000100 8d c0 08 3e 84 f4 24 be 44 b2 3b be 09 ab ce 3d
       0.13354702 -0.161089 -0.18329722 0.10091216
000110 e0 1c 6b 3e 57 48 06 3e 83 9f 52 be 9f a7 e9 bc
       0.22960234 0.13113533 -0.20568661 -0.02852231
000120 3e b9 41 3d c3 96 02 3e ac fb b2 3d 94 14 90 bd
       0.0472958 0.12752824 0.08739409 -0.07035175
000130 86 08 0b 3d 66 8b fb 3b 7a 49 47 3d d3 56 1f bd
       0.033943675 0.0076765297 0.048654057 -0.03890116
000140 58 29 20 be 0f 03 64 be b3 d5 6f 3e c0 b7 d8 3d
       -0.15640771 -0.22266792 0.23421364 0.105819225
000150 b2 47 d2 3d 91 3e 48 bb 52 6b 0f be 81 42 d3 bd
       0.10267581 -0.003055487 -0.14005783 -0.10315419
000160 c8 d2 07 3d 06 fd 9e 3d ca 92 fe bd e5 9e a7 3d
       0.03316 0.07763104 -0.124303415 0.081846036
000170 fc 87 39 bd 9d ff 04 bd 2e 11 71 3d b1 0c 09 be
       -0.0452957 -0.032470334 0.058854274 -0.13383748
000180 69 43 62 be 99 85 a1 bd a4 f0 9e 3d fc ca c0 bd
       -0.22096027 -0.0788681 0.07760742 -0.09413716
000190 92 d7 d5 3b 72 6b f8 bd 82 cb a1 3d 64 f9 cf 3c
       0.006525942 -0.121298686 0.07900144 0.025387473
0001a0 a3 3a 47 3d 49 00 2a 3e 18 fc 6d be 1c e2 fc 3d
       0.048639905 0.16601671 -0.23240697 0.123478144
0001b0 a3 8a 97 bd d0 7b 81 be cf c3 d9 bd 89 81 10 3e
       -0.0739949 -0.25289774 -0.10633051 0.14111914
0001c0 ba b3 83 be d5 e2 41 3d 60 b3 cc 3d db df 89 bd
       -0.25723058 0.047335465 0.099951506 -0.0673215
0001d0 c8 fc 4b be 48 d9 55 bd 7d 3a b4 bd 09 c0 8e 3d
       -0.19920647 -0.05220917 -0.08800218 0.069702215
0001e0 01 22 85 be fc 52 9e bc 20 7b 13 3e f0 16 1c 3d
       -0.26002505 -0.01932668 0.14402437 0.038107812
0001f0 09 38 a9 3d 02 34 c6 3b ef ed 9d 3d a6 61 62 3d
       0.08262641 0.0060486803 0.07711398 0.055268906
000200 6a ce 89 3c 8a 9a f6 bd 53 13 3b 3e 8e e3 b3 bd
       0.016822059 -0.12041195 0.1826909 -0.08783637
000210 fe a7 e2 3d e4 0b 38 3e df 55 32 3d 3e aa 60 be
       0.11067198 0.17973286 0.043538924 -0.21939942
000220 72 93 a9 bd ec 3c 96 bd db 2e 45 be c6 87 a8 3d
       -0.08280076 -0.07335839 -0.19256155 0.08229022
000230 5a f0 3c 3c 1e 9a 06 bd a1 65 23 be ae 68 98 be
       0.011531914 -0.03286182 -0.15956737 -0.29767364
000240 de 85 3d be dc da 42 bd 73 19 62 3e 11 1f 5c 3d
       -0.18508098 -0.047572 0.2208002 0.053740565
000250 67 e3 9a 3c 75 73 8c be b5 f7 b1 bd a6 09 fa 3d
       0.018907262 -0.27431837 -0.086898245 0.122088715
000260 74 a2 84 bd 49 a8 88 bd c0 ae 66 bd 00 91 90 be
       -0.06476298 -0.06672723 -0.056319 -0.28235626
000270 85 da c8 bd 66 06 29 bb 31 32 d8 3d a2 a8 0d bd
       -0.09807304 -0.0025791167 0.10556448 -0.03458465
000280 2b fc c6 bd 84 cb fc bc 41 21 2d be 92 21 dc bd
       -0.09716066 -0.030858763 -0.16907217 -0.107485905
000290 4c cd 2f 3d a7 69 e1 bd 15 c2 11 bd 95 82 37 3e
       0.042920396 -0.1100648 -0.03558548 0.17920907
0002a0 ae 57 47 be 54 03 10 bc a9 a3 07 bb cd 07 67 3d
       -0.19467041 -0.008789856 -0.0020696914 0.056403924
0002b0 09 04 d9 3d bb 5b 80 be f1 c2 ad bd 10 8d 94 3d
       0.10596473 -0.25069985 -0.08484448 0.07253468
0002c0 d2 1d a7 bb ec 86 61 bd 8e d9 1c be 96 a4 6f bd
       -0.0050999904 -0.055060312 -0.15317366 -0.05850657
0002d0 e6 0f be 3d 5f 80 44 be c1 ca a6 3d 68 8e 52 be
       0.09280376 -0.19189595 0.08144141 -0.20562136
0002e0 cb 99 f4 3d b0 d6 80 bd d4 23 65 be fa 91 98 bd
       0.11943396 -0.062909484 -0.22376949 -0.07449718
0002f0 b9 13 2b be 79 e5 7b bd 38 3a a8 3c 95 e9 1f be
       -0.16706742 -0.06149814 0.020535573 -0.15616448
000300 cb 0b 93 be 61 8f ad bd f4 8e cf 3d 50 9f d1 3d
       -0.28719935 -0.08474613 0.10134688 0.102354646
000310 ff 7e 1b 3e 9c 04 73 be cd 8a 26 3e dc ab a5 3d
       0.15185164 -0.23732227 0.16263886 0.0808942
000320 b5 2b a5 be 4f c1 5b be c6 2d 18 bc 93 bd 9d bc
       -0.32259908 -0.2146046 -0.009288257 -0.019255435
000330 25 c4 83 bd cf 87 f4 3d 5f 30 08 be bd 43 e7 bd
       -0.06433896 0.11939966 -0.13299702 -0.11292217
000340 dc 63 c8 3d 9d 9f 0f be ad 24 18 3d b3 e2 9d bd
       0.09784672 -0.14025731 0.03714435 -0.07709255
000350 97 88 a5 3d 09 47 14 be 08 48 3f 3d d6 fb 76 3e
       0.08082693 -0.14480223 0.046699554 0.24119505
000360 04 0c 83 bd 65 18 27 be bc 4c 8d 3a ae c6 78 3d
       -0.06398776 -0.163179 0.0010780315 0.06073635
000370 93 37 2f bd fb 49 05 bd 09 36 a8 bd 80 77 11 3e
       -0.04277761 -0.032541256 -0.082134314 0.14205742
000380 f1 49 13 be 3b 3d 3a 3d 9a 0d 2e bc 31 32 00 be
       -0.14383675 0.04546855 -0.01062336 -0.12519147
000390 1a e1 e4 bd 67 85 8b bd 27 b9 9d bd ec 59 12 be
       -0.11175747 -0.06812554 -0.07701331 -0.14292115
0003a0 14 f8 2e 3e c1 1e 75 be bb 70 cc bc 2d c1 eb bc
       0.17086822 -0.23937513 -0.024956098 -0.028778637
0003b0 24 ab 2f be 22 0f 0d 3d a7 e5 17 bc 31 94 64 3d
       -0.17155129 0.03443826 -0.009271062 0.05580539
0003c0 c0 50 bc bd dd c1 9e be e8 c2 7e be 26 e4 54 be
       -0.09195089 -0.3100728 -0.24879038 -0.20790157
0003d0 27 81 11 be c7 64 c7 3d c0 36 0e be 2b 49 d6 bd
       -0.14209424 0.09736019 -0.13888073 -0.104631744
0003e0 41 40 1c 3e da b1 62 3d d3 40 12 3d bb 76 85 be
       0.15258886 0.055345394 0.035706352 -0.26067147
0003f0 b3 f3 15 bd 74 1f db ba 33 86 4c 3e c5 bb 49 3e
       -0.036609363 -0.0016717748 0.19973068 0.19700535

fc3.bias f4 [2]
000000 25 74 34 3d 14 2f d3 bc
       0.044056077 -0.025779285

bn1.weight f4 [400]
000000 4d 2b b2 3e 8b 8a 8f 3e 8a d8 7f 3f 0f 6e 57 3f
       0.3479866 0.28035387 0.9993979 0.8415231
000010 33 a2 38 3f 43 fb f6 3e a2 a2 43 3f f3 58 69 3f
       0.72122496 0.48238572 0.7642003 0.9115135
000020 d8 2a f3 3e f9 4f 45 3e 84 c8 35 3f 10 dd c7 3e
       0.47493625 0.19268788 0.7100909 0.39035845
000030 c8 03 12 3f ac d7 db 3e 33 d9 5b 3f cb c1 00 3f
       0.5703702 0.42937982 0.85878295 0.50295705
000040 c5 00 86 3f fc 32 16 3f b7 79 6c 3f 19 62 d4 3e
       1.0468985 0.58671546 0.9237322 0.41481093
000050 3e bf 83 3f 3f 91 4a 3e d9 be 63 3f cd a7 38 3f
       1.0292737 0.1978197 0.88963085 0.72131044
000060 11 e0 0a 3e 75 97 68 3f 7e f8 9d 3e b4 0b a6 3e
       0.13562037 0.90856105 0.30853647 0.32430804
000070 36 e7 8b 3e 7d 04 90 3e b6 b9 dd 3e 71 c5 83 3f
       0.27324837 0.28128424 0.4330575 1.0294629
000080 f0 d7 19 3f bc 0f 5e 3f fb 95 3a 3f 08 6f 5a 3f
       0.6009512 0.8674276 0.728851 0.8532567
000090 c7 e0 bb 3e 61 9e 32 3e 0c 5f 71 3e 9f dd 80 3e
       0.3669493 0.1744323 0.23571414 0.25169083
0000a0 56 53 82 3f 57 3c 20 3f c6 af dc 3e 29 8d 55 3f
       1.0181682 0.6259207 0.43102854 0.8341852
0000b0 b6 ec 70 3f ce fb 76 3e c6 9e 80 3f 44 1c 25 3f
       0.9411119 0.24119493 1.0048454 0.64496255
0000c0 da 11 b3 3e 55 dc e9 3e 2a 8f 01 3f 16 69 c5 3e
       0.34974557 0.45675912 0.50609076 0.38556737
0000d0 4c b4 d9 3e da e7 74 3f 12 4f 84 3f 6f 63 24 3f
       0.42520368 0.9566628 1.033663 0.64214224
0000e0 68 01 3b 3f 33 ec 70 3e 71 58 8b 3e ac 5c 36 3f
       0.7304902 0.23527603 0.27215913 0.71235156
0000f0 23 19 86 3f a4 48 77 3f 86 9d 72 3e cd 3e 45 3f
       1.0476421 0.96595216 0.23692903 0.7704895
000100 06 61 29 3e 3c 50 a1 3e ae 12 8e 3e 73 b4 c0 3e
       0.16540918 0.31506526 0.27748626 0.37637672
000110 89 aa 50 3f 02 ce 82 3f 42 94 77 3e ad 42 1d 3f
       0.81510216 1.0219119 0.2417765 0.61429864
000120 3d de 12 3f 3c 0d f0 3e 3d ed 49 3f 16 48 83 3f
       0.5737036 0.46885097 0.7887762 1.0256374
000130 5e 07 07 3f f2 d5 88 3f 5a 44 e6 3e 69 fc 28 3f
       0.52745616 1.0690291 0.44974023 0.6601015
000140 e9 95 e2 3e 46 f7 25 3f 22 f8 1e 3f 99 df 16 3f
       0.44254997 0.64830434 0.6209737 0.5893493
000150 c4 3e aa 3e 6f 04 da 3e d9 94 5f 3f 83 bb 53 3f
       0.3325101 0.42581508 0.873365 0.82707995
000160 49 00 1d 3f c4 58 04 3f 80 9e 84 3f 2a 35 c7 3e
       0.6132856 0.51697946 1.036087 0.38907748
000170 b6 9a 5e 3f b4 55 78 3f 09 b0 b6 3e 06 cc 00 3f
       0.8695482 0.9700577 0.3568118 0.50311315
000180 b7 3f 6e 3e 9d ee d1 3e ed 74 85 3f d7 64 0f 3e
       0.23266493 0.4100236 1.0426308 0.14003311
000190 f9 f4 9c 3e 74 75 0e 3f 37 57 59 3f 3c 3a a5 3e
       0.3065565 0.5564797 0.84898704 0.32270992
0001a0 23 3c 18 3f 57 b7 e8 3e d7 2e 91 3e 35 4c 81 3f
       0.5946676 0.45452377 0.28356048 1.0101382
0001b0 86 e6 50 3f 26 69 49 3f 70 0b 65 3f a9 26 a3 3e
       0.8160175 0.7867607 0.8947058 0.31865433
0001c0 f4 cd a8 3e 5b 76 31 3f 38 d3 bc 3e 58 fd 5d 3f
       0.3296963 0.6932122 0.36879897 0.86714697
0001d0 3f 1f 89 3e 13 49 46 3f 1d 57 86 3e b4 ec 6d 3f
       0.2678165 0.7745525 0.26238337 0.92939305
0001e0 5e d6 86 3f 03 21 3c 3f 04 9e dc 3e 20 04 99 3f
       1.053417 0.7348787 0.43089306 1.1954384
0001f0 a4 61 de 3e 20 66 77 3f f8 01 ba 3e 6a f8 8a 3f
       0.4343387 0.96640205 0.36329627 1.085706
000200 2d 11 3b 3f 15 88 bf 3e c4 8e a0 3e 4e 07 3a 3e
       0.73073083 0.3740851 0.31358922 0.18166849
000210 f6 ca 41 3f e3 10 dc 3e 45 df 11 3f 61 89 42 3f
       0.7570032 0.42981634 0.5698131 0.75990874
000220 fe 88 05 3f 8e 48 e3 3e 16 8a 39 3f 4f 10 2e 3f
       0.5216216 0.44391292 0.7247633 0.67993635
000230 1d 7d 6f 3f 20 9d ab 3e 3c 59 0a 3f 9b 63 06 3e
       0.9355028 0.33518314 0.5404241 0.13123934
000240 7d 2f 66 3e ce 57 43 3f 6c 5c 05 3f a6 05 b1 3e
       0.22479053 0.76305854 0.5209415 0.34574622
000250 d4 8c 84 3e d0 24 85 3f 9b 40 00 3f 01 f2 b9 3e
       0.25888693 1.0401859 0.5009858 0.36317447
000260 76 6c 3a 3f 8e c5 bc 3e 35 2c 31 3f d8 1b 10 3f
       0.7282175 0.36869472 0.6920808 0.56292486
000270 c8 fe 59 3f 66 98 2b 3e ce fa 03 3f 64 2c 88 3f
       0.8515439 0.16757354 0.5155457 1.0638547
000280 b9 97 86 3f 29 18 7b 3f 46 56 ad 3e b9 7b 80 3f
       1.0515052 0.9808374 0.33854884 1.0037757
000290 43 b5 0e 3f cb f9 57 3f 94 0b b6 3e ff 38 25 3f
       0.55745333 0.8436553 0.35555708 0.64540094
0002a0 cf fb b7 3e f5 37 65 3f de 2b 80 3f fd 87 25 3f
       0.35934302 0.8953851 1.0013387 0.64660627
0002b0 37 d2 72 3f 13 73 36 3e e0 e5 b8 3e 68 55 36 3f
       0.9485201 0.17817335 0.3611288 0.7122407
0002c0 92 58 ae 3e 40 e2 81 3f 8e 8e 3b 3e cb ba 38 3f
       0.3405195 1.0147171 0.18316099 0.72160023
0002d0 76 cc 02 3f 99 68 0c 3e ce 38 1b 3f 0b 80 39 3f
       0.5109323 0.13711776 0.6063355 0.72461003
0002e0 b9 90 1c 3f 6d e4 60 3d 57 7e 29 3f 35 71 65 3f
       0.6115833 0.054905344 0.66208404 0.89625865
0002f0 0c a7 84 3f 31 88 6d 3e 33 00 85 3f ec a5 7e 3f
       1.0363479 0.23196484 1.0390686 0.99471927
000300 a1 4f bb 3e 50 ca 69 3f 11 9b b7 3e a8 17 3a 3e
       0.3658419 0.9132433 0.35860494 0.18173087
000310 34 f5 2f 3f 82 f4 c2 3e 78 61 4a 3e b9 9c e3 bd
       0.68733525 0.3807717 0.19763744 -0.11113877
000320 74 e7 5a 3e ce 58 45 3f 5a f0 54 3f fb 61 37 3f
       0.21377355 0.7708863 0.8317925 0.7163388
000330 36 55 34 3f fa 21 c0 3e 73 6a 5f 3e 93 07 67 3f
       0.7044252 0.37525922 0.21817951 0.9024593
000340 de 98 ab 3e 93 44 56 3e a7 91 50 3f 1f 36 06 3f
       0.33515066 0.20924596 0.8147225 0.5242633
000350 e3 ca 85 3f d2 c1 84 3f 7d 79 a4 3e f4 71 55 3f
       1.0452541 1.0371649 0.32123938 0.83377004
000360 ab 8a a1 3e 6c 71 cc 3e 1d 08 2b 3f 8b a7 8e 3f
       0.31551108 0.39930284 0.66809255 1.114488
000370 6d dd 3f 3e 56 87 46 3f 71 18 49 3f c4 08 67 3e
       0.18736811 0.77550256 0.7855292 0.22561938
000380 63 45 c2 3e c8 32 63 3e 75 db 08 3f 57 29 a1 3e
       0.37943563 0.2218734 0.53459865 0.31476852
000390 06 91 e0 3e c4 69 9e 3e c2 dd 17 3e a6 c3 66 3f
       0.43860644 0.30940068 0.14830688 0.90142286
0003a0 a5 c6 32 3f e6 94 69 3f 88 fa 3d 3f 29 10 37 3f
       0.6983436 0.91242826 0.74210405 0.71509033
0003b0 81 4b 30 be de c5 49 3f 48 e0 74 3f 6b 60 78 3f
       -0.17216302 0.78817546 0.95654726 0.9702212
0003c0 bb a2 c6 3e 26 97 ca 3e 69 51 32 3f 68 5d 5f 3f
       0.38796028 0.39568442 0.6965547 0.872519
0003d0 b3 49 8a 3f c2 7c bc 3e 58 87 df 3d 6c d6 84 3f
       1.0803741 0.36813933 0.10914487 1.0377936
0003e0 01 d0 5e 3f 61 82 a0 3e 95 7e 4a 3f 71 d5 f6 3d
       0.8703614 0.3134947 0.790994 0.120524295
0003f0 b1 d6 29 3e a9 4d 16 3f d3 d5 6d 3f e8 94 45 3f
       0.16585805 0.5871225 0.92904395 0.7718034

bn1.bias f4 [400]
000000 d2 85 b6 3c bc 12 14 bd 0f 59 c6 bb 83 c2 33 3c
       0.022280607 -0.03615068 -0.006053097 0.010971668
000010 27 19 49 3d a1 7f 28 bd 98 d4 21 bd 02 5b 48 bc
       0.049096253 -0.04113734 -0.039509386 -0.012228729
000020 02 4d a8 3c 7f 3b 62 bd 9c c2 3c bd 49 d4 bb bb
       0.020544533 -0.05523252 -0.04608403 -0.0057320935
000030 87 51 3d bd ce 76 21 bc db b6 12 3c c0 26 ba 3b
       -0.04622033 -0.009854985 0.008954729 0.005680889
000040 f8 80 33 bd 86 1d e5 bc de 6d a3 bc d5 60 c5 3c
       -0.043824166 -0.02796818 -0.01994985 0.024094025
000050 9d 8e dc bc a8 35 ba bd 0e 27 28 3c 56 36 ac bb
       -0.026923472 -0.09092265 0.010263218 -0.005255501
000060 9a 7b 3a bd ae 50 2e bd 46 17 a3 bc 15 f2 22 3d
       -0.045528032 -0.04255741 -0.019908559 0.03978165
000070 41 45 04 bd 2e 89 99 bd 11 2e 1b 3b 97 28 f2 bc
       -0.03229261 -0.07496868 0.002367858 -0.02956037
000080 ff 49 ed bc 76 77 9f bd d6 c7 c8 ba 95 14 34 bd
       -0.028965948 -0.07786457 -0.0015318345 -0.04396494
000090 cd 20 46 3d 72 c1 77 bd bd 3d 0c bd 1d 11 23 3d
       0.048371125 -0.06048722 -0.034238566 0.039811242
0000a0 ae 48 03 bd 5c ea 4c bd ba c2 dd 3a 6d 9c 4a bd
       -0.032051735 -0.05002819 0.0016918995 -0.049465586
0000b0 33 68 fb 3b 9a 50 45 bd 96 fe 1a bd d9 9a dc 3c
       0.0076723336 -0.04817257 -0.03784045 0.026929306
0000c0 d3 2d d9 3c 69 6a 42 bd d1 5d 6c bb 41 2f 9b ba
       0.026511109 -0.047464762 -0.003606666 -0.0011839644
0000d0 d1 f7 88 3d 64 0f ad 3c 47 52 8e 3d b1 f3 5d 3d
       0.06687892 0.021125503 0.06949287 0.05418748
0000e0 f2 14 de 3c 12 25 a0 bd 44 77 17 bc 85 4f 18 bc
       0.027109597 -0.078195706 -0.009244744 -0.009296303
0000f0 e8 ef 01 3c 82 fa e9 bc 37 6b a9 3c 9e 40 a2 bb
       0.007930733 -0.028561834 0.020681007 -0.0049515506
000100 13 ac 22 3c 66 c3 87 3c 83 66 b4 bc 9e 7e 35 bc
       0.009928721 0.016572665 -0.022021538 -0.011077551
000110 b9 8d f2 3b 42 20 36 bd 5e 6b 56 bd 49 6c e0 bc
       0.0074021486 -0.044464357 -0.052348487 -0.027395384
000120 86 9e d3 3c 2e 2a 0c 3c 1e 7b 01 bd e6 a9 3b bd
       0.025832426 0.008554978 -0.031611554 -0.045816325
000130 16 85 52 bd 61 18 8c bc 22 a9 4a bd 2c a7 f0 3c
       -0.051396452 -0.017101469 -0.049477704 0.029376589
000140 39 58 31 bc 7d fd 6a 3b b2 ec 38 3d e2 f2 19 bd
       -0.010824257 0.0035856657 0.045147605 -0.037585147
000150 e3 d5 ea bc 08 58 64 bd 80 63 7d 3c 2a 56 11 bd
       -0.028666442 -0.055748016 0.015465617 -0.035482563
000160 9e 02 9b 3c e5 33 0a 3c 2e de cd bc b5 96 35 bc
       0.018922146 0.008435224 -0.025130358 -0.011083295
000170 43 30 4c bd 2e 0f 1b 3d 21 c8 5b 3b 84 c2 09 bd
       -0.049850713 0.037856273 0.0033536034 -0.03363277
000180 a1 6b 95 bc 52 86 03 bd 92 30 a4 bc 9c b8 20 3b
       -0.018239798 -0.03211052 -0.020042691 0.0024524098
000190 c0 b0 49 3b 2b 76 8d bb a2 04 86 bd ec f6 19 3d
       0.0030775517 -0.0043170652 -0.065438524 0.037589
0001a0 d6 b8 34 bc 54 d1 27 bd 11 dc 93 3c f4 ce 2e bd
       -0.011030396 -0.040971115 0.018049272 -0.042677835
0001b0 69 c5 e6 bc 0f 3d 45 bc 7c f1 ee 3a eb 22 4c bd
       -0.028170304 -0.012038483 0.0018229927 -0.049837988
0001c0 7e fd 0d bd 2d a7 77 bd 0c 75 3f bd d4 40 87 bc
       -0.034665577 -0.060462166 -0.046742484 -0.016510405
0001d0 c3 4b 34 bd 3a a4 2e bc 9d 37 6c bd 9b 38 c5 bc
       -0.044017565 -0.010659272 -0.057670224 -0.024074843
0001e0 11 7d a8 bc c1 f8 80 bb 31 b3 98 bd b6 f3 26 bd
       -0.020567449 -0.003935904 -0.07456053 -0.040759765
0001f0 2c 20 88 bc 25 0a a7 bb 9e e8 4a bd 53 4c 01 bd
       -0.016616903 -0.005097645 -0.049538247 -0.03156693
000200 09 1a a9 bd 89 fd 65 3d a4 c0 89 bd a1 e6 b9 bd
       -0.08256919 0.056149993 -0.067261964 -0.09077192
000210 03 1e 01 3d fb 95 73 bc d4 0c 2a bd 5c a9 93 3c
       0.031522762 -0.014867301 -0.04151614 0.018025093
000220 78 3d 13 bd 6e 32 97 bc 4e f7 28 bd 2b e8 14 bd
       -0.035947293 -0.018456664 -0.041251473 -0.036354225
000230 96 7f 4e bd ec a2 3a 3d cd 1b de bc 56 d5 e6 3d
       -0.050414644 0.04556553 -0.027112866 0.11271159
000240 05 2e 9e bd 2a 68 af bc 6c aa d4 bb 52 02 67 3b
       -0.07723621 -0.021411974 -0.0064900424 0.0035249186
000250 aa 88 1d 3d af 64 15 3d 85 65 20 3d da 39 14 3d
       0.03846041 0.036472972 0.039159317 0.036187984
000260 25 04 cf 3c 90 23 55 bd 26 53 af 3c d0 0f f8 bc
       0.025270531 -0.05203587 0.021401953 -0.030280977
000270 89 0a 02 bb c5 66 bb bd 3a e9 4c bc 32 31 44 bd
       -0.0019842705 -0.09150461 -0.012506777 -0.04789848
000280 2f b0 e5 3c 75 19 9a 39 87 75 1f bd 7b f7 2e bb
       0.028038112 0.00029392136 -0.038930442 -0.0026697803
000290 96 f7 05 3d ca 68 a7 b9 0c 0e b7 3b e6 ab d5 bc
       0.03270682 -0.00031930796 0.0055863913 -0.026082944
0002a0 17 94 29 bd 90 a8 dd bc 03 49 a3 bc 94 1e a4 bc
       -0.041400995 -0.027057916 -0.019932276 -0.020034112
0002b0 81 eb 06 bd 7a f5 cd 3c 01 b2 38 3d 43 d4 0c 3d
       -0.032939438 0.025141466 0.045091633 0.034382116
0002c0 37 9b 7e bd 85 53 1a 3d fe eb af bc 9e 9d 90 3d
       -0.062159743 0.037677307 -0.021474835 0.07061313
0002d0 b7 ff 73 bc f7 2f 15 3d 52 62 b6 bc 5a 8e 1b bd
       -0.01489251 0.036422696 -0.02226368 -0.037977554
0002e0 d1 7d 18 3b fc b7 30 3d b1 83 b1 3c 2f c7 3f bb
       0.0023268352 0.04314421 0.02166924 -0.002926301
0002f0 7f b9 27 3d 59 c2 9f 3c c0 a7 7f 3c 47 45 9f 3c
       0.040948387 0.019501852 0.01560396 0.019442214
000300 b4 67 f5 3b 61 1a 88 bc 2c 07 0a 3d f3 63 67 3d
       0.007489169 -0.016614141 0.033698246 0.056491803
000310 46 fc 47 3c ea 7a 0b bd ed 4d da 3c f4 1a d5 bd
       0.012206143 -0.034052767 0.026648486 -0.104055315
000320 4c 2b dd bd 5e 2f d8 3a 3c b1 95 3c 44 e3 c6 bc
       -0.10799274 0.0016493609 0.018272988 -0.02427829
000330 5f 97 59 3d cb be 91 bc 9a 67 a5 3d 78 e5 42 3d
       0.053122874 -0.017791172 0.08076401 0.04758212
000340 b9 f9 72 3d 56 1b aa bd c7 45 9e 3a 38 52 28 bd
       0.059320185 -0.08305995 0.0012075239 -0.041094035
000350 60 80 dd bc b3 76 eb 3c aa 3f 28 3d 1b 47 c3 bc
       -0.027038753 0.028743124 0.04107634 -0.023837617
000360 44 21 64 3d 67 92 fd 3c 57 f4 28 bd 94 c1 a8 3c
       0.055695787 0.0309536 -0.041248646 0.020600118
000370 54 8a f1 39 72 72 ca 3a cb 91 25 bd e7 36 fe 3a
       0.00046070165 0.0015445484 -0.040422242 0.0019395024
000380 aa 44 08 3d 5d 2d 32 3d 3f 1b b3 3c 94 5a 3a bd
       0.03326861 0.043500293 0.021863578 -0.04549654
000390 1d 91 5b bc 6a f5 9e 3a d8 09 3b bd 41 bc 08 bd
       -0.013401297 0.0012127582 -0.045663685 -0.033382658
0003a0 2b d5 d1 bc 9a 65 35 3c 22 1e 2f 3d 12 05 4d bd
       -0.025614342 0.011071587 0.042753346 -0.050053664
0003b0 81 ca 0d bd 3b a7 2d 3d 03 e9 4a bc da 7e 7a 3c
       -0.03461695 0.04239581 -0.012384656 0.015289033
0003c0 b4 f5 8e bd 39 3b 08 bd 17 2d be 3c 19 9d e3 3b
       -0.06980458 -0.033259604 0.02321486 0.0069462177
0003d0 6f 8d 16 3d 80 35 f7 ba a7 c5 fd 3c a9 64 c2 bc
       0.036755975 -0.0018860549 0.030978037 -0.02372964
0003e0 c6 e3 c8 bb 3d 34 30 3c 62 88 ea 3c f2 64 41 bd
       -0.0061306683 0.010754642 0.028629486 -0.04721541
0003f0 48 62 08 3c 16 8f 4d bd d5 05 6a bc 5f cf 07 3d
       0.008324213 -0.050185286 -0.014283617 0.03315675
