Deep Reinforcement Learning Nano Degree/Collaboration and Competition/model/checkpoint_critic_local_1.pth (torch_old, 575069 bytes, 9 tensors)

fcs1.weight f4 [400, 52]
00000000: e2f3 1ebe 6471 21be 5af8 2a3d 3ab9 0eba
00000010: d5f1 a23d 84bf a3bf e216 8cbc f0e1 bfbb
00000020: 5499 5fbe 5930 19bc 28ab 2f3c 2b91 433d
00000030: 4492 d43c e6d9 17bf 5dcf 72bb 76bc 493d
00000040: 73c2 c8bd 77fa 603e 6106 3cbb efe3 87bd
00000050: 5898 a1bc 4787 0840 a79f af3b 2fcd 8abd
00000060: 179e 7bbd 21c6 9ebe a0fb f33c 1b24 48bd
00000070: 8ca7 89bd 00be aabf eb9d a7bc 7321 073c
00000080: d545 16be eb23 abbd 17fe f1bb 4490 37bc
00000090: 77bd 10bd 5578 25bf 4904 ab3c 89f7 dcbb
000000a0: 0e72 27be 9c75 343e 171a 9a3b b684 abbd
000000b0: f996 1e3d 4e2e 0540 b2bc 35ba d29c d9bd
000000c0: a98c 0c3e 4320 ddbc 3434 423e ba25 053e
000000d0: 5b54 b43e 0dee 57bf 722d a9bc c480 9bbd
000000e0: 0ea1 5dbe 2361 503d c1b1 243c c871 d3bd
000000f0: 7e15 023f c9a7 17bf 788a 48bb 590e 023e
00000100: 6aaf f9be 38ef dcbe c562 2fbd a0e6 bb3d
00000110: 76c7 e33d 7241 8cbf 91df 1f3d 37bd 2e3e
00000120: 5093 2ebf bcc7 333f d155 a4bc a641 073e
00000130: 9584 803e 537a 543f 2f68 4bbd 4cb1 373e
00000140: e902 653e ff7f 16bc 50fe 9dbd b973 7a3e
00000150: efd7 0a3f 3e20 8d3f cb89 b13d e0e1 9c3e
00000160: 437f ee3e 3fef dabe f59a 053d 3a5b be3e
00000170: 0114 e73d 139d ca3e f36d eabd daf2 033d
00000180: 63d7 273f e37e 2a3f 561b 94bc ff7c 89bc
00000190: 3720 9ebf 9579 b83e 6f3f 9a3f b9a1 46bf
000001a0: d243 f13d c4cd b1be 6ef7 b6bc 705d a33d
000001b0: b953 77be bce7 943e 438f 03bd dfdd dc3d
000001c0: 893f c73d e4d3 bcbe 284d 71bc 6cfd 243d
000001d0: adf1 173e fe19 ea3e 1a99 613b 53cf a93d
000001e0: 34c3 e13d 35be 98be 4ae9 03bd f527 18bd
000001f0: 537c 993f 029c 673e d952 abbc dea9 a7bc
00000200: 77fb 1d3e 3037 25be 5fc3 09bd 1241 a93c
00000210: cf3a 903e d057 923e d2dd 43bc 4fbf 4d3d
00000220: 0b05 533e 3ee2 663d 7c43 823c 3439 553e
00000230: 5936 1fbe ded1 d13e c004 2e3d 9b23 8c3e
00000240: 960f a03e 5559 683e f53e 8c3d d29c 243f
00000250: 90fd 99bf 7391 5a3e 730c 673d 66ca 283f
00000260: e046 a93f 1aae 883e 6a77 753f 1fcf 79bf
00000270: 4e15 563e c5ba 9cbe 1d07 05bd e616 0abe
00000280: f083 033e c206 d9bd 2ee7 dcbb cec9 0abe
00000290: 4659 9e3e f32d bfbe 58df f53c ecea 433d
000002a0: a0ae 00be 81a7 4a3e 3f94 1ebd 3eaf 833d
000002b0: 9b12 233f 5660 c2be 5808 053c e035 af3d
000002c0: 9f29 f2be 4bc1 5a3f ee2c 003d 9d13 ab3d
000002d0: 493a 4c3d 0abb bd3f db77 12bc 9a85 153d
000002e0: a77a 56be 6307 0dbe eae0 f9b9 548e 23bd
000002f0: 6fc0 ab3c 638d dd3f c51f 00bd 4cbf cd3c
00000300: 0d59 723d 0a37 4e3e 8e75 10bd d044 2b3d
00000310: d34a f03d 601a d23f 03f5 74bd 7fea 0ebe
00000320: cdc7 d93e 6ffc 553f 0770 64bd bd14 adbd
00000330: b0fd f03e 2c57 2d3f fa69 10c0 e0f2 7d3e
00000340: 22cb a53a 6a72 82bd 9504 fa3c 7583 31be
00000350: 2430 49be d58a 31bf 2bd3 393d 33f3 14be
00000360: 9dab b93d 7afd 7e3e d2fe 33be 4eb9 f93e
00000370: b220 c2be 5f10 b9be 48d4 2bbe 3a5f 063f
00000380: 1583 063d fbdd 3f3e fb2e 68bd 5663 813e
00000390: c640 7bbe 1a44 e83e 27d3 863c ce7d 4b3e
000003a0: e77c 293e dc76 0cbe 048d 1abe 22d9 fcbe
000003b0: 966f 373e a7dc 23bf 5ea9 68be 9c25 08bf
000003c0: 601a 4f3e 935d 2fbe 7993 a33d 1694 11bf
000003d0: 5904 b43e 7597 b6be 9385 813d 1b62 0fbf
000003e0: 1b69 183e 9f13 90be 8e75 89be f8a4 d7be
000003f0: 88bb 8c3e 1be2 d23e d755 90be 1248 dfbe
-0.15522721 -0.15765911 0.041740753 -0.0005444471 0.07956282 -1.2792821 -0.017100755 -0.0058557913
-0.21835834 -0.009349906 0.010721959 0.047745865 0.025948651 -0.5931686 -0.0037049868 0.049251996
-0.09802713 0.21970545 -0.0028690326 -0.06635272 -0.019725963 2.1332567 0.005359608 -0.06777417
-0.061430063 -0.31010535 0.02978307 -0.048862558 -0.0672141 -1.3339233 -0.020461043 0.008247721
-0.14675076 -0.0835646 -0.007385026 -0.011203829 -0.035336938 -0.6463674 0.020876067 -0.0067433757
-0.16352102 0.1762299 0.004702817 -0.08374922 0.038718197 2.0809512 -0.000693272 -0.10625614
0.13725533 -0.026992923 0.18965226 0.13002673 0.35220608 -0.8434761 -0.020651553 -0.075929195
-0.21643469 0.050873887 0.010052145 -0.103244364 0.50814044 -0.59240395 -0.0030600112 0.12700786
-0.48766643 -0.4315126 -0.042818803 0.091748476 0.111220285 -1.0957472 0.03903157 0.17064367
-0.6819353 0.70226645 -0.020060452 0.13208637 0.25101152 0.8299915 -0.049659904 0.17938727
0.22364391 -0.00918579 -0.07714522 0.24458207 0.5423574 1.1025465 0.0866886 0.3064108
0.46581468 -0.42760655 0.03261848 0.37178975 0.11283112 0.39572963 -0.114467524 0.032214023
0.6556303 0.66599864 -0.018079441 -0.016783236 -1.2353581 0.3603026 1.2050608 -0.7759052
0.11780514 -0.347273 -0.02233478 0.07976806 -0.24153031 0.2908305 -0.032119047 0.10784506
0.09728915 -0.3688041 -0.014727868 0.040280744 0.14838286 0.45722955 0.003442353 0.08291497
0.1102356 -0.29832616 -0.032204904 -0.03714748 1.1991066 0.22618106 -0.020913528 -0.020466741
0.15427957 -0.16134334 -0.033633586 0.02066091 0.28169867 0.2858262 -0.011954742 0.050231274
0.20607392 0.056368105 0.01590132 0.20822603 -0.15548076 0.40980428 0.042485 0.27370915
0.3126189 0.22690327 0.068479456 0.6430179 -1.2030506 0.21344547 0.056408357 0.65933836
1.3224754 0.2669533 0.95885336 -0.97581667 0.20906565 -0.30611244 -0.032477487 -0.13485298
0.12843299 -0.10596992 -0.006741426 -0.13553545 0.30927485 -0.37339744 0.030013725 0.04783146
-0.12566614 0.1979046 -0.038715597 0.06429909 0.63700265 -0.37964123 0.008119665 0.08555198
-0.4729738 0.8545119 0.03129285 0.0835335 0.049860273 1.4822705 -0.008939709 0.036504366
-0.20945226 -0.13772349 -0.00047660555 -0.039930657 0.020965783 1.7308773 -0.031280298 0.025115632
0.059166957 0.20138183 -0.03526836 0.04181367 0.117330216 1.6414299 -0.059803974 -0.1395664
0.42535248 0.8358831 -0.0557709 -0.08451221 0.47068548 0.6771114 -2.2564683 0.2479968
0.0012649039 -0.06369479 0.030519763 -0.17335303 -0.1964727 -0.69352466 0.0453674 -0.14545898
0.09065936 0.24901381 -0.17577675 0.4877419 -0.3791557 -0.36145303 -0.16780198 0.52489054
0.032839853 0.18737023 -0.05668543 0.252711 -0.24536428 0.45364457 0.016458107 0.1987221
0.16551553 -0.13717216 -0.15092856 -0.4938441 0.1791366 -0.64008564 -0.22720858 -0.5318239
0.20224905 -0.1712554 0.079871126 -0.56866586 0.35159567 -0.35662428 0.063243054 -0.5600907
0.14883845 -0.2813997 -0.268475 -0.4211805 0.27486825 0.4118813 -0.2819049 -0.43609673

fcs1.bias f4 [400]
00000000: 65c6 963d 406c b5be d844 2ebf e52d 14bf
00000010: ccda d7be c5e0 72bf 048d 29bf 0020 45be
00000020: 0929 76be f7a1 1f3a c3c2 c53d 6485 81bd
00000030: 6b97 f3be 5f74 a6bc e284 f7bd 3f4a 48bd
00000040: 7153 01bf 6e88 b63c 69e7 6e3d 98c8 9bbe
00000050: aaeb e6be 6a8d f8be 15d0 aebe 16a4 b2be
00000060: 8df3 4fbf ac31 c1bd 1460 a9be bb1d 4fbe
00000070: 0737 d0be 34e9 4ebf 9a73 ca3d 1d5f cd3c
00000080: 1e27 f6be d14a 1b3d 5c6e fc3d 035c c9be
00000090: 6d36 363d e608 97be 9fc8 a43d f679 19bf
000000a0: cdad 5c3d 5cb2 1cbf 6ef7 b5be 0c1b 823d
000000b0: a92a b6bd 50db 02be 1cac 6dbe 6c95 94be
000000c0: 47ce 13bf 7b1e 9cbe 8e73 3dbf a4df 8d3d
000000d0: f48a adbe 995b bebe 5a7f d1bd 92a2 05bd
000000e0: d11d b1be 3588 d6be a3d0 e2be 0be3 8bbe
000000f0: a946 8fbe f767 96bd 5af6 3c3e b22f c03c
00000100: 8145 1bbe 90fa 60bd 4eb6 0dbe a497 67be
00000110: a8b5 aa3c 0de1 aebe c38e 52be c0c3 593e
00000120: cc39 c7be efe4 b7bb 1683 97be 8f74 c4be
00000130: 1ac5 51be f436 a3bf bd72 debd 4ed0 fb3c
00000140: 5527 4f3e e196 2cbf ca7e 39be 7b67 42bf
00000150: 55ec 40be 9cf0 93be 060f 9fbf 884f 89bf
00000160: 415f 6ebf 812c 29be 97fb 2c3e 266f 99be
00000170: 4d65 28bf d861 5dbd 2ce0 05bf 289c b5bd
00000180: aeef 95be 9064 ccbe cdf5 acbd 0ee3 f4be
00000190: 516c acbe b5e5 9bbe 2124 04bf 08a2 28be
000001a0: 016f 80be 87e3 8fbe b2c2 05be 6348 1a3d
000001b0: 253f 22bf f571 39bf fbc8 fe3c 7679 cebe
000001c0: 9d2c cfbe b5c1 93be 0eee 9dbe e378 78bd
000001d0: 8040 dbbe 0f57 3ebe 1360 cfbe 809d 00bf
000001e0: 27a2 1fbf 44d0 17be 5e0c 9dbe a2da 69bf
000001f0: 634c 98be e429 03bf 980c debe 0ebd d23d
00000200: af02 75be b5ab 0cbe 082b a2be 672f 01bf
00000210: 7c84 acbd 9d84 44be 77dd 85be 2320 26be
00000220: b7f2 783d e320 0bbf 97f9 d0bd bd28 2bbf
00000230: 9cf7 a33d 07f1 3abf 705e 98be d364 6fbe
00000240: 3fac 363e 7722 10be 6f93 86be f491 18bf
00000250: a928 2bbe f63a d1bd 4761 acbd 75b3 02be
00000260: 059d 91be c88b 16bf 1bfc acbf 03b5 efbe
00000270: 217a 57bf dedf 53be 4e59 7ebf 9b9c 49bd
00000280: 4a0c 71be 870b 0abe 035c a1be a5bc 8cbf
00000290: 66dd 1cbe 9eb3 04bf a2b4 1bbe 2a81 dc3d
000002a0: 20cf 1dbf 2817 94be 1c47 da3b b4eb 47be
000002b0: 805a d6bd d142 34be 7490 9bbe d61c a1be
000002c0: 2ff3 80be fe95 ce3c 3a5d 3ebe 8a1f 61be
000002d0: 3651 edbe 3f81 52bf 3948 273e 9ca9 45bf
000002e0: f0d1 a2bd f464 52bf 74e9 7fbf c416 533e
000002f0: 1379 a0be 2ea0 7dbe 77b4 4ebe 5b1f 23bd
00000300: 706f ccbd 61ba f2be 6f2b 8b3d c926 76be
00000310: 7737 27bf 18ac 603e 797b 0abf 162b 8dbf
00000320: ed75 453d d773 fcbe 97bd 83be 3ad6 3cbe
00000330: 2cd2 74bf 061e b5bf f063 353a e1fa e8be
00000340: 2643 0dbf 5246 84bf 8f50 5bbf 82c2 9bbe
00000350: 7485 0fbf a224 933e 0b80 6bbe 463d 39bf
00000360: e473 c2be ee56 65be 76c6 b5be f219 8ebe
00000370: 67f4 74bf db41 f6be 395b 56be 5a6d 9b3e
00000380: 9fde abbe ca17 efbe b30e 67bf 7558 07bf
00000390: 16fb 95be 7237 b2be f4e9 04bf 44a8 d7bd
000003a0: af90 92be af23 22be 1fe4 da3d 16ff ecbe
000003b0: 6048 37bf e477 e0be df0b b8be b6c1 c4be
000003c0: 7b18 92be 6808 003e e038 d7bd 5b71 01bf
000003d0: ef7f 5d3e fd5e b53b 755e fdbe 3585 9ebd
000003e0: 5130 7abf b600 cdbe dd24 0ebf 5871 e6be
000003f0: 4589 ae3d 515a bb3d 39ed 28be b14d 1ebd
0.073620595 -0.3543415 -0.680738 -0.5788253 -0.42159116 -0.9487422 -0.662308 -0.19250488
-0.24039091 0.00060895033 0.096562885 -0.0632427 -0.4757646 -0.020319162 -0.12085892 -0.04889893
-0.50517946 0.022281852 0.05832616 -0.30426478 -0.45101672 -0.4854539 -0.3414313 -0.34890813
-0.81231004 -0.09433302 -0.33081114 -0.20226185 -0.40666983 -0.8082459 0.098853305 0.025069768
-0.4807672 0.037913147 0.12325737 -0.39328012 0.0444855 -0.29498976 0.08046078 -0.5995172
0.053876687 -0.61209655 -0.35540336 0.06352815 -0.088948555 -0.12778974 -0.23210186 -0.2902025
-0.5773663 -0.30492005 -0.7400445 0.06927422 -0.33895075 -0.37179258 -0.102293685 -0.032625742
-0.3459306 -0.41900793 -0.44299802 -0.27321658 -0.27983597 -0.073440485 0.1845335 0.023460243
-0.15163232 -0.054926455 -0.13839075 -0.2261644 0.020838574 -0.34156075 -0.20562272 0.21266079
-0.38911283 -0.005612008 -0.29592198 -0.38370177 -0.20485345 -1.2751145 -0.10861728 0.030738976
0.20229848 -0.6741772 -0.18114772 -0.7593915 -0.18840154 -0.28894508 -1.242646 -1.0727396
-0.93114096 -0.16520883 0.16892849 -0.29967612 -0.6577957 -0.05404839 -0.52295184 -0.08867675
-0.29284424 -0.39920473 -0.0844532 -0.4782948 -0.3367639 -0.3044869 -0.5161763 -0.1646806
-0.2508469 -0.28103277 -0.13062552 0.03766669 -0.633776 -0.7243951 0.031101694 -0.40327042
-0.40463725 -0.28858724 -0.30845684 -0.06066216 -0.42822647 -0.18587898 -0.40502986 -0.50240326
-0.623568 -0.14825541 -0.30673498 -0.9134923 -0.29745778 -0.51235795 -0.43368983 0.102899656
-0.23926805 -0.13737376 -0.31673455 -0.50462955 -0.08423707 -0.19191213 -0.26145527 -0.16223197
0.060778346 -0.54347056 -0.102038555 -0.66859037 0.08006212 -0.7302403 -0.2975955 -0.23378305
0.17839144 -0.14075647 -0.26284358 -0.59597707 -0.1671473 -0.10216324 -0.08416992 -0.1276377
-0.2844011 -0.5880704 -1.3514436 -0.46817788 -0.8417073 -0.20690867 -0.9935502 -0.049221616
-0.23539844 -0.1348096 -0.31515512 -1.099507 -0.15318832 -0.51836574 -0.15205625 0.107668236
-0.6164417 -0.28923917 0.006661309 -0.19523507 -0.1046648 -0.17603613 -0.30383646 -0.31467313
-0.25185534 0.025218006 -0.1859025 -0.21984687 -0.46351022 -0.82228464 0.16336145 -0.7721193
-0.07950199 -0.8218529 -0.99965596 0.20614153 -0.31342372 -0.24768135 -0.2018603 -0.039824825
-0.099821925 -0.4740782 0.06795394 -0.24038233 -0.6531901 0.21940649 -0.54094654 -1.1028774
0.048208166 -0.4930713 -0.25730583 -0.18441096 -0.95633197 -1.4149787 0.0006919494 -0.45503905
-0.55180585 -1.033396 -0.856698 -0.30421835 -0.5606301 0.28738886 -0.22998063 -0.7235912
-0.37979043 -0.22396442 -0.35502976 -0.2775417 -0.9568543 -0.4809712 -0.20933236 0.30356866
-0.33568284 -0.46697837 -0.90256804 -0.5286935 -0.29293126 -0.34807926 -0.51919484 -0.10530141
-0.2862601 -0.15833925 0.10688042 -0.46288365 -0.7159481 -0.4384147 -0.35946557 -0.3842904
-0.28534302 0.12503207 -0.10508895 -0.5056359 0.21630834 0.005535005 -0.49486127 -0.07740251
-0.97729975 -0.40039605 -0.55525 -0.4500835 0.08522276 0.09148086 -0.16496743 -0.03864831

fc2.weight f4 [300, 400]
00000000: e5be 08bc 3655 1d3d d6e9 35bd 5893 263c
00000010: 3a9e c23b c38a 33bd 58b8 c8bd ae73 3ebd
00000020: f9e7 21bd e5fc a0bd f375 91bd 2609 e3bc
00000030: 20af c73c 1973 3e3b 09ed 95bd 0294 9b3c
00000040: f2eb 88bd 5493 0bbd cf60 36be 78a8 1cbd
00000050: 78d3 f1bd fea7 cfbc 3a4c 87ba 2dc9 7bbd
00000060: 3780 85bd 20e8 97bd 4fd6 7b3c ab6b 33be
00000070: e2e9 463b a24a 62bb 9ec1 c53c e165 0fbc
00000080: 6600 c0ba 0219 243e d622 84bd 0558 7b3c
00000090: a2ba d5bc 4193 bbbd d2d7 00bd caf5 b83c
000000a0: ef2d b53c 2855 ce3b b701 0e3e 67b8 9dbd
000000b0: 0e1d a83c 14c5 48bd a1e7 073e b649 12be
000000c0: 5f5c adbd eca0 113d 5377 4f3d c2d3 8c3d
000000d0: 0e75 8abd a4b7 e73c 47aa d83c a1aa 5a3c
000000e0: 5c93 bb3b df67 36bc 6bf9 8abb fbb1 d5bc
000000f0: f38a fe3c e2e8 69bd d5ef 27bd 771c 893c
00000100: 725c 9f3c 41c7 9a3c 4eed 563d 922d 0abe
00000110: c1f1 e5bb 86bf 4bbd 1a87 c13c 61ee 9d3d
00000120: 7733 14bd 7e8e 0c3c 41be 15bd f0b8 fb3b
00000130: 8cac b1bc bfab cd3c 4082 7c3c 9b11 76bd
00000140: 7f02 78bb a60a 98bd fbd1 7a3d 943a 58bd
00000150: 30a6 2bbd ee13 50bb 0184 afbd 96c1 8abc
00000160: 3a71 793d 2b23 20bd f9b0 843c 2f22 26bd
00000170: b520 05bc e187 b5bc f38d 09bd ae1f c5bb
00000180: a4f0 003e 5ac9 75bd de4e 013c 9c4c 113c
00000190: d932 59bd da44 e5bd c42e d73b e615 20bd
000001a0: d6f5 933d 3a3e d8bc 99b9 6a3d 2c70 c83c
000001b0: 43ca c2bd 45d5 8bbd 6449 1cbd 0912 c2bc
000001c0: 9e20 bcbd d9b9 82bd b8e4 603d 81c6 11bc
000001d0: 430c cfbd 9f34 b3bd 4b7a 293e 2b7e bfbd
000001e0: ed0a aabd 7abb 953b 6243 10bd 7d36 b83c
000001f0: f109 6c3a 1c2a de3d dfb4 8c3d 2235 c7bd
00000200: bd7c 8cbd 4674 463d 74a6 d1bb 0958 c33c
00000210: ba20 523d 019b 6aba 1b98 af3c 0dfe 323d
00000220: 7919 87bd 8a4e 55bd fce7 bcbd 088d 453c
00000230: 2675 5bbd 5ed1 4ebd cffe 89bd 0061 a9bd
00000240: 0183 0a3d 330f 17bc 6c57 9ebd c5a3 c1b8
00000250: 9f3b 023e 4fcd 71bd 15a0 e3bd af54 cd3c
00000260: 3a87 613c 24fa 7dbd c7a9 72bd 847a 5cbc
00000270: 5c2e 703c e55f 303d a186 e8bc 914f b43d
00000280: 6ded 9abd 4b67 823c 67fb 1cbd 6563 8cbd
00000290: 4a5d 71bd 71cb 563d 28b5 0dbd 28f6 98bd
000002a0: 4df9 f0bd e000 52bd 2743 343c d366 073d
000002b0: 6211 fb3c 29d1 28bc d522 cbbd d7ae 2f3d
000002c0: f5aa d1bd 26b2 b0bd ed82 d9bc 491d b13c
000002d0: c043 a3bc 18a8 58bd d525 a6b7 1704 823c
000002e0: 7f6e 72bc 4044 c8bd 65e5 4fbd aa76 5f3b
000002f0: a539 63ba af99 cd3c 45ff 263d 557c bbbc
00000300: b556 493d 9eb7 2bbc 904e 18be fc17 86bd
00000310: 2e2e ed3c 07cb 01bd 76b0 d23c 90da 26bd
00000320: da8c 2cbb 3553 33bc 81b7 23bd 6a48 9f3c
00000330: f290 d83b 98d0 6a3c c775 2bbd f5a2 ee3c
00000340: 3ee2 fcbc ce04 733c 53fb 3b3d f956 10bc
00000350: e260 fdbb c4ec 4d3d c057 dbbc 0334 603d
00000360: b298 9d3d 1b5c bbbd 379f 03be 732e 60bc
00000370: 150a 8fbd 62ac 93bc 3f54 f2bc 7c69 a4bc
00000380: c112 203d 56d4 07bd 80f0 bdbd 1a47 29bd
00000390: 719b 88bd de28 91bd 8818 ef3c 2851 81bd
000003a0: 3cf9 a43c 226e 05bd 50b1 9ebd 49f0 d03c
000003b0: 09f3 53bd 9fa9 1b3d 9ecc 953d 6f98 0bbd
000003c0: b61e a6ba d680 0c3c d275 6dbd 5fae 733d
000003d0: 4f91 6abc ba95 83bd ad9a 843d 3c7e 9abd
000003e0: 4aea 673d 5598 b9bd f2b0 11bd c1f4 cbbd
000003f0: de63 e03b 445a b53c 1c97 adbd a23a fe3c
-0.008346294 0.03841134 -0.044412456 0.010166965 0.005939272 -0.043833505 -0.09800786 -0.04649704
-0.039527867 -0.07860736 -0.07102575 -0.027714323 0.024375498 0.0029060303 -0.073206015 0.018991474
-0.06685628 -0.03407605 -0.17810367 -0.0382466 -0.118079126 -0.02534866 -0.00103224 -0.061471153
-0.06518596 -0.07417321 0.015370919 -0.17521541 0.0030351807 -0.0034529348 0.024140175 -0.008752317
-0.0014648556 0.16025165 -0.06451957 0.01534081 -0.02608997 -0.09158946 -0.031455822 0.022578139
0.02211663 0.0062967725 0.13867842 -0.077011876 0.020521667 -0.049016073 0.13271953 -0.14285931
-0.08464884 0.035553858 0.050650906 0.06876327 -0.06760608 0.028285809 0.026448382 0.013346345
0.0057243537 -0.011133163 -0.0042411587 -0.026085844 0.031072116 -0.05710686 -0.041000206 0.016737206
0.019453261 0.01889384 0.052472405 -0.13493946 -0.0070173447 -0.049743198 0.023623992 0.07711483
-0.036181893 0.008578895 -0.036558393 0.0076819584 -0.021688722 0.025106309 0.015411913 -0.060075384
-0.0037843285 -0.07423906 0.06123541 -0.05279024 -0.041906536 -0.003175016 -0.085700996 -0.016938012
0.060898997 -0.03909604 0.016197668 -0.040559944 -0.008125474 -0.022159519 -0.03358264 -0.0060157394
0.12591797 -0.060006477 0.007892339 0.008868363 -0.053027008 -0.11194773 0.006566854 -0.039083384
0.07224624 -0.02639686 0.057305906 0.02446755 -0.095112346 -0.06827787 -0.03815593 -0.02369024
-0.09185909 -0.06383104 0.054905623 -0.008897425 -0.101097606 -0.08750271 0.16550557 -0.093502365
-0.08302865 0.004569468 -0.03522051 0.02248692 0.0009004167 0.108478755 0.06870436 -0.09726931
-0.068597294 0.04845073 -0.0063980166 0.02384569 0.05130074 -0.0008949489 0.021434834 0.043699313
-0.065966554 -0.052076854 -0.09223935 0.01205755 -0.05357852 -0.050492637 -0.06738054 -0.082704544
0.03381634 -0.009219932 -0.07731518 -9.2334616e-05 0.12718056 -0.05903369 -0.111145176 0.025064794
0.013765151 -0.06200613 -0.059243944 -0.013456944 0.01465949 0.043060202 -0.028384509 0.088042386
-0.075648166 0.015918395 -0.038325693 -0.068548955 -0.058926858 0.05244011 -0.034596592 -0.074688256
-0.117663 -0.051270366 0.0110023385 0.033057045 0.030647937 -0.010303774 -0.09918753 0.04289135
-0.102376856 -0.08627729 -0.026551688 0.02162041 -0.019929767 -0.05289468 -1.9806359e-05 0.01587109
-0.014796852 -0.09778643 -0.050755877 0.003409783 -0.00086679525 0.025097696 0.040770788 -0.022886435
0.049154956 -0.0104807895 -0.14873719 -0.065475434 0.028952684 -0.031687763 0.025718909 -0.04073578
-0.0026329071 -0.010945131 -0.039969925 0.01944371 0.0066090757 0.014331959 -0.041860368 0.029130438
-0.0308696 0.0148326885 0.04589398 -0.008809798 -0.0077324966 0.050274625 -0.02677524 0.054737102
0.0769514 -0.09148427 -0.12853704 -0.013682949 -0.06984345 -0.018026534 -0.029581187 -0.02006983
0.039080385 -0.033161484 -0.09274387 -0.041327573 -0.06670273 -0.07087873 0.029186502 -0.063143075
0.020138375 -0.032575734 -0.077486634 0.025505202 -0.05174545 0.03800356 0.07314418 -0.03408092
-0.0012673947 0.008575639 -0.05797369 0.059492465 -0.014316871 -0.064250425 0.064748146 -0.075436085
0.05661992 -0.09062258 -0.03556914 -0.099587925 0.0068478426 0.022137769 -0.084760875 0.031033818

fc2.bias f4 [300]
00000000: ee11 cabd 6589 abbd 2b40 8abd 1df8 dabd
00000010: dbc5 b4bd d8d3 b5bd 6d6d 7abd 922b 42be
00000020: 40bb d8bd f7a3 b8bd d117 e0bc eb49 02be
00000030: 4882 febd 870d ecbd b7c6 92bd 9c3e e8bd
00000040: a664 07be 9994 9bbd 8367 a1bd f232 c4bc
00000050: c3e8 94bd 793b a1bd 59a6 1ebe acf7 07be
00000060: d2e7 21be 2455 b9bd 0f59 ecbd d54d d1bd
00000070: 776c fdbc f637 62bd f286 4abe 5ceb 0fbe
00000080: b12f 07be ebbd 9fbc 351c 0dbe 15b6 d0bd
00000090: 5e8e 2cbe 2be5 42be 9817 f9bd 091e bbbd
000000a0: e476 50bd 9105 05be c242 96bd 6c2f 3cbe
000000b0: b1cc e3bd 98e9 1abe b2f1 e4bd a6e5 18bd
000000c0: dbf9 06be bafa 92be e7d6 e7bd 28e6 8bbe
000000d0: f78e 39be 51d8 babd a367 23be 9e92 04be
000000e0: e442 16be 3a7f cabd 3333 f4bd 2139 8cbd
000000f0: 80fc 10be 7604 aabd 30dc 39be 5ef4 6bbd
00000100: a232 0bbe b6ff cdbc 0a6b 51be 4119 e3bd
00000110: 66ae c9bd dca7 1cbe 3535 debd 73c5 dabd
00000120: d139 5dbe e698 1ebe 35d6 34be 3cd6 89be
00000130: 8c20 aebd a3db 2bbe 1fb7 51be 5ce2 c2bd
00000140: 6480 92bd 5476 3dbe 7e81 15be bc40 edbd
00000150: 350a 87be 3d84 92be 3061 c2bc bea0 d0bd
00000160: 0616 aabd 3e93 8dbd 8704 0bbe e52e 80bd
00000170: 840f 0bbe fd2d d0bd 64b2 95bd 01e0 e0bd
00000180: 8a93 aebd e306 46be 11e2 34be 34fb b7bd
00000190: bf5d a2bd e645 b6bc 14dd 61bd 4e7d 97bc
000001a0: b7e5 86bd 878d b8bd 6886 efbd 7d87 cfbd
000001b0: aff7 ddbd 1386 60bd 302b 43be 428d d1bd
000001c0: 7f75 10be 8437 0fbe 05ef 94be 8c44 61be
000001d0: fd2f e9bd 9022 27be bd65 03be 4ed8 72bd
000001e0: 098d 22be eea9 97bd 01ff 15be af0b 1abe
000001f0: ea0a 2fbd 3a57 22be 8852 33be 6bb3 dabd
00000200: 73f0 e5bd 91aa 8fbd 668a 44be 27cc 6cbd
00000210: c4c9 abbd b00e a0be 93a7 3bbe e5cb d3bd
00000220: 1138 9fbd 1333 c5bd ce17 b6bc 1e82 8abe
00000230: d7ab dbbd 5bc6 e0bd 92e3 12bd 6ca2 7ebd
00000240: b68a 85bd a660 11be 988b fcbd 37e2 03be
00000250: f8a5 b1bd 3da3 f3bd aa54 a1bd 815f 19be
00000260: e230 82be 127f c0bd 0372 dcbd ddff c1bd
00000270: c418 0fbe 5c6e 2fbe 15a5 c7bd 298b 07be
00000280: 0d39 00be de6e 09be 924e 45bd f2d1 13be
00000290: 48ed 68bd cf55 2bbe ca0f 28bd 025f b8bd
000002a0: 47b3 99be 31b4 ffbd 5f3d 33be 9612 1bbe
000002b0: 6b4b 51be b12d 0abd 8ef7 28be 3fcf 52bd
000002c0: 1072 c2bd 9d3e 74bd e683 53bd dbab febd
000002d0: 997d 19be 6c77 00be b22d f3bd dff0 b2bd
000002e0: 4735 2ebe 38f8 95bd 4c93 efbd b8e8 62bd
000002f0: 84a9 febc 0b7a 92be bf28 12be 4fa0 7dbd
00000300: 1dc8 e2bd bbbf 70be 3b30 59bd 24a6 cfbd
00000310: 22a5 dbbd 9a8b 39be 68b5 33be a4d1 a9bd
00000320: 0519 afbd e4ba 78bd d4b6 a5bd e77f dbbd
00000330: 17da d2bd 9c05 2abe e2e1 0dbe 0776 86bd
00000340: 4206 a5bd 83d5 fdbd 91b5 94be 1fad 2ebd
00000350: ecd4 35bd 33dd 88bd bf65 21be 96ed 3bbe
00000360: 3fd7 82bd 85c9 08be 3e27 93bd 7a01 02be
00000370: d1fd 0ebd d9f0 b3bd 9167 22bd ae12 afbd
00000380: 3ee1 abbd c782 64bd 1ba7 d2bd 9846 b4bd
00000390: f588 8fbd 9f74 dbbd d6c7 b5bd 62d0 a6bd
000003a0: df8c e63d f43f 1abe 0e01 27be 171c f9bd
000003b0: aa03 ebbd b73c 48bd 169f 14be 08b0 16be
000003c0: ec1e a5bd f343 03be c7c8 50bd 5552 cdbd
000003d0: 9f2d 48be 0f1d 9fbd feec c5bd ac2e 25be
000003e0: 9095 f6bd 19ec f1bd 2c08 9abe 090f 00be
000003f0: 2ad9 12be 2aa9 30be 4e09 10be 7d50 07be
-0.09866701 -0.08375815 -0.0675052 -0.10691855 -0.088268004 -0.088782966 -0.061139513 -0.18961933
-0.1058259 -0.09015649 -0.027355107 -0.1272351 -0.12427193 -0.11526018 -0.07166808 -0.11340067
-0.13221988 -0.07596702 -0.078810714 -0.023950074 -0.07270958 -0.07872672 -0.15493144 -0.13278073
-0.15811089 -0.090494424 -0.11540424 -0.102199234 -0.03093551 -0.05522915 -0.1977804 -0.14054626
-0.13201787 -0.01949974 -0.13780291 -0.101909794 -0.16851184 -0.19032733 -0.12162703 -0.09136588
-0.050894633 -0.12990405 -0.07336952 -0.18377465 -0.11123026 -0.15128171 -0.11178912 -0.037328385
-0.1318125 -0.28706914 -0.11320286 -0.27324033 -0.18120943 -0.0912329 -0.15957503 -0.12946555
-0.14673954 -0.09887548 -0.11923828 -0.06846834 -0.14158821 -0.08301632 -0.18150401 -0.057606094
-0.13593534 -0.025146347 -0.20450988 -0.11088801 -0.09847717 -0.15298408 -0.10849992 -0.10682192
-0.21604086 -0.15488014 -0.17659838 -0.2692126 -0.085023016 -0.16783004 -0.20480011 -0.09515831
-0.07153395 -0.1850217 -0.14600179 -0.11584613 -0.26374975 -0.28616515 -0.023727983 -0.10186909
-0.08304982 -0.0691285 -0.13575946 -0.062589444 -0.13580137 -0.101650216 -0.07309416 -0.10980225
-0.085242346 -0.19338565 -0.17664362 -0.0898346 -0.07928037 -0.022250127 -0.055142477 -0.018492367
-0.065867834 -0.09011369 -0.11695558 -0.10133264 -0.108382575 -0.054815363 -0.19059443 -0.10232021
-0.14107321 -0.13986021 -0.29088607 -0.21998805 -0.11386106 -0.16321778 -0.12831779 -0.059288315
-0.15874113 -0.074054584 -0.14648058 -0.1504352 -0.042735018 -0.15853587 -0.17511952 -0.106787525
-0.11227503 -0.07014955 -0.1919342 -0.057811882 -0.08388093 -0.31261206 -0.18325643 -0.10341624
-0.07774366 -0.09628882 -0.022228148 -0.27052397 -0.10726135 -0.10975333 -0.03586156 -0.062166616
-0.06520598 -0.14197025 -0.12331313 -0.12879263 -0.08674234 -0.118963696 -0.078774765 -0.14977838
-0.2542792 -0.09399237 -0.107639335 -0.0947263 -0.13974291 -0.17131943 -0.09748284 -0.13236679
-0.12521763 -0.13421199 -0.048170634 -0.14435557 -0.056866914 -0.16731952 -0.041030683 -0.09002496
-0.3001959 -0.12485541 -0.1750388 -0.15143809 -0.20438926 -0.03373498 -0.16500685 -0.051467177
-0.09494412 -0.059630025 -0.05163946 -0.124351226 -0.14989318 -0.12545556 -0.1187395 -0.08737349
-0.17012511 -0.073227346 -0.116980165 -0.05539772 -0.03108669 -0.28608736 -0.14273356 -0.06192046
-0.11073325 -0.2351064 -0.05302451 -0.10139111 -0.10724856 -0.1811966 -0.1754967 -0.08291939
-0.08549694 -0.060725108 -0.08091512 -0.10717755 -0.102955036 -0.16603702 -0.13855699 -0.06565481
-0.08057834 -0.1239424 -0.29044774 -0.04264557 -0.04439251 -0.066828154 -0.1576147 -0.1835235
-0.06388711 -0.13358124 -0.07185219 -0.12695876 -0.034910027 -0.087861724 -0.03964955 -0.08548485
-0.08392571 -0.05578878 -0.10285779 -0.08802527 -0.07008544 -0.10715603 -0.08876006 -0.081452146
0.11257338 -0.15063459 -0.16308996 -0.12163561 -0.11475308 -0.048886027 -0.14513811 -0.14715588
-0.080625385 -0.1281889 -0.050972726 -0.10025469 -0.19548653 -0.07769214 -0.09664343 -0.16131085
-0.120402455 -0.1181261 -0.3008436 -0.12505735 -0.14340654 -0.17252031 -0.1406605 -0.13214298

fc3.weight f4 [1, 300]
00000000: b11b 5fbc ddc5 893c 3a36 93bb e6e9 063c
00000010: 1699 24bd db6e ae39 5660 083d fdaa c1bc
00000020: 243d 8cbc 83ae 23bd 141d e0bc ffa1 793c
00000030: 784e 81bb 3e2e 6bbc 43e3 d5bb 2f60 ba3b
00000040: c793 5fbc 20ef 80bc b31a e5bc a585 4fbb
00000050: 053a 723b c55f 32bc 2882 18bb b5e6 1fbc
00000060: d353 273d 314a 84b9 5b86 52bc 6001 5abc
00000070: 16e6 21bb cb7f 4f3c 2f68 11bc 06d3 a7bc
00000080: 0fce a03c 7c20 053d 5f1a 943c 1279 693c
00000090: 889c 3a3c 3d40 1abd a9e6 c33b 0a33 d0bc
000000a0: fcd4 653b 37ca 8abc 16fc 5b3c 1608 17bd
000000b0: b92a b3bc df5a 4b3d 2f59 1f3c d88e 73bc
000000c0: 62bb d5ba 7a66 1b3d de2c 72bc cc63 013d
000000d0: 0908 f43c 41e3 78bb 3f73 40bc 0a58 d6bc
000000e0: dfa2 8ebc 3dab 65bc c029 543c b9ae c3ba
000000f0: 41af a6bb ac78 c23c 1d94 b53b d00a 043a
00000100: 3ca8 2ebc a0e4 96bc 66e5 cdbc 7c46 aabc
00000110: 706e b4bc 7d63 8ebc 8671 4c3b 108d 9f3c
00000120: e14b 143d 889c c03b f7e6 09bd e51e 383c
00000130: ad03 e9bb 3ad4 7d3c 0055 2dba 6694 85ba
00000140: 00a6 51bc 79c7 043d 6a4a 8bbb 4db7 a83c
00000150: ffa4 e9bc c735 803d fd0f a9bc 59b6 6439
00000160: 1120 853c 8a3b 8bbc 481e 1e3c 4347 933c
00000170: 19d6 49bc 58e9 76bb dca2 5fbc 1c38 733b
00000180: f224 afbb d5a4 bc3c 245c d6bc c499 c33c
00000190: 720a 87bc 51be b83c f926 68bb 97be a1bc
000001a0: 17f3 47ba 3d8e 3e3c 26d5 d7ba b50b 78bc
000001b0: f7c0 23bc 35cf d3ba da6b 07bd d432 fcbb
000001c0: c36e 5a3b d460 39bb 2301 113d 2c83 85bc
000001d0: 9e5e 40bc 9a07 e93a 03c4 40bd 1b6f f63b
000001e0: 8c16 9fbb 004e 033c 9420 6e39 4c68 74bc
000001f0: eab7 243c c954 f63c a2ce b83a f64f 803c
00000200: 76e2 bbbc 87bb c4bc 2c30 143c b040 d5bc
00000210: 581c 7dba fb54 7abd 6428 87bc 56d6 853c
00000220: e1a0 3aba 7af1 e63c cc08 f4bc 06f6 c4bc
00000230: 8b9b 313c 9be6 59bc 7475 30bc e670 eabc
00000240: 212a fbbc b7c1 423c 0aef 98bb a176 13bc
00000250: a3dd 5ebc 5133 2bba 0b41 0e3d 39af ad3c
00000260: 2f85 ef3c 8f2b 83bb 672c b13b 8473 54ba
00000270: b5f7 9a3c a5d4 a4bb 7134 843b 03e1 5ebc
00000280: 35b2 d5ba 34e4 6b3a 82bc a9bb 5c60 bd3a
00000290: 943e 603b 0d98 353c c781 74bc 4ab5 19bd
000002a0: 6dd9 653b 8ae0 64bc 401e b9bc 2226 3ebc
000002b0: 70d2 3dba aab7 f33b 7cb6 e73b 1701 9a3b
000002c0: 7113 82bc dd1b 60bc 1db7 2ebb 8481 4abc
000002d0: b3fa 483c f51d a9bc d84b b3bb e45f 6bba
000002e0: 2c6c 913b 4cda 38bc 9028 133c 49b9 883c
000002f0: 1e23 b53c d6c9 2fbd e2c1 c7bc c230 5bb8
00000300: 9c25 0c3d 88fe c3bc 2d9c aebc f8f9 bebc
00000310: 96bf a9bc 43f0 78bb bf13 7b3c a373 07bb
00000320: 55d3 b73c 69be 94bc 3de6 873b bdc5 88bc
00000330: 87a9 883b 9e22 9ebc 0996 2f3c 7b80 40bc
00000340: 1bfe 1b3c 4804 be3c 3948 06bd 828b 33bc
00000350: ce18 82bc 43bd 1ebc 4552 3ebd cc90 943b
00000360: e604 e6bb 0fc8 45bc 7c64 5b3c cf25 283c
00000370: b27b d3b9 c853 78bc 71a0 e73b aef0 74bc
00000380: b175 abbc 4515 7f3c ef20 7e3b 8241 aebb
00000390: 9836 4d3c 20fc ba3c 2e20 d93c 2be7 cbbb
000003a0: 8de7 b33c 3bb2 2f3c 0624 ecbb 0f1d d73a
000003b0: 25b0 903c 8f32 a03c ae85 103c 3aa5 9abc
000003c0: 6bbf a53a aa33 7b3c 716b fd3c dbe8 a33c
000003d0: 0bdf 61ba 683d c7bc 0e4c 3a3b 1f90 fd39
000003e0: 27a5 45bb b015 ed3c e13e e53c e01e 67bc
000003f0: 6e29 c03c 5964 4f3c 4b96 223c 21c5 fb3c
-0.013617442 0.016817981 -0.0044925483 0.008234477 -0.040185057 0.0003327046 0.033294998 -0.023641104
-0.017118998 -0.03996135 -0.027357616 0.015236377 -0.003946122 -0.014354287 -0.006527336 0.0056877355
-0.013646073 -0.015739024 -0.027966833 -0.0031665352 0.0036960852 -0.010887091 -0.0023270939 -0.009759595
0.040851425 -0.0002523228 -0.012849416 -0.013305992 -0.0024703792 0.012664746 -0.008874937 -0.020486366
0.019629506 0.032501683 0.018078981 0.014250057 0.011389859 -0.03765892 0.0059784246 -0.025414962
0.0035069576 -0.016942127 0.013426801 -0.036872946 -0.021870958 0.04964721 0.009725853 -0.0148656
-0.0016306455 0.037939526 -0.014781205 0.031589314 0.029788988 -0.003797725 -0.011746227 -0.026165027
-0.017411647 -0.014017877 0.012949407 -0.0014929391 -0.00508681 0.023739181 0.005541338 0.00050370116
-0.010660227 -0.018419564 -0.0251338 -0.020785563 -0.022025317 -0.017381424 0.0031195595 0.019476444
0.036205176 0.005878035 -0.03366753 0.011237835 -0.007111034 0.015492493 -0.0006612092 -0.0010191321
-0.012795925 0.032416794 -0.004250814 0.020595217 -0.02852106 0.06260257 -0.020637507 0.00021811704
0.016250642 -0.016996164 0.009650774 0.017978316 -0.012319111 -0.0037675705 -0.013649669 0.0037112301
-0.0053449804 0.023027817 -0.026166983 0.023877032 -0.016484473 0.022551687 -0.003542362 -0.0197442
-0.0007627471 0.011630592 -0.0016466721 -0.01513951 -0.009994737 -0.0016159775 -0.03306184 -0.007696489
0.003333018 -0.0028286474 0.035401475 -0.0162979 -0.0117413085 0.0017778755 -0.04706193 0.007520569
-0.0048549827 0.008014202 0.00022709585 -0.014917444 0.010053614 0.030069726 0.0014099667 0.015663128
-0.022935133 -0.024015201 0.009044688 -0.026031822 -0.00096554076 -0.0611162 -0.016498752 0.016337555
-0.000711931 0.028191317 -0.02978935 -0.024043094 0.010840307 -0.01329961 -0.0107701905 -0.028618287
-0.030659737 0.0118870055 -0.0046671676 -0.009000451 -0.013602647 -0.0006530779 0.03473 0.021201717
0.029238312 -0.0040029953 0.0054069045 -0.00081043714 0.018916944 -0.005030232 0.004034572 -0.013603452
-0.001630372 0.00089985435 -0.0051799426 0.0014448273 0.0034216987 0.011083615 -0.014923519 -0.037526406
0.0035072223 -0.01396955 -0.022597432 -0.011605771 -0.00072411355 0.007437666 0.0070713144 0.004699837
-0.015878411 -0.013678518 -0.0026659437 -0.0123599805 0.012266803 -0.020644167 -0.0054716878 -0.00089788274
0.004437944 -0.011282515 0.008981839 0.016689913 0.022111472 -0.042917095 -0.024384443 -5.2259078e-05
0.034215555 -0.02392508 -0.021314705 -0.023312554 -0.020721238 -0.0037985004 0.015324532 -0.002066829
0.022439638 -0.0181572 0.0041473196 -0.016695851 0.0041706 -0.019303616 0.0107169235 -0.011749382
0.009521033 0.0231954 -0.03278372 -0.010958554 -0.015880968 -0.009688678 -0.046465177 0.0045338627
-0.007019627 -0.0120716235 0.013390657 0.0102629205 -0.00040337216 -0.015156694 0.0070686867 -0.014949961
-0.020930143 0.015569036 0.0038776954 -0.0053178677 0.012525223 0.0228253 0.026504602 -0.0062226257
0.021960998 0.010723646 -0.0072064428 0.0016411858 0.017662117 0.019555358 0.008820934 -0.018877614
0.0012645548 0.015332142 0.030935021 0.020008495 -0.0008616305 -0.024321273 0.002842668 0.000483633
-0.0030158253 0.028941005 0.027984085 -0.014106482 0.023457255 0.012658202 0.009923528 0.030733647

bn1.weight f4 [400]
00000000: 49ad 943f 9d3e 5e3e f051 943e e9bc 263e
00000010: 18fb a73d f3b7 403e 004c 6d3d 99ab 023e
00000020: b8ff 9e3e 538e a83d 77f6 f43d 42f2 1f3c
00000030: 549c 593c 45a3 243a 517c 9b3d 126f 6a3e
00000040: 9617 e83e aca2 163e 0747 433b 50e2 5dba
00000050: 4773 c33d 1688 863f d274 293e b07b 553e
00000060: 624b de3e b8ad dcbc 868f 633e 52d8 78bd
00000070: 6a31 193f 99a0 833e 5ebc 123b dead 313d
00000080: dac8 a83e 8d83 2e3d bc75 083e 129f 8b3d
00000090: a0e0 f0bd c32c e73e eeef 9c3d aec7 3a3d
000000a0: dfbc b03a 3cc0 f43c f11d 80be 894b 723e
000000b0: 88e5 bf3c 740b 413d 9cf2 de3b d123 513c
000000c0: 31d1 983d 2f0f 013e fdd4 4c3e 3fbf cb3d
000000d0: 0602 013e 4214 8e3d e83d 4e3b d3ae 14be
000000e0: 76f1 c83d e629 4c3e 83d4 cd3d a816 183e
000000f0: 5e89 f2bd 2b02 6a3d 2621 863e fda2 3a3b
00000100: 2433 6839 7af4 c53d 1aed 843e 5555 a33d
00000110: 8dab 8a3d a0df 6c3d b0c6 4a3e 4f62 623e
00000120: 81ce ba3d 62d7 943f 5be5 d93d e0a3 00bd
00000130: a61e 5b3e cd56 333e 488e 7dbd a82e 103f
00000140: 8765 013e aeb6 ff3e 33ca a43e 2fde d53d
00000150: 770f d93e 6406 f23d 633d 273e aef3 1a3e
00000160: 87ba 7a3f d6df 073e be61 a33d 87f3 e53e
00000170: b866 443e caa3 bd3e bf98 7b3d 74ba 703d
00000180: fee3 ad3c 7812 393e c7fd 143e 53e0 7a3d
00000190: 3c9b 183d f5ca af3d 9bc2 d43e 7dbd 063e
000001a0: 4d47 b03d ddfe 4fbd 9e7d 83bd 3edd 5a3d
000001b0: a4da 113e fb98 003e b705 f63d 738f cc3d
000001c0: d7f0 273e feee db3c 884f 8c3e 4c80 843d
000001d0: d549 523e 01d3 1d3e 0c13 2f3d 3996 403d
000001e0: 3084 283e 01bc 88bd c5d5 bb3d 3139 493e
000001f0: 3a70 af3d 8b4d 05be e486 703d 2649 e53b
00000200: 7966 9a3d f6e9 603d cef5 d83d fb9f c73d
00000210: 1d95 c93d 3919 7c3d d153 bd3d 9fe2 433e
00000220: 0235 173e c9f4 853e 8fad 853d 3c88 353e
00000230: d879 013e e1c3 193e c0fe 743d 5941 4f3e
00000240: 0c85 063e 847f 693d 31ab 913f 0b5c 8a3e
00000250: 9dd6 9d3d aaa9 cc3e 7d54 b33d 8092 f23d
00000260: 167d 623e 26ce 223f 053a 113f 8f79 623e
00000270: e497 c73d 76ad b1bd 5e0c 0e3f 26ad a93d
00000280: 9305 fd3d 8ab2 303f a6bd ce3d f528 ef3e
00000290: 7aa5 f23d cc20 e73d f99e 033e b8c3 87ba
000002a0: c946 f33d 57f2 ef3d c736 253e 6679 16bd
000002b0: f5f6 843d 8c10 b13e b79c a83d 2853 813d
000002c0: 45ae f83d 1d2c 0b3e f785 713b 6f6d 803d
000002d0: afe0 273e 0964 a53d 0db4 1c3e 56f8 3d3e
000002e0: cf4d d0bc fe4d 613d 9f53 0e3e a141 eabd
000002f0: dd0a 6a3e b23b e03c c2d7 563e 3cf5 c83a
00000300: b6bb ba3d 06e3 f53d d7c1 713e 14e1 c73c
00000310: 0d02 543d bbd1 a23d ef3e 873d 5aa9 6bb9
00000320: 1c1a 483e 53a0 af3d f61a d33e 6fdf 9cbd
00000330: d7b5 da3d b5b7 3c3e 957b 183d da8f 3f3e
00000340: 5db2 9b3d 0a6e b43e bf45 e53d 7c42 c63d
00000350: 65e9 443d 0e1f c73d e5ab 8b3d b50c 043e
00000360: f63c cbbc 94d9 863e 9c2a 653d 8b37 a63d
00000370: 3891 7b3e 7b5b 3f3e 5f1d 23bd 0a24 4e3e
00000380: fa75 4b3d 2b1c 623b ca6e da3d 112f 233e
00000390: 9e02 8e3d 72bc 9b3d e081 073e 684a d63d
000003a0: 36ad e73d f6cc 2c3e 0f71 df3d 4343 c33d
000003b0: 879f f43d e1bc cc3d b12b 973d db20 db3d
000003c0: c467 093e 7a30 073e afe1 9f3d 864c 9e3d
000003d0: c520 ed3d 7bc5 9bbb 4e69 783e ae3b 023e
000003e0: 8281 383e 5126 3d3e 5e87 903d 8fba 6d3e
000003f0: 1611 acbd 2eee a43e 6da7 283b daf0 293e
1.1615382 0.21703573 0.28968763 0.16283001 0.08202189 0.18820171 0.057933807 0.12760772
0.31054473 0.08230271 0.11961072 0.009762349 0.0132819 0.00062804326 0.07592071 0.22893932
0.45330495 0.14710492 0.0029796974 -0.0008464204 0.09543472 1.051028 0.1654847 0.20847964
0.43416888 -0.026938304 0.22222719 -0.060753174 0.59841025 0.25708464 0.0022390108 0.043378703
0.32965738 0.042605925 0.13326162 0.0681745 -0.11761594 0.45151338 0.076629505 0.045600586
0.0013484022 0.02987682 -0.25022843 0.23661627 0.023424879 0.047130063 0.0068038236 0.012764887
0.07461775 0.12603448 0.20003124 0.09948587 0.12598428 0.069374576 0.0031470004 -0.14519815
0.0981168 0.19937858 0.10050299 0.14852393 -0.11842607 0.057130974 0.26197165 0.0028478496
0.00022144296 0.09665771 0.25962144 0.0797526 0.06771002 0.057830453 0.19802356 0.22107814
0.09121419 1.162823 0.10639449 -0.031406283 0.2139841 0.1751358 -0.061903268 0.5632119
0.12636386 0.4994406 0.32185516 0.10442769 0.4239461 0.11817625 0.16332011 0.15132019
0.9794087 0.1326898 0.07977627 0.4491236 0.19179809 0.37039024 0.061424967 0.058771566
0.02122688 0.18073452 0.14549933 0.06124909 0.037257418 0.08583633 0.41554722 0.13158222
0.086073495 -0.050780166 -0.06420444 0.05343365 0.14243561 0.12558357 0.12012809 0.09988298
0.16400467 0.026847359 0.27404428 0.06469783 0.20535977 0.15412523 0.042742774 0.047018263
0.16456676 -0.06676484 0.09171633 0.19650723 0.085663274 -0.13017862 0.05872239 0.0069972454
0.07539076 0.054910623 0.105937585 0.09747311 0.09842894 0.06154749 0.09244502 0.19129418
0.14766315 0.2616332 0.06527244 0.1772775 0.12644136 0.15016128 0.05981326 0.20239772
0.13136691 0.057006374 1.1380368 0.27023348 0.0770695 0.39973193 0.08756349 0.11844349
0.22118029 0.6359581 0.56729156 0.22116683 0.09745768 -0.08675663 0.5548762 0.082849786
0.12354579 0.6902243 0.10094766 0.46710935 0.118479684 0.112855524 0.12853612 -0.0010358011
0.118787356 0.117161445 0.16134177 -0.03673687 0.06492416 0.34582937 0.08233016 0.06314689
0.12142614 0.13591047 0.003685353 0.06270873 0.16394304 0.08075721 0.15303059 0.18551764
-0.025427727 0.05500602 0.13899086 -0.11438299 0.22855707 0.027372215 0.20980743 0.0015331875
0.09117834 0.12006192 0.236091 0.024399318 0.05175977 0.07950159 0.066038005 -0.00022474435
0.1954121 0.08575501 0.41231507 -0.07659804 0.106792144 0.18429454 0.037227232 0.18707219
0.076023795 0.35240203 0.11194944 0.0968065 0.048074145 0.0972272 0.06819896 0.12895472
-0.024809342 0.26337874 0.05594884 0.08116063 0.24567115 0.18687241 -0.039822932 0.20130935
0.049673058 0.0034501653 0.106656626 0.15935923 0.06934093 0.076043025 0.13233137 0.104634106
0.11312334 0.16875061 0.10910236 0.095343135 0.1194449 0.09996963 0.0738138 0.10699626
0.1341849 0.13202086 0.078067176 0.077294394 0.11578516 -0.004753766 0.2425892 0.12718078
0.18018153 0.18471648 0.07057069 0.23215698 -0.084016964 0.32212967 0.002573456 0.16595784

bn1.bias f4 [400]
00000000: 370a f73d 006d 023e d525 a43d 6ec2 973d
00000010: f6f8 ca3c 1c46 133d 9407 1c3c c65f 773d
00000020: a50d 193e dcea 0f3d 04e9 ac3c cd0f e6ba
00000030: 0020 8bba e6e3 cb39 94e4 0e3c fbd2 913d
00000040: d7b8 ea3d 4424 493d 55f1 b43e 54a7 063a
00000050: 0986 453d 22ae 6e3e f9cf a53d c19e 323d
00000060: 36c1 d53d dc27 48bb 3ab1 2cbc 7b5b 9c3c
00000070: 2c8d 3a3e edf1 d63d c6f1 793a 0f4d 063b
00000080: 662a d83d 0d69 23be 5ed5 653d 1335 273c
00000090: 2343 19bc c02e cc3d 27d6 453c 44c7 9a3a
000000a0: 06d9 03bb 74c9 323c 6347 bebd 2c73 f73d
000000b0: 6472 123b 4f60 633c 9e3f a139 c530 803b
000000c0: 2fdd f03c 5f84 563d c75a 053d 6a57 cc3c
000000d0: f469 7e3d da39 d03b 0792 333b aa33 cfbb
000000e0: acd2 a93c 8c43 a13c ed14 f03c 0f5e 903d
000000f0: bed6 36bc defb bd3c e6d8 c43d 1358 d03a
00000100: d99c a9ba 8d06 943c 809c d63d 463a 813e
00000110: d8b1 573c 0abb 9c3a 4903 4c3d 801c 093b
00000120: 17ce 9c3c 5609 663e f136 633d 3d99 73bb
00000130: de71 913d 3b86 513d c8fd 8fba 6e43 e43d
00000140: e680 383d 2e4d 643e 50a5 923d b355 053c
00000150: c940 cb3d 33f7 063d 9fd5 693d bd8f d33c
00000160: a3c2 af3e 812c 383d 84be ea3c b3f5 473e
00000170: d2b6 913d 20e3 793d a61c 593c 80c2 a73b
00000180: ddc9 c6be a47d e63d 0f01 873d aa01 523c
00000190: b45b 8cbb 214e 213d eae8 1b3d d9a3 4b3d
000001a0: 99bc 81b7 7fbe 02bc cd65 90bb bed9 0a3c
000001b0: ac41 513d a1ac 6f3d 3f71 293d 6b73 083d
000001c0: 90cf bf3c b7a9 a03b 47a2 653d 7ec7 953b
000001d0: a36d 8e3d 9d9a 243d 2e9a fabb 9fe3 e13b
000001e0: 1e6e 3c3d 6875 30bc 8cfd 7f3c 8cf1 fa3d
000001f0: a163 c13c 2c78 f4bc 055a ad3b 6e5e 143b
00000200: c242 663c 93ce 263c 9b40 babb 3c29 853c
00000210: 5ce2 bc3c 057d 413b 36eb 9b3c caa7 553d
00000220: 5ef7 3a3d eb5e 223e f26a 7a3c 433a ca3d
00000230: 11f1 f73c 3d18 af3c 9d95 153c dad6 f13d
00000240: 4e84 473d f21b b73c 2542 953e cb6f 723d
00000250: 4dce 42bc c7cc 733e 1208 f53c e028 2a3d
00000260: b8a9 cc3d 4f9a 883e 21ff e73d e112 f83d
00000270: e359 8a3c 2976 45bc 646d 623e 625b 2abb
00000280: 7838 e73c b8e2 263e 96c3 853c dfe9 7a3e
00000290: 121c 863c 4f9f 333c 9f33 c53c b298 0e39
000002a0: 2e48 713d 306e 0f3d 3ac4 713d e754 61bb
000002b0: 6545 7d3c 9e20 f53d 5ef6 b63c e9a3 203c
000002c0: 7f28 993c 1742 a93c 7450 6dba b02f 8d3c
000002d0: 9268 a03d a8e7 673c c5d7 093d 64e7 c33c
000002e0: 8f47 213c 4f0e cb3b 5d68 893c 6869 b1bc
000002f0: 69ef 3f3d 02dd 9a3b 1d18 9e3d d66d 6dba
00000300: 55b1 5a3c 3b73 d93c 9bb9 133d 8b36 8e3c
00000310: d4bd b43b 8470 9d3c 716a b13c 4f5f c1ba
00000320: a2ab b63d 3a7f bd3b ad9d 953d f4ab 1cbc
00000330: 1236 8a3c f741 1e3d 179c 0e3b d412 543d
00000340: 75bd 5e3c 9b50 863d 9929 1a3d 5ef3 043d
00000350: 58b7 413c e3b2 bc3c acee ec3c d76f 373c
00000360: 90d7 bbbb f481 953d fb17 873e 8fda 9c3c
00000370: 271f ed3d c3b1 893d 9fec 89bb 2fdc 383d
00000380: 202d c4b9 7448 0e39 36ca b23c a841 fc3c
00000390: 9004 b03c 85ed ab3d e3be 953c dcab 69b9
000003a0: 9da7 3e3c 43d3 26bc 0613 bd3c fc91 283d
000003b0: 7591 183d 86a2 5a3c 6da0 483c 36fd f53c
000003c0: 51e3 4b3c eeee ee3c 3d46 e73b af97 cd3c
000003d0: bf20 513d 3164 7bba 51e9 e73d 211d 613d
000003e0: 2bb4 903d 4a4d 953d d990 c13c 78e9 d63d
000003f0: 19b9 75bc 1a18 aa3d 647c 21bb c50f 823c
0.12062495 0.12736893 0.080150284 0.074101314 0.024776917 0.035955533 0.009523291 0.06039407
0.14946611 0.03513609 0.021107204 -0.0017552316 -0.0010614395 0.00038888975 0.008721489 0.071203195
0.11461037 0.04910685 0.35340372 0.0005136628 0.04822353 0.23308614 0.08096308 0.04360843
0.10437243 -0.0030541336 -0.010540301 0.01908659 0.18217915 0.104953624 0.0009534623 0.0020492708
0.10554962 -0.15958042 0.056111686 0.010205525 -0.009354386 0.09969854 0.012074984 0.0011808653
-0.002011837 0.010912288 -0.0929096 0.12082514 0.0022346014 0.013877942 0.00030755711 0.003912064
0.029402344 0.052372333 0.032557275 0.024944026 0.062112764 0.0063545527 0.0027400272 -0.0063232975
0.020730339 0.01968553 0.029306853 0.0704919 -0.011159597 0.023191389 0.096116826 0.0015895389
-0.0012940421 0.01806953 0.10479069 0.25239772 0.01316496 0.0011957597 0.04980782 0.0020921528
0.01914124 0.22464499 0.055472318 -0.0037170195 0.071017966 0.051153403 -0.0010985667 0.11145674
0.045044802 0.22295067 0.07160437 0.008138108 0.09924466 0.03295059 0.05708849 0.025825376
0.34328184 0.044964317 0.028655298 0.1952732 0.07114948 0.06100762 0.013251459 0.0051196218
-0.38825884 0.11254433 0.06591999 0.01281778 -0.004283393 0.03938115 0.03806392 0.049716804
-1.5465821e-05 -0.007979988 -0.004406667 0.008474765 0.05108802 0.05851424 0.041367766 0.033313196
0.023414403 0.004903044 0.056062963 0.0045709005 0.06954505 0.040186513 -0.007647774 0.0068935896
0.046003453 -0.010770179 0.015624415 0.12253103 0.023607077 -0.029842459 0.005290272 0.0022639292
0.014054002 0.010181087 -0.005683971 0.016255014 0.023057155 0.002952398 0.019033056 0.05216197
0.045646064 0.15856521 0.015284287 0.09874394 0.030266317 0.021373862 0.009129909 0.11808558
0.04871016 0.022352193 0.29152027 0.059188645 -0.011890006 0.23808585 0.029911075 0.041542888
0.09993309 0.26680228 0.11327959 0.12112976 0.016888564 -0.012052097 0.22112042 -0.002599441
0.028225169 0.16297424 0.016328614 0.24503277 0.016370807 0.010963275 0.024072466 0.00013599059
0.058906727 0.035017192 0.059025027 -0.003438288 0.0154584395 0.11969112 0.022334274 0.009804704
0.018696068 0.020661397 -0.0009052821 0.017234653 0.07832445 0.014154352 0.03365304 0.023914047
0.009843721 0.006196774 0.016773397 -0.021656707 0.04685918 0.004726053 0.07719443 -0.00090571993
0.013347943 0.026544204 0.03606568 0.017359992 0.0055157933 0.01921869 0.0216572 -0.0014753136
0.08919455 0.005782989 0.07305465 -0.009562481 0.016871486 0.038637128 0.0021760517 0.05177577
0.013594975 0.06558343 0.037637327 0.032458656 0.011823498 0.023034519 0.028922401 0.011196098
-0.005732484 0.07300177 0.26385483 0.019147186 0.115782075 0.067233585 -0.0042091156 0.04513186
-0.00037417654 0.00013569166 0.021824937 0.030793026 0.02148655 0.08394913 0.018279498 -0.00022284634
0.011636642 -0.010182205 0.02308036 0.041154847 0.037248094 0.013344413 0.01224528 0.030027967
0.012444333 0.029166665 0.0070579336 0.025096742 0.05105662 -0.000958982 0.113237984 0.05495942
0.07065614 0.07290132 0.023628639 0.104937494 -0.014997744 0.08305378 -0.0024640793 0.01587666

bn1.running_mean f4 [400]
00000000: 0774 d340 e2b9 3e40 8771 e540 9d67 c33f
00000010: a431 2f40 1bf9 f13f bac9 8a3f b5b9 0540
00000020: 974f c43f 208e 6d40 a43f ba3f b172 bd3e
00000030: c04d 1b40 0747 bb3e b26d 053f 653d 0d40
00000040: 15ef 573f 6364 6a40 00d7 5d41 b729 8f40
00000050: a957 ac40 9d4d 1842 3e54 4e40 09e2 ad3e
00000060: c4cd 4f3f b60f f03d 589c 5841 9ded 9e3e
00000070: 986e a53f 1378 9640 0c89 1c41 a074 a33e
00000080: 4546 883f c701 8640 4cbb ac3f 586c db3e
00000090: 32b2 ec3d ff44 5b3f 0a37 fd3e 0074 b940
000000a0: 17d9 2840 f808 ba40 8040 583f 6302 0641
000000b0: 9f97 5d3e 9c2f d83f 5507 1e40 c784 be3f
000000c0: 65a4 e140 4179 2141 cb6f 1f40 8c6c d83f
000000d0: e987 eb40 8ac4 b53e c866 2e3d 0547 923d
000000e0: 89bd 0340 dc42 6d40 345a a640 37ba 1240
000000f0: 6b33 8e3f ab70 6340 bde7 9b40 d823 1e41
00000100: a2b5 fc41 b943 d63f 5da1 8c40 b246 8b3f
00000110: 26b7 8240 81c1 4c40 783d f13e 0afa 443e
00000120: f43e 393f bdea 1742 8ed4 3940 8ff8 ae3e
00000130: a248 773f bf56 493f c9f4 ff3d efbd 453e
00000140: 6b34 8040 9d67 3240 c972 a63d dee0 c53e
00000150: 6d57 233f e0bb a040 afca 9f3f 62bb df41
00000160: b680 bb41 7c12 383f 94b1 cb40 c0cf a83f
00000170: 6923 2a40 32cb 3a3f 5656 b63e a5ea 033d
00000180: f361 5940 32a1 b241 317d 0c41 d535 6f3b
00000190: f23c 1040 8469 7240 ce5a 9f3c 0f6c 2b40
000001a0: e0d5 ca3f afa1 933e c104 9d3e d2f0 803f
000001b0: aa5d 3740 9ea8 e03f ad12 3540 95d1 6140
000001c0: e470 3f3f 48a6 6f3e ff58 9640 58fe 593e
000001d0: a43d 2740 5d0f d83e 9923 1f40 069d 7a40
000001e0: b271 f43f 19ba 033f 195c 103f 20f3 8e3f
000001f0: e563 9a3e 25cc 9f3f 8c4c 7440 a11d 6641
00000200: c667 373f d0d5 8740 5b42 a13e b93a f43f
00000210: c1ff ac40 2205 0541 2d2d 3a3f 28d3 b93f
00000220: b60a eb3f a242 a941 a6b0 9440 16b4 8640
00000230: 5bde 813e 616b af3e 3f42 bf3e 6a5f 0a41
00000240: 11a4 3640 40b9 8a40 3ed6 1742 ec47 ed3e
00000250: 133b 9a3f eda2 0042 46f8 b840 ab51 1d40
00000260: 5737 1840 b36c a140 5862 043f 61af 4240
00000270: d7cc 033f 04ab 6d3f b9ab 3b40 4e48 e73f
00000280: c30c cf3f 7670 913f 709a 6140 6c8f c640
00000290: b24a 4c3f f7a6 293e e3de 003f bac2 1c41
000002a0: d638 c540 4420 f73f f9f1 7940 b2a2 e23e
000002b0: 756f d83f c2f9 c03f 51c3 1340 aea2 b53e
000002c0: 9042 ac3e f4b7 bf3e 8b45 1d3f d851 3b3f
000002d0: ff18 6b40 3ab8 9640 17c7 333f 1f57 4b40
000002e0: 0400 0000 1f92 773e f9b7 9740 1eda 353e
000002f0: 54ad f73e 20b2 2041 a156 513f e6c2 f63e
00000300: af09 d23f 812d 6d3f 4b00 dd40 1acd c440
00000310: 171e dd3e de8f 3c3e cb74 aa3f 9ae5 eb40
00000320: b6ef 8240 3b6e 0940 bd50 943e 1644 2a3f
00000330: a866 463f ee6d 0c41 a809 ef3e 160e 2040
00000340: dfb6 1840 8f91 5640 b72b 0541 180a 0940
00000350: 7ab4 0f40 55e2 673f 3ef8 9840 b11d 0f40
00000360: 127f b13c ee08 7a3e ce37 9841 0188 2d3f
00000370: fd02 1940 695a 3c40 72af 303f be21 0840
00000380: 3f42 e13f 27d6 b13f bc8c bb3e 6f79 983e
00000390: 4312 903f 6a07 3f40 9572 9c3f 6ff4 a73e
000003a0: 3498 ad3e afce 9a3e cd90 113f 37f2 0841
000003b0: 13a7 4e3f 18e5 843e 8618 da3e 6c32 1040
000003c0: f14c e940 52b6 5640 b1ac 283f 3166 4340
000003d0: dee4 7d3e f9e4 a73e 5560 8d40 e086 4740
000003e0: c84a c240 23a0 cc3f c72c df3f abaf 4f40
000003f0: 885b 833e 01fb 523f 2f5b 093e 9e30 2a3f
6.6079135 2.9800954 7.1701083 1.5265995 2.7374048 1.8904146 1.0842812 2.0894597
1.5336789 3.7117996 1.4550672 0.37001565 2.4266205 0.36577627 0.52120507 2.2068722
0.84349185 3.662377 13.86499 4.473842 5.3857007 38.075794 3.2238917 0.33961514
0.8117335 0.117217466 13.53817 0.3104066 1.2924376 4.7021575 9.783459 0.31924915
1.0646445 4.187717 1.3494658 0.42856097 0.115574256 0.85652155 0.49456054 5.79541
2.63825 5.813595 0.8447342 8.375583 0.2163987 1.6889529 2.4691975 1.488427
7.0513177 10.092103 2.4911983 1.6908126 7.3603406 0.3550151 0.04257849 0.07142452
2.0584433 3.7072058 5.198511 2.2926157 1.1109442 3.5537517 4.8720384 9.883751
31.588688 1.6739417 4.3946977 1.088095 4.084857 3.1993105 0.4711721 0.19236007
0.72361684 37.979237 2.9035983 0.3417401 0.96595204 0.7864799 0.12497861 0.19310735
4.0063987 2.787574 0.08127362 0.38648123 0.63805276 5.022934 1.2483729 27.966496
23.437847 0.71903205 6.365427 1.31884 2.6584113 0.729663 0.35612744 0.032206196
3.3966033 22.328709 8.780564 0.0036500592 2.2537198 3.7876902 0.019452479 2.6784704
1.584652 0.28834292 0.3066769 1.0073493 2.8650918 1.7551458 2.8292649 3.5284169
0.7478163 0.23403275 4.698364 0.2128843 2.6131372 0.4219922 2.4865477 3.915834
1.9097197 0.5145584 0.5639053 1.1167946 0.30154338 1.2484175 3.817172 14.382234
0.7164272 4.24485 0.31495938 1.9080421 5.40622 8.313753 0.7272518 1.4517565
1.8362644 21.157536 4.6465635 4.209483 0.25364956 0.3426161 0.3735523 8.648294
2.8537638 4.3351135 37.95922 0.46343935 1.2049278 32.159107 5.780307 2.4581096
2.3783777 5.044519 0.5171256 3.0419543 0.51484436 0.92839074 2.932356 1.8068941
1.617577 1.1362445 3.525051 6.2050076 0.79801476 0.16567598 0.503401 9.797541
6.163188 1.9306722 3.9053938 0.44264752 1.6909014 1.507622 2.3087962 0.35475677
0.33644533 0.37445033 0.6143424 0.7317176 3.6734006 4.7099886 0.7022566 3.1771924
6e-45 0.24176835 4.7412076 0.17758986 0.48374426 10.043488 0.8177281 0.4819557
1.6409205 0.9264756 6.906286 6.150037 0.4318702 0.18414256 1.3316892 7.3717775
4.0917616 2.147353 0.28967848 0.6651014 0.7750039 8.776838 0.46687055 2.5008597
2.3861616 3.3526342 8.323173 2.141241 2.2453904 0.9057973 4.780303 2.2361872
0.021667037 0.24417469 19.027248 0.6778565 2.3908074 2.9430182 0.6901771 2.1270595
1.7598342 1.3893479 0.3663081 0.29780146 1.1255573 2.9848275 1.2222468 0.32803676
0.33905184 0.30235812 0.56861573 8.5591345 0.80723685 0.25956035 0.42596835 2.2530775
7.2906423 3.354878 0.65888506 3.0531123 0.24794337 0.3279188 4.4180093 3.117607
6.0716286 1.598637 1.743554 3.245097 0.2565577 0.8241425 0.1341369 0.66480434
