Deep Reinforcement Learning Nano Degree/Collaboration and Competition/model/checkpoint_critic_target_1.pth (torch_old, 575089 bytes, 9 tensors)

fcs1.weight f4 [400, 52]
00000000: d463 25be 81b9 1ebe bc1c 2c3d 131a a3ba
00000010: 62d0 a33d 63e2 a2bf b7cf 89bc c6d1 d6bb
00000020: 19c9 61be 7bea 08bc a918 0e3c 3811 4f3d
00000030: 333e d33c 8411 17bf 278e bcbb a13c 553d
00000040: 514e cdbd 0ddc 593e 7e7c aabb e99c 83bd
00000050: 55e0 a8bc 66db 0740 9c4e 463b 2086 86bd
00000060: 4645 81bd 5d38 a0be d858 053d a434 46bd
00000070: 1186 8abd f1e0 a9bf 26e9 90bc 70e2 0e3c
00000080: c6a6 17be a767 babd 0f76 a8bb 1846 21bc
00000090: 9213 10bd feaf 24bf 0d67 bd3c a762 b0bb
000000a0: adfb 26be f951 273e 0261 e03b 89d5 a8bd
000000b0: 413b 223d 6b82 0440 df3a be3a cded d6bd
000000c0: 3112 1d3e 57da a5bb 27fb 3b3e 11b4 083e
000000d0: 37b1 b43e 1c44 5abf a0d7 9fbc 914e adbd
000000e0: b56d 5abe f2d6 473d 225f 373c c43f e5bd
000000f0: 549f 013f bf4b 19bf aa7e 5f3a f546 093e
00000100: 1ab7 f7be 3a50 e0be 8a5c 1fbd 9a57 ca3d
00000110: 59c9 db3d 62cf 8cbf 377c 4e3d d25b 3b3e
00000120: 1613 2ebf c86d 303f 3f3c 0ebc 2fe0 133e
00000130: 6fe8 753e 23d5 513f 4a96 0fbd fd0a 223e
00000140: 90cf 613e 1fac 38bc 9315 80bd a8cd 643e
00000150: 918b 0a3f 0c98 8b3f ad50 d43d d488 953e
00000160: f986 ec3e 4150 debe fe27 4b3d 6002 b73e
00000170: 8b68 e23d 2a83 c23e c68d ddbd 26ed af3c
00000180: 2057 273f f324 273f 3e30 41bc c076 e1bc
00000190: d3a9 9abf e9bd b63e 2b22 9c3f a3f0 49bf
000001a0: 3357 e43d 78e8 a5be b7d9 bfbc 6220 933d
000001b0: 5fc0 6cbe f0e3 9d3e 7c00 08bd fba0 cc3d
000001c0: 5215 b53d cc69 b0be 3542 41bc 0ed0 1c3d
000001d0: 6428 1c3e 345b ee3e 6fe4 d03b eab8 a53d
000001e0: 81da d13d d612 8dbe 0bb1 0dbd 97cb 11bd
000001f0: f1c0 983f 8688 6c3e 0be2 bebc 92f0 9abc
00000200: fb0f 1b3e 637a 16be fe1d e1bc 6b30 063d
00000210: 29f1 8a3e fb53 9b3e 8116 bebb af4f 7f3d
00000220: 338a 523e 0a7b 943d 75e2 553c aa41 5c3e
00000230: 0d6d 23be fd12 d63e fb5b 223d f2a7 8f3e
00000240: b2ea 9e3e 5a65 783e 0e56 913d 91ff 213f
00000250: 2742 99bf ec7d 5f3e 9d3a 713d 272d 263f
00000260: 6b99 a83f abe0 8e3e 8142 6d3f 6b28 78bf
00000270: 5fbd 673e 5b80 aabe af71 00bd 6df4 0ebe
00000280: 23dd 073e 5626 c0bd 3639 b8bb 46a7 0fbe
00000290: 5c95 9e3e d063 cebe 179f 123d 7f82 3f3d
000002a0: 2d9b 00be 3a4b 4f3e a2e5 06bd 267b 813d
000002b0: 3fd4 1f3f c83a cfbe b94f ff3b 08f2 c83d
000002c0: 8b20 f4be 0833 583f 33aa fd3c c2cf c43d
000002d0: fea7 323d 6e0b bb3f 3fd4 86bc 4950 073d
000002e0: 2cd4 5abe 4897 00be 3bff 02bc c7c4 31bd
000002f0: 7582 723c c9ca d83f 0915 c9bc 4af2 2a3c
00000300: 840a 723d a6da 523e a9c0 e9bc fb43 de3c
00000310: 9e99 e43d 7c8f cd3f b210 6abd b3cf 01be
00000320: adbe db3e 1c6e 533f 9e8b 59bd c7de 92bd
00000330: bff3 e83e dc1b 353f 22b0 0fc0 2ae3 8a3e
00000340: c394 283c 6fd6 9ebd 88ed ed3c 4401 20be
00000350: 9481 43be 9fd3 30bf cec7 333d e570 03be
00000360: 11f8 cf3d edf4 6e3e 2c37 2bbe 5ab9 fe3e
00000370: d8b9 b8be b8fb b6be 8b0c 23be 36df 083f
00000380: b0b0 073d f02d 333e d864 85bd 045b 903e
00000390: dfe8 6bbe 2642 ea3e 463f 033c 016d 693e
000003a0: 39b9 2f3e 6eb5 01be c87c 25be 102e ebbe
000003b0: 02c1 313e 6925 23bf 5a99 73be 28a0 febe
000003c0: 60de 503e 8f68 26be 7ff8 953d 6e4e 0ebf
000003d0: 649d aa3e c882 b4be e4d4 673d 761c 0cbf
000003e0: d37f 153e f43b 8dbe 310b 8dbe 442b cdbe
000003f0: a30f 853e 2de0 d43e 8ceb 93be 5dce d4be
-0.16151363 -0.15500452 0.04201959 -0.0012443684 0.0799873 -1.2725338 -0.016822679 -0.0065557687
-0.22049369 -0.008356686 0.008672872 0.05055353 0.025786495 -0.590111 -0.0057542506 0.052059773
-0.10024703 0.21275349 -0.005202829 -0.064264126 -0.020614782 2.122766 0.0030259257 -0.06568551
-0.06312041 -0.31293002 0.03255543 -0.048390046 -0.067638524 -1.3271772 -0.017689299 0.008720979
-0.14809713 -0.09101801 -0.005141027 -0.009843372 -0.035174914 -0.6433104 0.023120428 -0.005382854
-0.16306944 0.16339864 0.0068475017 -0.082438536 0.03960729 2.07046 0.0014513395 -0.10494576
0.1533897 -0.0050614285 0.18357526 0.1334994 0.35291454 -0.85260177 -0.019511998 -0.08462251
-0.21330912 0.048788972 0.011192115 -0.11193803 0.5063374 -0.59881204 0.00085256493 0.13405974
-0.48381883 -0.43811208 -0.03890661 0.0987999 0.107317634 -1.1000788 0.05041143 0.18296745
-0.6799787 0.6891751 -0.008681356 0.14440988 0.24014448 0.81965846 -0.035055436 0.15824504
0.22051835 -0.011271506 -0.06254115 0.22344077 0.5411921 1.0905776 0.1036695 0.29205954
0.46196726 -0.43420604 0.049598686 0.35744 0.11055096 0.37990695 -0.10818057 0.021475386
0.6536732 0.65290755 -0.011791287 -0.027522445 -1.2083076 0.35691765 1.2197927 -0.7888281
0.111494444 -0.32403922 -0.023419244 0.07183911 -0.23120259 0.30837965 -0.033203587 0.09991642
0.08841957 -0.34455717 -0.01179557 0.038284354 0.15249783 0.46553957 0.0063748877 0.0809191
0.102467544 -0.27553433 -0.03459267 -0.03559455 1.1933881 0.23098955 -0.023301145 -0.018913541
0.15142815 -0.14695124 -0.027480122 0.03276102 0.27137116 0.3033751 -0.0058010225 0.06233185
0.20560531 0.0725003 0.01305448 0.21509424 -0.15959568 0.41811362 0.0396385 0.2805782
0.31038433 0.24257413 0.07096492 0.6328059 -1.1973313 0.21825379 0.05889379 0.64912647
1.317182 0.27905783 0.926796 -0.9693667 0.22630833 -0.33301052 -0.031358417 -0.13960429
0.1326795 -0.09382312 -0.0056220545 -0.14028654 0.30973327 -0.40310526 0.03579625 0.04675531
-0.12559195 0.2024354 -0.03293384 0.06322317 0.62433237 -0.40474534 0.007791486 0.09811789
-0.47681078 0.8445287 0.030964946 0.09609939 0.04361724 1.4612863 -0.016458629 0.03303555
-0.2137 -0.12557709 -0.007995422 -0.043400552 0.014801611 1.6936885 -0.024546163 0.010433743
0.05909206 0.2059122 -0.02853425 0.027132025 0.11162113 1.6059413 -0.05714483 -0.12676887
0.42918912 0.8258989 -0.053111665 -0.07171398 0.45498464 0.70745635 -2.2451253 0.27126437
0.010289374 -0.07755744 0.029043928 -0.15625483 -0.19092399 -0.6907291 0.04389172 -0.12836035
0.10154737 0.2333562 -0.16720265 0.49750787 -0.36079288 -0.3573892 -0.15922754 0.5346559
0.033127487 0.17497993 -0.06513375 0.2819444 -0.23038052 0.45753592 0.008010691 0.22795488
0.171605 -0.12666866 -0.16160882 -0.4593358 0.17358783 -0.6372896 -0.23788968 -0.49731565
0.2039733 -0.16250823 0.073227875 -0.55588424 0.33323205 -0.35256028 0.056599513 -0.5473093
0.14599542 -0.27584803 -0.275476 -0.40072072 0.25988492 0.41577283 -0.28890646 -0.41563693

fcs1.bias f4 [400]
00000000: 3c06 243d 3632 b1be f90b 2bbf 35d2 10bf
00000010: 2d0a d7be 863a 71bf cd72 26bf b113 2abe
00000020: 1877 80be 3ed3 1ebc 268c a93d 614c 7abd
00000030: b652 f1be c59f 97bc a8c7 edbd c757 4ebd
00000040: 4588 01bf d6af 9d3c e77f 6a3d f94a 9bbe
00000050: 8aa5 e1be 161b f8be 82fa abbe e608 b3be
00000060: 9de2 4fbf 314d adbd 5c43 a5be 9854 4ebe
00000070: 042f d0be 040d 4fbf 60ff c93d 10db ad3c
00000080: 8e73 e9be 8a76 283d 1c7a ef3d 78c8 c8be
00000090: 101d 203d aa92 96be d340 be3d c2c9 18bf
000000a0: b98b 5d3d b7c1 1abf 3b01 acbe 8102 8a3d
000000b0: 79ff a6bd a42c 15be 4664 6cbe 4774 9abe
000000c0: ec65 16bf c6d2 a0be e535 3bbf ac7e a13d
000000d0: 81d3 adbe ee45 bbbe bb47 b7bd e3be 84bd
000000e0: 611e a7be e275 d8be 9a5a e4be 111b 8ebe
000000f0: 35d7 8abe 9775 96bd 9c36 413e 12c4 be3c
00000100: 3567 1bbe e2c9 48bd 0dd6 0cbe db92 65be
00000110: 4fd0 853c 9848 b0be 867a 52be e5b0 523e
00000120: 667b c7be 6a6f 0fbc fb3d 98be c79a b9be
00000130: 4fed 45be b9b6 a1bf c285 e2bd a05c 653d
00000140: 7186 4e3e 12b4 2abf 030c 3abe 9417 40bf
00000150: c44a 41be d978 97be ee11 9cbf d50c 87bf
00000160: e08e 6ebf 321e 30be b6c9 213e ac29 9abe
00000170: 29ce 25bf 5379 51bd 1c82 06bf 7ef6 5bbd
00000180: 7263 96be e609 cbbe a112 aabd 9a04 f3be
00000190: 2180 a6be d4fd 9ebe 55b8 04bf f553 16be
000001a0: be87 7dbe 4416 90be 723e 06be 8ee0 433d
000001b0: 8504 24bf c0cf 37bf e71e 0f3d d2dd bdbe
000001c0: cea3 cdbe bd3c a0be 35bb 9ebe 987f 38bd
000001d0: 6164 d6be a8ca 61be d6c9 c9be 128b febe
000001e0: 1f03 23bf be5d febd 3cc8 96be 31f9 67bf
000001f0: 80b7 96be 907d 03bf 5582 d5be c8af d23d
00000200: 81f2 6dbe 8540 12be 9516 99be 35aa fdbe
00000210: a85b aebd 2b5d 38be 52e6 84be 7d56 1cbe
00000220: 8361 7d3d 7460 08bf b15d dbbd 4748 2ebf
00000230: 7d46 b83d 8321 32bf 4da7 a3be 26dc 82be
00000240: 9510 393e 62d8 0cbe 9134 87be cac6 16bf
00000250: 4aee 24be 8fa0 d5bd 5d4d acbd 170f 14be
00000260: b2d1 8cbe 0acb 12bf c55a aabf 208f f0be
00000270: d389 52bf 371c 5bbe aab6 7bbf 290d 8fbd
00000280: 39e9 63be 0da0 0dbe 692b a5be ff63 8bbf
00000290: b5cb 10be d8d1 05bf 4885 23be e074 dc3d
000002a0: dda1 17bf bfe8 95be 9b68 88bb 5144 51be
000002b0: 0b18 e6bd 62af 35be e436 9cbe d15c a6be
000002c0: dfbd 79be 3eb8 963c eaec 3dbe 3de1 5dbe
000002d0: 18d0 e7be f254 45bf 7f3e 233e 97f1 43bf
000002e0: 2ed2 a2bd c512 53bf a6ad 7abf c600 583e
000002f0: 7f96 a9be 5977 7bbe 970a 4cbe 46fc 1dbd
00000300: 5d4b dbbd 8be2 f1be 36d4 913d fb7e 76be
00000310: d3d9 2abf 6cf7 673e f28d 0abf 16fb 8cbf
00000320: 6c9a 443d 6e91 fbbe 9ff2 79be 54b9 49be
00000330: d9ff 73bf b9ee b3bf 7fe6 2dba 8284 e4be
00000340: 5caa 09bf be89 84bf aa80 59bf a90b 99be
00000350: d929 0ebf 7393 883e 01e9 6ebe 185b 39bf
00000360: 4b83 c4be 8064 73be 1fc0 aebe 1c66 8dbe
00000370: e27c 73bf e5ae f1be e232 4fbe 7bc3 8f3e
00000380: dfb9 9dbe e6e6 eebe d031 67bf e8a8 06bf
00000390: 5c9c 94be 8b0c b3be fa2b 04bf 6362 c0bd
000003a0: f33a 92be 98c6 21be b18a d43d 3f82 ebbe
000003b0: dac8 33bf 45ce e7be c080 afbe f46f c6be
000003c0: a8c0 94be a949 f73d 348f d5bd 9ccf 03bf
000003d0: e5a3 5c3e 0b40 013c d5ca 00bf 5e59 86bd
000003e0: c282 75bf 9f10 d6be d3f4 0bbf c241 e2be
000003f0: 2115 b53d 6586 b33d 26e9 26be aa93 3cbd
0.040045008 -0.3460862 -0.66815144 -0.5657075 -0.4199995 -0.94229925 -0.6501892 -0.16609074
-0.2509086 -0.009693919 0.08278684 -0.061107997 -0.47133416 -0.018508801 -0.11610347 -0.05037668
-0.50598556 0.019248884 0.057250883 -0.30330637 -0.4407161 -0.48458165 -0.3358956 -0.34967726
-0.8120516 -0.08461989 -0.32277954 -0.20149457 -0.4066087 -0.80879235 0.09863162 0.021222621
-0.45595974 0.041128673 0.116932124 -0.39215446 0.039090216 -0.2940877 0.09289708 -0.5968286
0.054088328 -0.60451835 -0.3359469 0.06738759 -0.08154196 -0.1456781 -0.23085126 -0.30166838
-0.5874927 -0.31410807 -0.7312911 0.07885489 -0.33950427 -0.3657679 -0.089492284 -0.06481721
-0.32640365 -0.42277437 -0.44600374 -0.27755025 -0.27117315 -0.07346647 0.18868488 0.023286853
-0.15176089 -0.049020655 -0.13753529 -0.22419302 0.01633468 -0.34430385 -0.20554551 0.20575292
-0.38961333 -0.0087545905 -0.29734787 -0.36250898 -0.19328807 -1.2633888 -0.110606685 0.055996537
0.20168473 -0.66681015 -0.18168645 -0.7503598 -0.18876177 -0.29584387 -1.2192972 -1.0550791
-0.9318676 -0.17199019 0.15799603 -0.30109918 -0.647677 -0.051141094 -0.5254228 -0.05370187
-0.29372746 -0.3965599 -0.083043344 -0.47464448 -0.3251963 -0.3105303 -0.5184377 -0.14680465
-0.24758813 -0.28141987 -0.13109758 0.047821574 -0.64069396 -0.71801376 0.03494158 -0.37083298
-0.40164036 -0.3129634 -0.31002203 -0.045043558 -0.41873458 -0.22049963 -0.394118 -0.49715477
-0.6367664 -0.12420224 -0.29449642 -0.9061461 -0.29436874 -0.5136347 -0.41700998 0.10287434
-0.23237039 -0.14282425 -0.2990004 -0.4954392 -0.08513576 -0.18004291 -0.2595697 -0.15267368
0.061860573 -0.53272176 -0.107112296 -0.68079036 0.089978196 -0.69582385 -0.31963578 -0.25558585
0.18072732 -0.13754418 -0.26407292 -0.5889708 -0.16106525 -0.10431015 -0.084131934 -0.14458881
-0.27503735 -0.57341063 -1.3308951 -0.46984196 -0.82241553 -0.21397482 -0.983256 -0.06984932
-0.22256936 -0.13830586 -0.32259682 -1.0889891 -0.14140208 -0.5227332 -0.15968812 0.1076448
-0.5923136 -0.29279134 -0.0041628606 -0.20436217 -0.112350546 -0.17742684 -0.30510628 -0.32492688
-0.24388836 0.0183984 -0.18547407 -0.21667953 -0.4527595 -0.7708274 0.15941809 -0.7654051
-0.07950245 -0.82450515 -0.97921216 0.21094045 -0.33122632 -0.24557246 -0.19925915 -0.038570665
-0.10707734 -0.4724315 0.07120554 -0.24071877 -0.66738623 0.22652978 -0.5412284 -1.1014125
0.04799883 -0.49134392 -0.24408959 -0.19699603 -0.9531227 -1.4057227 -0.0006633773 -0.44632345
-0.5377557 -1.0354536 -0.8496195 -0.29891708 -0.55532604 0.26674995 -0.23331071 -0.72404623
-0.3838142 -0.23768806 -0.34130952 -0.27616966 -0.9511243 -0.47203746 -0.20234254 0.28078827
-0.3080587 -0.46660537 -0.9031038 -0.5260148 -0.29025543 -0.34970507 -0.516296 -0.09393766
-0.285606 -0.15798414 0.10378016 -0.45997807 -0.7022835 -0.4527456 -0.34277916 -0.38757288
-0.29053235 0.120745964 -0.104277045 -0.5148866 0.21546896 0.007888804 -0.503095 -0.06560014
-0.95902646 -0.41809556 -0.5467045 -0.44190794 0.08841921 0.08765868 -0.16299877 -0.04603926

fc2.weight f4 [300, 400]
00000000: 50be 08bc d057 1d3d ddec 35bd 0897 263c
00000010: e89e c23b 7b8b 33bd 6db9 c8bd 9570 3ebd
00000020: cde7 21bd 6cfd a0bd cf74 91bd cb0b e3bc
00000030: ccaf c73c 7c74 3e3b 42f1 95bd b092 9b3c
00000040: 48e9 88bd fa90 0bbd 265e 36be f0ab 1cbd
00000050: 19d1 f1bd e4a6 cfbc 1e4f 87ba d0cb 7bbd
00000060: 2c82 85bd 2ce9 97bd a1d3 7b3c 3c6c 33be
00000070: 94e8 463b 624c 62bb 9ac3 c53c 5d69 0fbc
00000080: ee02 c0ba 6716 243e 9c22 84bd a156 7b3c
00000090: 99b9 d5bc 1a96 bbbd c0da 00bd 39f6 b83c
000000a0: 5c31 b53c 0b53 ce3b fc01 0e3e 92b5 9dbd
000000b0: c219 a83c 0dc9 48bd 5eeb 073e c047 12be
000000c0: 6e5d adbd c79f 113d ea7b 4f3d 4bd1 8c3d
000000d0: b877 8abd 07bb e73c 9ba7 d83c 24af 5a3c
000000e0: 3392 bb3b f665 36bc 89fc 8abb b0b5 d5bc
000000f0: da8e fe3c 89ed 69bd b1f2 27bd f71f 893c
00000100: 735b 9f3c 76cb 9a3c 4aea 563d 812d 0abe
00000110: fff1 e5bb c7c2 4bbd 8f89 c13c 42ec 9d3d
00000120: d937 14bd ca92 0c3c 7bbe 15bd 49b8 fb3b
00000130: 02ab b1bc f9ae cd3c 827f 7c3c 0c0f 76bd
00000140: f506 78bb 540c 98bd b7d5 7a3d 223e 58bd
00000150: 05a4 2bbd 2b18 50bb 2088 afbd f2c1 8abc
00000160: 576e 793d ac22 20bd 23b3 843c d921 26bd
00000170: 6c24 05bc 358b b5bc 598d 09bd 8b1f c5bb
00000180: 49ee 003e bcc8 75bd 0a4c 013c d749 113c
00000190: 3b34 59bd 3642 e5bd 9930 d73b f316 20bd
000001a0: 71f5 933d 0a42 d8bc 92bc 6a3d 366f c83c
000001b0: c8cd c2bd 62d3 8bbd 6046 1cbd 2f16 c2bc
000001c0: ba22 bcbd 3abb 82bd e9e8 603d bfca 11bc
000001d0: 8a0e cfbd a431 b3bd 5379 293e 1e7e bfbd
000001e0: dc09 aabd 7abe 953b 1d44 10bd b73a b83c
000001f0: 830c 6c3a c829 de3d f2b5 8c3d cd32 c7bd
00000200: 427f 8cbd 4b77 463d 84aa d1bb 8156 c33c
00000210: 9d23 523d 519d 6aba c197 af3c f4fa 323d
00000220: 551c 87bd 1f50 55bd f3e9 bcbd eb8c 453c
00000230: 7672 5bbd f2d3 4ebd a1fe 89bd e261 a9bd
00000240: 5887 0a3d 5312 17bc a159 9ebd 00a1 c1b8
00000250: 523a 023e 31cd 71bd 24a4 e3bd 0959 cd3c
00000260: 1289 613c 6bfa 7dbd d8ab 72bd 2f78 5cbc
00000270: 1f2f 703c e062 303d 2986 e8bc cd4e b43d
00000280: 9eee 9abd 3269 823c f8fd 1cbd ea63 8cbd
00000290: e85b 71bd 0acb 563d c3b7 0dbd cef2 98bd
000002a0: 3ffa f0bd 5d04 52bd 1543 343c 766a 073d
000002b0: 5010 fb3c 42d5 28bc a022 cbbd 18b3 2f3d
000002c0: 6cae d1bd e9b4 b0bd 4386 d9bc 7a1a b13c
000002d0: 5d47 a3bc 82ab 58bd b02b a6b7 8907 823c
000002e0: 4071 72bc 2448 c8bd 64e5 4fbd d175 5f3b
000002f0: ab3a 63ba 8a97 cd3c 99fc 263d aa7e bbbc
00000300: ae55 493d 74bb 2bbc a452 18be 9e16 86bd
00000310: 952d ed3c 0ac9 01bd 25b4 d23c 58dd 26bd
00000320: 658e 2cbb e450 33bc bfb4 23bd eb47 9f3c
00000330: 2b90 d83b 02d4 6a3c 0c79 2bbd aea0 ee3c
00000340: 2ae1 fcbc ca01 733c abfb 3b3d a557 10bc
00000350: 2a5e fdbb 79ed 4d3d 055b dbbc 3935 603d
00000360: 389a 9d3d 835b bbbd cc9d 03be 6a2d 60bc
00000370: 9c0b 8fbd 20af 93bc e855 f2bc 566c a4bc
00000380: 0c13 203d d6d7 07bd 94f3 bdbd 724a 29bd
00000390: 289b 88bd af26 91bd de15 ef3c d953 81bd
000003a0: f8f8 a43c a46e 05bd 92af 9ebd ecf2 d03c
000003b0: 8ff0 53bd 07ae 1b3d 33ca 953d b19c 0bbd
000003c0: d821 a6ba 2a83 0c3c cc77 6dbd 91b1 733d
000003d0: 9a91 6abc e399 83bd cc97 843d 577d 9abd
000003e0: e8e9 673d 6196 b9bd 4eb3 11bd 90f5 cbbd
000003f0: 0168 e03b 6e58 b53c 0698 adbd eb38 fe3c
-0.008346155 0.038413823 -0.044415344 0.010167845 0.0059393533 -0.04383419 -0.09800992 -0.046494085
-0.039527703 -0.078608364 -0.071023576 -0.027715584 0.024375819 0.002906113 -0.07321407 0.018990844
-0.0668512 -0.034073807 -0.17809352 -0.03824991 -0.1180746 -0.025348134 -0.0010323261 -0.061473668
-0.06518969 -0.07417521 0.0153702805 -0.17521757 0.003035103 -0.003453039 0.024141122 -0.008753148
-0.0014649311 0.16024171 -0.06451914 0.015340478 -0.026089476 -0.09159489 -0.031458616 0.022578346
0.022118263 0.0062965206 0.13867944 -0.077006474 0.020520095 -0.049019862 0.13273379 -0.14285183
-0.08465086 0.035552766 0.050655283 0.06875857 -0.06761116 0.028287424 0.026447108 0.013347421
0.0057242154 -0.011132708 -0.0042415303 -0.026087612 0.031073976 -0.057111297 -0.041002933 0.016738875
0.019452786 0.018895846 0.05246953 -0.13493921 -0.0070173736 -0.0497463 0.023625163 0.07711078
-0.036186073 0.008579919 -0.03655861 0.0076818806 -0.021687988 0.025107848 0.01541126 -0.060072944
-0.0037845944 -0.074242264 0.06123897 -0.05279363 -0.041904468 -0.0031752686 -0.08570886 -0.016938183
0.060896244 -0.039095566 0.0161987 -0.040559623 -0.008126359 -0.022161106 -0.033582065 -0.006015723
0.12590899 -0.06000589 0.007891664 0.008867702 -0.053028326 -0.11194269 0.0065670726 -0.039084386
0.072245486 -0.026398677 0.05730874 0.024467092 -0.09511906 -0.068274274 -0.038153052 -0.023692219
-0.09186311 -0.06383367 0.05490962 -0.008898436 -0.10110195 -0.087497026 0.16550188 -0.09350227
-0.08302662 0.0045698257 -0.035221208 0.022488935 0.000900455 0.10847813 0.06870641 -0.09726486
-0.0686021 0.04845361 -0.006398501 0.02384496 0.051303495 -0.00089498336 0.021434667 0.04369636
-0.06597201 -0.052078363 -0.0922431 0.012057523 -0.053575955 -0.050495096 -0.0673802 -0.08270623
0.03382048 -0.009220677 -0.07731939 -9.232946e-05 0.1271756 -0.059033576 -0.11115292 0.02506687
0.01376559 -0.062006395 -0.059245914 -0.013456388 0.014659672 0.043063045 -0.028384285 0.088040926
-0.07565044 0.015919302 -0.03832814 -0.068549946 -0.05892554 0.052439727 -0.034599077 -0.07468186
-0.11766481 -0.051273692 0.011002322 0.033060513 0.030647427 -0.010304751 -0.099187136 0.042895406
-0.102383465 -0.08628256 -0.026553279 0.02161907 -0.01993149 -0.052897938 -1.9809086e-05 0.015872734
-0.014797509 -0.09779385 -0.050755873 0.0034097324 -0.0008668105 0.025096674 0.04076824 -0.022887547
0.049153976 -0.010481704 -0.14875275 -0.06547283 0.0289524 -0.031685866 0.025720665 -0.040738434
-0.002632999 -0.010944579 -0.039967295 0.019443473 0.006608983 0.014332773 -0.041863486 0.029129352
-0.030869085 0.0148319695 0.045894306 -0.008809959 -0.0077321725 0.0502753 -0.0267768 0.054738257
0.076954305 -0.09148314 -0.12853163 -0.013682703 -0.06984636 -0.018027842 -0.029581979 -0.02007119
0.039080665 -0.03316482 -0.092749745 -0.041330762 -0.06670219 -0.070874564 0.029185232 -0.06314821
0.020138249 -0.03257622 -0.07748331 0.02550646 -0.051743086 0.038007762 0.07313957 -0.03408498
-0.0012674881 0.008576194 -0.057975575 0.059495512 -0.014316941 -0.06425836 0.064742655 -0.07543438
0.056619555 -0.090618856 -0.03557139 -0.09958947 0.0068483357 0.022136893 -0.08476262 0.031033

fc2.bias f4 [300]
00000000: 2f11 cabd d870 abbd 213d 8abd 75f5 dabd
00000010: fdc3 b4bd 86d1 b5bd 3a35 7abd b907 41be
00000020: 23bb d8bd 30a4 b8bd 9911 fdbc f249 02be
00000030: 3b7f febd 840c ecbd c0c4 92bd 302c e8bd
00000040: 3782 02be b092 9bbd 50a2 a0bd d116 c4bc
00000050: a2e7 94bd 5839 a1bd daa3 1ebe 4c46 07be
00000060: eb1d 1fbe d83e b7bd bc56 ecbd 74b2 cdbd
00000070: e269 fdbc f334 62bd 5f86 4abe 46ea 0fbe
00000080: df2f 07be 339e a0bc 841b 0dbe 6db4 d0bd
00000090: 668e 2cbe c5c2 42be 6718 f9bd 021d bbbd
000000a0: ec75 50bd 2d05 05be 633f 96bd 46ef 30be
000000b0: 35cb e3bd bbf0 13be 2ef0 e4bd 2de3 18bd
000000c0: 2ef9 06be db14 9bbe 60d6 e7bd 2506 8cbe
000000d0: eb78 38be 35c7 b0bd 9e66 23be fc8f 04be
000000e0: 4b43 16be d363 bcbd 7b32 f4bd f338 8cbd
000000f0: b7fb 10be 0c02 aabd b1dc 39be 14f5 6bbd
00000100: 2044 08be df95 b5bc 4623 53be 8417 e3bd
00000110: 9fab c9bd 09a8 1cbe 8035 debd adc2 dabd
00000120: abd8 58be a189 1ebe f8fb 2dbe a9d3 89be
00000130: bf20 aebd b6da 2bbe 3db6 51be 51e1 c2bd
00000140: 707e 92bd 876f 3dbe fb7f 15be c95f ebbd
00000150: 662f 85be 01f1 90be 6960 c2bc e5a0 d0bd
00000160: 9415 aabd b490 8dbd 5a04 0bbe a711 80bd
00000170: 2a0c 0bbe b42b d0bd c3b2 95bd 32dd e0bd
00000180: 0892 aebd e7f1 44be 8c3d 34be 50f8 b7bd
00000190: fd5c a2bd ce42 b6bc 1bdb 61bd 1f30 a3bc
000001a0: 9ae2 86bd c08c b8bd c729 eebd a487 cfbd
000001b0: 00f7 ddbd 5a83 60bd aff1 42be 458b d1bd
000001c0: fe72 10be 8744 0ebe 3a08 98be 4b5a 50be
000001d0: 212e e9bd c21f 27be 991f 02be d1d6 72bd
000001e0: de8b 22be c4a6 97bd 53f7 15be d402 1abe
000001f0: 200b 2fbd 0a82 22be e450 33be 4618 dcbd
00000200: 17ee e5bd dea7 8fbd 3287 44be 7073 63bd
00000210: 2dc7 abbd 04df a0be bba5 3bbe 7fc9 d3bd
00000220: 4b38 9fbd 37e1 c4bd d617 b6bc af51 8cbe
00000230: 26a9 dbbd bcc8 dbbd 00e4 12bd 63a2 7ebd
00000240: 7a76 84bd fffb 10be 3a8b fcbd 34e0 03be
00000250: 0d5b aabd f2a1 f3bd 9136 68bd 465c 19be
00000260: 85ae 82be 077c c0bd 5e70 dcbd c0fe c1bd
00000270: 5517 0fbe c96c 2fbe a348 a7bd 2d99 04be
00000280: 7565 efbd 186e 09be 6b4e 45bd 49d2 13be
00000290: b9eb 68bd e555 2bbe 0a0e 28bd 4ce0 bebd
000002a0: 36b2 99be d4b3 ffbd 5c3d 33be c711 1bbe
000002b0: 7345 51be 812d 0abd 538e 27be 7ecf 52bd
000002c0: fa56 b8bd 333e 74bd 2f83 53bd 33aa febd
000002d0: 867b 19be d9c2 f3bd c22c f3bd 3bef b2bd
000002e0: 471b 2ebe 2bf5 95bd 628a efbd a4e8 62bd
000002f0: 33aa febc 9e38 8ebe 8028 12be 92a0 7dbd
00000300: d302 e2bd a8bf 70be 75c9 58bd af25 cfbd
00000310: 3ea5 dbbd acd6 36be 8cb2 33be 44cf a9bd
00000320: d816 afbd a6ba 78bd 8f98 a5bd 5ac1 d9bd
00000330: 4ed7 d2bd 2be0 26be d4de 0dbe 5e74 86bd
00000340: b004 a5bd 5bd3 fdbd b637 93be 60ad 2ebd
00000350: 6ed5 35bd 90dd 88bd d584 1fbe 0bec 3bbe
00000360: 93d6 82bd 20c6 08be 6926 93bd baff 01be
00000370: fdfb 0ebd 0cf1 b3bd ce64 22bd f012 afbd
00000380: b51f abbd cd82 64bd 86a4 d2bd fd46 b4bd
00000390: 9e88 8fbd 2dcc ddbd 427a b5bd b9cd a6bd
000003a0: 31b3 df3d d73e 1abe 8100 27be 0917 f9bd
000003b0: 22b8 eabd 6d3c 48bd 6a9d 14be c4ac 16be
000003c0: 51ec a4bd 33f3 02be f5c7 50bd 849a ccbd
000003d0: cd2c 48be f31c 9fbd abea c5bd c02b 25be
000003e0: dd93 f6bd d4d5 f1bd 9b28 9bbe a116 febd
000003f0: 48d8 12be 02e7 25be 0901 10be c045 07be
-0.09866559 -0.083711326 -0.06749941 -0.106913485 -0.08826444 -0.08877854 -0.061085917 -0.18850602
-0.105825685 -0.09015691 -0.03089218 -0.1272352 -0.12426611 -0.11525825 -0.07166433 -0.11336553
-0.12744986 -0.07596338 -0.07843459 -0.023936661 -0.07270743 -0.078722656 -0.15492192 -0.1321041
-0.15538757 -0.08947533 -0.11539981 -0.10043803 -0.030934278 -0.055226278 -0.19777821 -0.14054212
-0.13201855 -0.019606685 -0.13780028 -0.101906635 -0.16851196 -0.19019611 -0.121628575 -0.09136392
-0.05089371 -0.12990256 -0.07336309 -0.17278776 -0.11122743 -0.144473 -0.11178623 -0.037326027
-0.13180992 -0.3028935 -0.11320186 -0.27348438 -0.18014877 -0.08631746 -0.15957114 -0.1294555
-0.14674108 -0.091987275 -0.11923691 -0.068468 -0.14158522 -0.08301172 -0.18150593 -0.05760677
-0.13307238 -0.02216619 -0.20618924 -0.110884696 -0.09847187 -0.15298475 -0.10850048 -0.10681663
-0.21176402 -0.15482189 -0.1699065 -0.26919296 -0.085023396 -0.1678265 -0.20479675 -0.09515632
-0.07153022 -0.18499576 -0.14599602 -0.11492879 -0.26012725 -0.2830887 -0.023727613 -0.10186938
-0.08304897 -0.069123656 -0.13575879 -0.06253367 -0.13578859 -0.10164586 -0.07309487 -0.1097969
-0.08523947 -0.19232903 -0.17601603 -0.08982909 -0.07927892 -0.022248652 -0.055140596 -0.019920407
-0.065861896 -0.09011221 -0.11629062 -0.10133293 -0.10838127 -0.054812767 -0.19037507 -0.10231642
-0.14106366 -0.13893329 -0.29693776 -0.20346944 -0.113857515 -0.16320708 -0.12707366 -0.059286896
-0.15873668 -0.07404855 -0.14645128 -0.15040141 -0.04273522 -0.15869918 -0.17511326 -0.10746817
-0.11227053 -0.0701444 -0.19192198 -0.05553001 -0.08387599 -0.31420147 -0.1832494 -0.10341167
-0.07774409 -0.09613269 -0.022228163 -0.2740607 -0.10725622 -0.107316464 -0.03586197 -0.062166583
-0.0646791 -0.14158629 -0.12331243 -0.12878495 -0.08318148 -0.11896123 -0.056692664 -0.14976606
-0.25523773 -0.09398656 -0.1076362 -0.09472418 -0.13973744 -0.17131342 -0.08168151 -0.12949057
-0.11689273 -0.13420904 -0.04817049 -0.14435686 -0.056865428 -0.16731985 -0.041029014 -0.09320125
-0.30018777 -0.12485471 -0.17503875 -0.151435 -0.20436649 -0.033734802 -0.16362886 -0.05146741
-0.090009645 -0.05962963 -0.05163878 -0.12434807 -0.14988527 -0.119023986 -0.11873771 -0.08737036
-0.17002593 -0.07322153 -0.11696316 -0.055397645 -0.031087017 -0.2777757 -0.14273262 -0.06192071
-0.11035695 -0.23510611 -0.0529265 -0.101146095 -0.10724877 -0.17855328 -0.17548579 -0.08291486
-0.08549279 -0.060724877 -0.08085739 -0.10632582 -0.10294972 -0.16296451 -0.13854533 -0.06565164
-0.08057535 -0.123938285 -0.28753442 -0.042645812 -0.044392996 -0.06682885 -0.15578015 -0.18351762
-0.06388583 -0.13356829 -0.071850605 -0.12695208 -0.034908284 -0.087862104 -0.039646916 -0.08548534
-0.08355657 -0.055788804 -0.102852866 -0.088026024 -0.070084795 -0.10829959 -0.088612095 -0.08144707
0.1092285 -0.15063034 -0.16308786 -0.12162597 -0.11460902 -0.04888575 -0.14513174 -0.14714342
-0.08052886 -0.12788086 -0.050971944 -0.09990409 -0.1954834 -0.077691935 -0.096639 -0.1612997
-0.120399214 -0.118083626 -0.30304417 -0.1240666 -0.14340317 -0.16201404 -0.14062895 -0.13210201

fc3.weight f4 [1, 300]
00000000: f91b 5fbc fe00 893c 0936 93bb 75ed 063c
00000010: 4f97 24bd c772 ae39 fc5d 083d 2cca e0bc
00000020: db3c 8cbc efac 23bd 5e91 cdbc 06a5 793c
00000030: f14f 81bb db2d 6bbc 3adf d5bb cef1 b93b
00000040: 0c8e 21bc 49ee 80bc c0ee e9bc 6076 50bb
00000050: 913a 723b 4f26 32bc 74e0 18bb d508 15bc
00000060: 95c4 123d 41ba c0bb 2d89 52bc a115 83bb
00000070: e5e3 21bb 1e74 4f3c 2f65 11bc 72d3 a7bc
00000080: 8cce a03c f33a 0a3d 9918 943c 5978 693c
00000090: 1a9c 3a3c 4101 12bd 0ae7 c33b 8433 d0bc
000000a0: bed2 653b c2c9 8abc 2efb 5b3c 580c 03bd
000000b0: d429 b3bc f468 1d3d 725b 1f3c 6a8e 73bc
000000c0: 99b9 d5ba 16e4 8f3c f12a 72bc fdb1 fa3c
000000d0: 3fe6 e33c 8254 4fbc 4f70 40bc d955 d6bc
000000e0: 25a2 8ebc 1e66 85bb 4027 543c 72ac c3ba
000000f0: 94a7 a6bb d977 c23c ed96 b53b 130f 043a
00000100: a9d2 12bc 4309 94bc 91cb c5bc 7444 aabc
00000110: 0d6e b4bc a563 8ebc 71c6 4c3b 538a 9f3c
00000120: 99f1 1f3d 95a1 c03b 82b8 f3bc 0319 383c
00000130: 2903 e9bb 42d7 7d3c b751 2dba b495 85ba
00000140: 9da6 51bc 2839 043d aa4a 8bbb 3990 a03c
00000150: 9dd1 b1bc a0a4 833d db0f a9bc 95b5 6439
00000160: 9d1c 853c 4538 8bbc 221b 1e3c e9cf 923c
00000170: 97d6 49bc b4ed 76bb c9a0 5fbc 613c 733b
00000180: 9022 afbb 77af b33c 219d f5bc ea98 c33c
00000190: b50c 87bc 87bf b83c 6728 68bb 3ab4 a1bc
000001a0: 4af1 45ba ed8b 3e3c b448 e8ba de0a 78bc
000001b0: 77c0 23bc 67cd d3ba 38ce 0abd 6131 fcbb
000001c0: ad60 5a3b d703 79bb dfcd 0e3d 698c 38bc
000001d0: c75c 40bc 1107 e93a a6a1 1ebd b370 f63b
000001e0: 2315 9fbb aa4f 033c 1e9f 7739 1689 74bc
000001f0: 8fb6 243c 801f f43c 28cf b83a 91e4 823c
00000200: 53e0 bbbc fab9 c4bc db27 143c 0429 1bbc
00000210: a91f 7dba e234 4ebd f62b 87bc 35d4 853c
00000220: e9a3 3aba 4cab e43c 8207 f4bc 72f7 0ebd
00000230: 629b 313c e872 56bc 8172 30bc 236b eabc
00000240: 2f33 f6bc fb97 413c cdf2 98bb 7078 13bc
00000250: 0560 1ebc a436 2bba 89ff 1f3d 5eb3 ad3c
00000260: 96c0 f93c 9b28 83bb 1a2a b13b 7871 54ba
00000270: 92fd 9a3c cfd5 a4bb 8ba3 f8bb 1bb3 6abc
00000280: 199f 733b 00e0 6b3a a3bf a9bb 8e6d bd3a
00000290: 0a3d 603b d59a 353c f177 74bc 5147 19bd
000002a0: a6d6 653b 8ee0 64bc 491d b9bc 5d26 3ebc
000002b0: 5816 43ba 7ab5 f33b f1f0 6a3b 5600 9a3b
000002c0: 387a 19bc e219 60bc 17b9 2ebb 8f7e 4abc
000002d0: eef7 483c ec16 b8bc fb4c b3bb a360 6bba
000002e0: af35 913b e0da 38bc 2a13 133c 80b6 883c
000002f0: bd21 b53c 0759 3bbd 6dbf c7bc 0d30 5bb8
00000300: 740c 063d 7afe c3bc 0de9 adbc 7aba aebc
00000310: a4bf a9bc 0d14 f0ba 3814 7b3c 2e76 07bb
00000320: 40d1 b73c 91c0 94bc fef9 853b 45a1 81bc
00000330: e0a6 883b 0963 a1bc c097 2f3c d683 40bc
00000340: 0f00 1c3c 3503 be3c 0e59 2bbd 7c8b 33bc
00000350: 2a17 82bc 4abb 1ebc 2ed4 4cbd ca8d 943b
00000360: 8705 e6bb 83c7 45bc d662 5b3c 7a25 283c
00000370: 5f7b d3b9 2e51 78bc cd60 e73b fbed 74bc
00000380: 7361 a6bc ac13 7f3c 6225 7e3b 0040 aebb
00000390: e235 4d3c 2349 bd3c e2a3 d73c f1e5 cbbb
000003a0: 105a c33c 31af 2f3c f423 ecbb ba6c d83a
000003b0: cb81 8f3c 0b24 a03c 3b94 103c 67a4 9abc
000003c0: 4df3 923a ec9c 743c e269 fd3c c0f8 a03c
000003d0: ac07 62ba 6308 c7bc 124a 3a3b f290 fd39
000003e0: 42a8 45bb 2a04 ed3c 5566 e03c 175f 3fbc
000003f0: e62d c03c 349a 303b d46d 223c bc39 fb3c
-0.013617509 0.016724106 -0.0044925255 0.008235325 -0.04018336 0.00033273382 0.033292755 -0.027440153
-0.017118862 -0.039959844 -0.02509373 0.015237099 -0.0039462973 -0.0143541945 -0.006526855 0.0056745773
-0.009860527 -0.015738623 -0.028556228 -0.0031808838 0.0036961178 -0.010873391 -0.0023327144 -0.009096344
0.035832006 -0.005881578 -0.012850088 -0.004000381 -0.0024702486 0.012661962 -0.008874222 -0.020486567
0.01962974 0.033747625 0.018078135 0.0142498845 0.011389757 -0.035645727 0.0059784697 -0.02541519
0.003506824 -0.016941909 0.013426585 -0.031994194 -0.021870531 0.03843017 0.009726392 -0.014865497
-0.0016305923 0.017564815 -0.014780746 0.03060245 0.02781975 -0.012654426 -0.011745526 -0.026163982
-0.0174113 -0.004071011 0.012948811 -0.0014928712 -0.005085895 0.023738788 0.0055416734 0.00050376466
-0.008961358 -0.018070823 -0.02414492 -0.020784594 -0.022025133 -0.017381499 0.003124621 0.019475138
0.039048765 0.005878637 -0.029751066 0.011236432 -0.0071109724 0.015493216 -0.0006611603 -0.001019171
-0.012796071 0.03228107 -0.004250844 0.01960002 -0.021706397 0.06427884 -0.020637443 0.00021811419
0.016248995 -0.016994605 0.009650024 0.017921405 -0.012319229 -0.0037678303 -0.013649174 0.0037114846
-0.0053446963 0.021934254 -0.029982151 0.023876626 -0.016485551 0.022552265 -0.0035424472 -0.019739259
-0.00075509085 0.011630041 -0.0017721863 -0.01513931 -0.009994618 -0.0016159237 -0.03388807 -0.007696316
0.0033321783 -0.0037996673 0.034864303 -0.011263945 -0.01174087 0.0017778595 -0.03872838 0.007520759
-0.0048548146 0.008014599 0.00023615031 -0.014925262 0.010053291 0.029800177 0.0014099823 0.01597813
-0.022934115 -0.024014462 0.009042705 -0.009470228 -0.0009655902 -0.0503434 -0.016500454 0.01633654
-0.00071197614 0.027913712 -0.029788736 -0.03490395 0.010840269 -0.013088919 -0.010769487 -0.02861554
-0.030053703 0.01181602 -0.004667616 -0.0090008825 -0.0096664475 -0.00065312744 0.039062057 0.021203693
0.03048734 -0.0040026433 0.00540663 -0.00081040664 0.01891974 -0.005030371 -0.007587855 -0.014324929
0.0037173687 0.0008997917 -0.0051803156 0.0014452206 0.003421607 0.011084278 -0.014921174 -0.03742153
0.0035070567 -0.013969554 -0.022596972 -0.011605826 -0.0007441989 0.007437405 0.0035849179 0.004699747
-0.009367518 -0.013678046 -0.0026660615 -0.0123592755 0.012266142 -0.022471868 -0.0054718233 -0.00089789386
0.0044314484 -0.011282653 0.008976737 0.016688585 0.022110814 -0.0457392 -0.024383271 -5.225842e-05
0.03272672 -0.023925055 -0.021229291 -0.021329153 -0.020721264 -0.0018316522 0.015324645 -0.0020669806
0.022438645 -0.018158229 0.0040886393 -0.01582397 0.0041702837 -0.019700544 0.010717332 -0.011750182
0.009521498 0.023194889 -0.041832976 -0.010958549 -0.015880186 -0.009688208 -0.050007038 0.004533504
-0.007019702 -0.012071493 0.013390264 0.010262841 -0.00040336975 -0.0151560735 0.0070611 -0.014949317
-0.02031014 0.015568655 0.0038779606 -0.005317688 0.012525054 0.023106163 0.026323263 -0.0062224795
0.023846656 0.010722921 -0.0072064344 0.0016511895 0.017517945 0.019548437 0.008824403 -0.018877221
0.0011211425 0.014929991 0.030934278 0.019649863 -0.0008622359 -0.024295991 0.0028425497 0.00048363913
-0.0030160104 0.02893265 0.027392546 -0.011680386 0.023459386 0.002694738 0.00991388 0.030667178

bn1.weight f4 [400]
00000000: cb65 943f 9c99 653e 6f08 953e bef3 1b3e
00000010: 4077 b13d 3b8f 3c3e 08ca 7a3d 9659 003e
00000020: 680f a73e 5ed9 bd3d 3248 f03d b002 da39
00000030: 11de 9e3c ff46 b3b9 aaf7 9e3d 0f9b 6e3e
00000040: 31cd e23e 8f6b 133e dc0f 10bb c89e 47ba
00000050: 6f57 cf3d ea82 863f 637a 273e 38c0 513e
00000060: 2ed3 e33e b29e 80bc f60a 683e e6dd 9bbd
00000070: 4055 193f bbbc 813e b04a c739 f509 1d3d
00000080: e439 a23e ad79 3a3d 51c3 113e 40eb 963d
00000090: 6bab f6bd 79dd e43e 5d6c a43d 6ca1 413d
000000a0: 3405 5239 2b67 233d 93de 7bbe 58b3 6e3e
000000b0: ba1e 933b d6f2 4f3d 7c56 e83a 29cb 5b3c
000000c0: 470c 9a3d 642d 0d3e bef7 4b3e 2fe3 b03d
000000d0: bed8 043e 56c8 8b3d eceb d73b 6361 55be
000000e0: 966b cb3d 346d 4b3e 9ae8 c23d d2ca 0e3e
000000f0: 2290 debd db7a 743d a580 873e 5713 e5b9
00000100: a176 b23a 9283 b33d 8b3b 883e 6d06 9c3d
00000110: 3286 7f3d 399f 853d 3a43 483e 0590 5c3e
00000120: 509d e83d 5c8f 943f 117d e23d 5b3e 29bd
00000130: c4f3 613e 08f2 3c3e 1cbc d9bc 8acd 0e3f
00000140: 023c fd3d 5a76 fd3e 95ac a43e d39d da3d
00000150: 3956 d63e 674e ed3d bbb3 2b3e d5b4 183e
00000160: 065c 7a3f 6707 f43d 00fa a83d 8035 ea3e
00000170: 5055 423e 756d b93e 4d4d 5e3d 78cd 273d
00000180: 7ed8 023d bbc8 3a3e d04d 163e 90f2 9a3d
00000190: a57a 253d acbf ab3d d907 d33e 2eeb 0d3e
000001a0: 6bba a73d c8ae 74bd ada1 73bd e98a 7b3d
000001b0: 4877 1c3e 80cf 033e 2f8a 013e 7fae c63d
000001c0: bbc0 3a3e b969 243d f9c4 8e3e a20b 843d
000001d0: a6bd 523e 7b10 213e 7901 2f3d f954 1e3d
000001e0: 5ac0 2c3e e02d 9bbd 3866 b73d 938f 513e
000001f0: 2e09 cc3d 144f 13be 497a 713d 24f2 8c39
00000200: 063a 793d 5101 413d 5995 e83d faf1 d13d
00000210: f605 c13d 53a3 4e3d 2e76 cb3d efbb 4c3e
00000220: a3d0 173e 9ea4 843e b821 8d3d f4b6 3a3e
00000230: 083d 133e 6d03 2a3e b21a 633d 281b 513e
00000240: 06b9 083e 8a49 763d d7cb 913f 2fe9 903e
00000250: bfd8 963d 6eb4 cb3e 4cc1 b73d e4ac 0a3e
00000260: ba4d 623e 12f7 223f ccec 113f 7ca7 693e
00000270: 3cc6 ad3d 816f adbd f0d9 0e3f c06f b93d
00000280: 4432 e53d e2a2 2d3f 161f bb3d f2c8 ef3e
00000290: 6bfb cb3d 8d41 f53d 0e86 0f3e 3585 743a
000002a0: f6ab f73d a662 fe3d 207b 1d3e 57b3 f5bc
000002b0: 2b92 8b3d df5b af3e 0c9f a33d 2e97 843d
000002c0: df2e fa3d 3bc5 ea3d 02b8 b739 2300 923d
000002d0: 83bc 263e 23dd 933d cc27 2a3e 1d2b 423e
000002e0: f44a d0bc d930 6d3d 1dda 083e 5ee6 06be
000002f0: 8473 483e ed1e dc3c 1a32 543e 6b8d f0ba
00000300: cd97 a93d 9b8a fe3d 0381 753e e4c9 0e3d
00000310: 6f85 4c3d c655 b43d fe93 943d c95b 443a
00000320: 0e2d 4e3e be04 913d 832d cf3e f120 87bd
00000330: 6272 d23d 2aad 413e e313 3d3d a883 3b3e
00000340: 7983 9b3d 1108 b33e 5b8c e73d 74e8 cb3d
00000350: ef9d 603d ece3 f93d 33c2 6d3d 91ab fe3d
00000360: a054 23bd 5a80 8d3e 8700 7a3d 51d7 b33d
00000370: 0f7a 7a3e 5217 433e 1507 31bd 0a64 4c3e
00000380: c4fd 643d 90c6 b73a 8a63 c73d b8cd 233e
00000390: c852 963d e784 923d 6db4 003e d02e da3d
000003a0: 298f e73d b239 2b3e b16c fc3d 061f ba3d
000003b0: 6947 f13d 790e b13d b207 953d 3ed7 e43d
000003c0: ca84 0c3e 33ce 043e 5430 953d e0c4 a53d
000003d0: ef27 cb3d c5ec 1bba 48e3 793e 4d18 0b3e
000003e0: 95b3 323e 2b23 3d3e 8b14 bc3d 8dba 703e
000003f0: 8a9c c8bd 08a2 a73e c22e daba 9759 273e
1.1593565 0.22421879 0.29107997 0.15229699 0.08665323 0.18414013 0.06122783 0.12534174
0.32628942 0.09269975 0.1173252 0.00041582203 0.019392999 -0.00034194437 0.07762082 0.23301338
0.44297174 0.14396499 -0.002198211 -0.0007614908 0.101240985 1.0508702 0.1635528 0.20483482
0.44497055 -0.015700672 0.22660431 -0.07610683 0.59895706 0.25339302 0.00038011884 0.038339574
0.31684792 0.045526195 0.14234664 0.07369089 -0.12044414 0.4470022 0.08028481 0.047273085
0.00020029099 0.03989331 -0.24596624 0.23310602 0.004489747 0.050768696 0.001772597 0.013415136
0.07521873 0.13786846 0.19918725 0.08637082 0.12973306 0.068253204 0.0065894034 -0.20837931
0.0993263 0.19865876 0.095170215 0.13944557 -0.10867335 0.059687477 0.26465335 -0.00043692693
0.0013615676 0.087653294 0.26607928 0.07618413 0.062383838 0.0652451 0.19556895 0.21539314
0.1135813 1.160625 0.11059011 -0.041319232 0.22065645 0.18451703 -0.026578955 0.5578238
0.12364961 0.49504358 0.3216292 0.10674634 0.41862658 0.1158722 0.1676778 0.14912732
0.97796667 0.119154744 0.08250809 0.45743942 0.18977857 0.36216322 0.05427294 0.040967435
0.031944744 0.18240635 0.1467812 0.075657964 0.040400166 0.08386168 0.41216925 0.13859245
0.08189853 -0.059736997 -0.059480358 0.061411772 0.15279877 0.12872124 0.12650369 0.09701251
0.18237583 0.040139887 0.27884653 0.06447531 0.20580158 0.15728943 0.042726014 0.038655255
0.16870251 -0.07577109 0.089550436 0.20464925 0.099626884 -0.14385635 0.05895451 0.0002688329
0.06084635 0.047120396 0.11356611 0.102512315 0.09424965 0.050448727 0.0993465 0.19993566
0.14825682 0.25906843 0.06891197 0.18233854 0.1437875 0.1660287 0.05544538 0.20420516
0.13351831 0.060128726 1.1390332 0.28302905 0.0736556 0.39786094 0.08972415 0.13542515
0.22099963 0.6365825 0.5700195 0.22817796 0.08485076 -0.08468533 0.55801296 0.09054518
0.11191228 0.67826664 0.091367885 0.46832997 0.099600635 0.119753934 0.14015982 0.0009327711
0.12093346 0.124211594 0.15379 -0.029992742 0.06814989 0.3424978 0.0798932 0.06474148
0.12215971 0.114634 0.00035041576 0.07128932 0.16282849 0.07219913 0.16616744 0.18961759
-0.025426365 0.057907913 0.13364454 -0.13173816 0.19575316 0.026870215 0.20722237 -0.0018352693
0.08280907 0.12428781 0.23974995 0.034860507 0.04993194 0.088054225 0.0725479 0.00074904837
0.20134374 0.070809826 0.4046441 -0.0659808 0.10275723 0.18913713 0.046161544 0.18311942
0.07593436 0.34967092 0.113060676 0.09956446 0.054838117 0.12201676 0.05804653 0.124350674
-0.039875627 0.27636987 0.06103566 0.08781303 0.24460624 0.19051865 -0.043219645 0.19960037
0.055906072 0.0014020968 0.097357824 0.15996444 0.07340008 0.07154255 0.12568827 0.1065346
0.113066025 0.16721228 0.12325419 0.090879485 0.117811985 0.086453386 0.072768584 0.11173867
0.1372253 0.12969284 0.072846085 0.080941916 0.09919726 -0.0005948062 0.24403107 0.13583489
0.17451318 0.18470447 0.09183606 0.23508663 -0.097954825 0.32740808 -0.0016646015 0.1634277

bn1.bias f4 [400]
00000000: a1c7 f33d 4d07 073e d514 a73d 176f 973d
00000010: 33ee cc3c c3af 0d3d 2c3f 313c eab4 813d
00000020: c552 193e dba6 1c3d 3f35 b33c 19c3 64b9
00000030: 2f98 85b9 6614 07b9 d90d 1d3c ce3a 923d
00000040: dc91 ef3d 6b94 433d 7f35 b63e 1280 0bb9
00000050: 2fdc 503d 6145 6e3e db53 ab3d 3457 373d
00000060: b594 d93d 1010 74ba ae32 efbb 4363 b23c
00000070: 3527 3c3e c61d da3d a069 f538 b4df 9c3a
00000080: e3b2 d83d 46c1 25be ed9e 6e3d 69c1 473c
00000090: 1df7 23bc 2e1f cc3d 3b81 793c 3085 583b
000000a0: f072 65b9 ded7 243c ed76 babd c8c0 f13d
000000b0: fbde f139 47a5 5d3c bcab c9b7 072a 1e3b
000000c0: 4894 e33c af78 553d 3305 013d e58f cd3c
000000d0: 08e0 823d f149 063c fd11 333a cd33 caba
000000e0: 7517 bc3c c528 a03c 9fd0 f33c aa06 933d
000000f0: 9a60 32bc ce59 aa3c 0fd1 c23d 028b 2f39
00000100: ae33 8537 8a33 843c 454f d33d 68b1 823e
00000110: c4e7 703c 8557 dbb8 7f0c 4e3d ac07 d43a
00000120: ae46 a53c 5cd2 643e ec5a 693d 8538 c6bb
00000130: 84d7 953d 8d07 5f3d 9a8f 17bb a529 e43d
00000140: ac53 3a3d 9210 643e 803f 963d c259 183c
00000150: d3e5 ce3d 57c5 043d da13 6e3d bc18 dc3c
00000160: 280d af3e c2f3 373d 9dbd ec3c 3ec5 473e
00000170: 88e4 913d 7300 7a3d fab4 533c 9d9d 7f3b
00000180: 0779 c8be 3370 e83d 7732 893d 0422 6b3c
00000190: 3454 5dbb a053 1e3d 35b4 213d 5b8e 4a3d
000001a0: e4cd 623b c3b6 d4bb 3461 9abb b3f2 083c
000001b0: 62f0 493d 4f5d 7d3d b4ba 293d 1cd8 0f3d
000001c0: e9af d13c 2986 a43b 7cbe 673d c2dc 7d3b
000001d0: ccd8 853d ea30 273d 830b 2abc b9d7 6b3b
000001e0: fe8e 483d 3305 3fbc 4b2a 853c f363 003e
000001f0: 4131 c83c 7ab4 ebbc cefc d23b b8ad 6039
00000200: d4d2 3e3c 1696 163c f3af 89bb 1251 6e3c
00000210: 15f8 db3c cc35 8e3b 670f ad3c a998 583d
00000220: 0c32 3b3d 8f96 213e dcac 653c 35af cc3d
00000230: 1ae8 f83c 88db b33c bf42 273c 3610 f03d
00000240: 830e 453d e35c 9f3c 5f17 953e 4ee8 7d3d
00000250: 814b 68bc ebc7 723e 06c3 e03c 485c 373d
00000260: 5cc9 cb3d 4fd2 883e 8195 e43d f9e8 fa3d
00000270: 2218 873c 1d4e 79bc bf99 623e 92c1 74bb
00000280: 2de0 d43c 828f 273e 95f3 823c 9a38 7a3e
00000290: 0783 973c 549d 433c 07ac ca3c 6f0b ddb8
000002a0: 5e85 6f3d 5589 1e3d 67e0 833d ce79 f9ba
000002b0: c1bf 553c 6299 fa3d 9607 ab3c 5cad 533c
000002c0: be68 863c 06a9 913c 9e33 de38 265d 893c
000002d0: 8e02 a33d 2bc2 533c 6d6e 0b3d 9ba0 d83c
000002e0: 55f4 2438 ec81 a83b c9ab 903c 4872 bbbc
000002f0: 8d5f 263d 1d01 8f3b b24b 9f3d e62a e5b9
00000300: 996c 793c 1e0f ce3c d962 1c3d b387 763c
00000310: 1329 5e3b a23b a13c 7621 ac3c a38e e139
00000320: 9e7e b73d add2 ed3b de54 973d 8d01 23bc
00000330: bd58 8e3c a1d2 1c3d 580a 913b 8041 543d
00000340: f317 8d3c cbc9 843d 7ff4 193d cbcd fd3c
00000350: 9c73 253c d1ac e53c 8e2f df3c a953 e23b
00000360: 2a8d 63bb 1719 9d3d cf61 883e 265f a03c
00000370: a607 ee3d bc28 963d fcdc 9cbb 1376 383d
00000380: 8225 413a 20ea bb39 1763 bc3c d7f2 fc3c
00000390: e54e b13c 565f b43d 45f4 8b3c 3642 10b9
000003a0: 4bb6 3b3c 31a8 24bc 0ee8 cc3c 4ca9 323d
000003b0: b04c 123d 32e9 603c 54a4 833c ecda 013d
000003c0: 9014 4f3c cd65 f03c fffd 023c 75ae cd3c
000003d0: 8138 523d 6c47 0339 358e e43d aa48 5d3d
000003e0: e125 963d a582 973d ebe1 b23c 8856 d73d
000003f0: 3654 71bc 70f8 ac3d b531 1239 7928 743c
0.119033106 0.13186379 0.0815827 0.073942356 0.025015926 0.034591448 0.010818284 0.06333335
0.1497298 0.038245063 0.021875976 -0.00021816454 -0.00025481122 -0.00012882202 0.009585821 0.07140122
0.11697742 0.047748964 0.3558769 -0.00013303783 0.050991233 0.23268653 0.083656035 0.044760898
0.10624067 -0.0009310255 -0.0072997427 0.021775847 0.18374331 0.1065021 0.000117021846 0.0011968524
0.10580995 -0.16187009 0.058257032 0.012192109 -0.010007647 0.099668846 0.015228565 0.003303837
-0.0002188196 0.010061232 -0.091047145 0.11804348 0.00046133235 0.013528175 -2.4041037e-05 0.0024133937
0.027780667 0.052117046 0.0314991 0.025093028 0.06390387 0.00819634 0.00068309886 -0.0015426815
0.022960404 0.01955069 0.029762564 0.071790054 -0.010887289 0.020794775 0.09512531 0.00016741085
1.58789e-05 0.016137857 0.10317854 0.25525975 0.014703695 -0.000104590355 0.050304886 0.0016176603
0.020175304 0.2234587 0.056971475 -0.006049218 0.07316497 0.05445056 -0.0023126365 0.111407556
0.045489952 0.22271946 0.073363304 0.009298744 0.10102429 0.03241476 0.0581244 0.026867263
0.34189725 0.0449102 0.028899008 0.19508836 0.07123667 0.061035585 0.012921566 0.0039003857
-0.39154837 0.11349525 0.066990785 0.014351372 -0.0033772113 0.03865397 0.0394785 0.049452167
0.0034607584 -0.0064915135 -0.0047112945 0.008358645 0.049301513 0.061856564 0.04143782 0.035118207
0.025596576 0.005020876 0.056578144 0.0038736318 0.06535491 0.040818132 -0.010378721 0.0035986735
0.048964493 -0.011658954 0.016255518 0.12538128 0.024437549 -0.028772581 0.006438828 0.0002142702
0.011646945 0.009191057 -0.004201883 0.014545696 0.026851693 0.004339909 0.021125508 0.052879963
0.045702025 0.1578009 0.014018264 0.099943556 0.030384112 0.021955267 0.010208785 0.11721842
0.048109543 0.019453472 0.29119393 0.06198912 -0.014178158 0.23709075 0.027436744 0.04476574
0.09950516 0.26722953 0.11161328 0.12251467 0.016491 -0.015216378 0.22128962 -0.0037346822
0.025985802 0.16363338 0.01598529 0.24435654 0.018495096 0.011939365 0.024740232 -0.00010540231
0.0584768 0.03870519 0.06439286 -0.0019033493 0.013046206 0.12236287 0.02087764 0.01291975
0.016407367 0.017780792 0.00010595399 0.01676805 0.07959472 0.012924711 0.034040857 0.02644377
3.93282e-05 0.005142441 0.017660039 -0.022881642 0.040618468 0.0043641464 0.077781096 -0.00043710246
0.015223646 0.025153693 0.038180206 0.015047002 0.0033898994 0.019681755 0.02101205 0.00043021617
0.08959697 0.0072577805 0.07389234 -0.0099491 0.017376298 0.03828681 0.004426282 0.05182028
0.017223334 0.064838015 0.037586685 0.030981919 0.010098364 0.028036507 0.027244356 0.0069069457
-0.0034721592 0.07670801 0.26637122 0.01957662 0.116225526 0.07331988 -0.0047870856 0.04503448
0.0007367955 0.00035841856 0.022996468 0.030877514 0.021644065 0.088072464 0.01708425 -0.00013757576
0.011457036 -0.010049866 0.025012996 0.043618485 0.035717666 0.013727473 0.016069569 0.03170292
0.01263918 0.029345417 0.007995128 0.025107602 0.051323418 0.0001251974 0.11159936 0.054024376
0.073314436 0.07397965 0.021836242 0.105145514 -0.01472955 0.08445823 0.00013942162 0.014902228

bn1.running_mean f4 [400]
00000000: a4b6 d640 7c99 4940 b99d f740 bcc3 c93f
00000010: 2936 1640 4b70 f23f 7604 823f 6975 fb3f
00000020: fdc7 9a3f 9e57 6b40 a2cc be3f 78f7 e53e
00000030: 3244 3040 77b4 b43e 17cb ea3e 4f47 1140
00000040: 5554 4a3f 2b9e 6240 9b39 5b41 cab1 9b40
00000050: 529a b140 f113 1642 4bc2 5f40 004b 7b3e
00000060: 1620 333f e459 733d 7f8d 5f41 e930 f53e
00000070: 3dbe a63f f6cf 9540 cc9a 1c41 dd19 ab3e
00000080: acd8 803f d3ab 8f40 d039 b53f 0fa8 fa3e
00000090: 4657 1b3e 1f1a 8d3f e0b8 033f 6921 c640
000000a0: 8bf6 2540 e241 b540 f7ad 253f f01d 0341
000000b0: 9501 123d b323 df3f e851 3a40 71bf 353f
000000c0: 982a c740 b612 2141 eae5 2140 232f ec3f
000000d0: 687d fc40 f4b6 913e 1107 a23d f1ef 0a38
000000e0: 302b 0f40 249f 7640 2351 a140 cb00 1540
000000f0: 8a4a 893f 95b1 5140 e7c0 a040 3422 2341
00000100: 9bda fb41 4745 f63f 056c 9040 1ded 8c3f
00000110: c957 6640 8e43 1d40 e9cb 033f 52da 643e
00000120: 233c 2d3f e611 1642 c445 2e40 c07b d13e
00000130: f937 3d3f 338c 343f b1d3 023e 1c36 3e3e
00000140: 2ac7 8640 5c28 2840 f468 4a3d 0d2a db3e
00000150: 175d 293f e147 9f40 cb43 923f 268c dc41
00000160: 9126 b941 699d 123f 542e bd40 c5ea a63f
00000170: 3c08 3440 5132 2f3f 2557 e03e 0cbd a03d
00000180: b7b3 6d40 d64e af41 9794 0341 0c30 183c
00000190: 94f5 2340 faec 7b40 634f 713c 4639 3f40
000001a0: 4de4 e23f c14a 6d3e 6b3b 443e c0b2 943f
000001b0: 694a 2a40 5458 d73f a5f4 2b40 8269 6640
000001c0: 233f 3e3f ec0e cb3d 8895 8940 8841 873e
000001d0: 6bd7 2e40 6378 8f3e 2644 3540 6486 6f40
000001e0: d818 db3f 9468 153f f9bb 373f 13b9 983f
000001f0: f581 8d3e 20c1 a63f 2c89 9740 1f44 6841
00000200: e997 6e3f 8d02 9740 b6cb af3e 099b ee3f
00000210: d5bc ad40 cff0 0d41 9ec3 403f d5cb ca3f
00000220: 689f db3f ba1a a941 8beb 9940 6342 7b40
00000230: 4d88 8d3e 4887 b43e 6f30 b33e 2dbe 0941
00000240: 3367 4340 460a 8940 e836 1642 bc2a ab3e
00000250: 4a01 963f 569f fe41 9320 b140 51b7 0f40
00000260: 8db5 2a40 0c9e a240 fd32 f23e 5169 3740
00000270: cf97 0c3f 5721 493f 1829 3440 407f de3f
00000280: f923 f53f 018d 8d3f 5798 5540 24c4 d040
00000290: 67c9 8f3f e609 1d3e 3536 f83e bdf3 0f41
000002a0: 3096 c640 ce52 e03f 1717 6a40 7acb ab3d
000002b0: 661e d63f 7780 b53f cf46 1040 a3d5 4a3e
000002c0: f3dc 9c3e c7a6 a43e 30e2 1c3f cb07 363f
000002d0: 14bd 7a40 a56a e240 44b5 0a3f 4027 5140
000002e0: 0400 0000 bba6 5b3e 9b10 a140 1c20 303e
000002f0: 84b6 be3e ffee 1d41 cdff 2f3f e3bb 163f
00000300: 504c be3f da88 703f 3f95 e840 e2b7 be40
00000310: f208 9a3e a078 023e 87e4 a63f b2e4 f240
00000320: 4ce5 5f40 46ca 0b40 7530 b93e 4428 e73e
00000330: 7000 863f 4180 0541 5604 e73e 07e8 0c40
00000340: d3d4 2340 0f1c 4840 c508 0741 f37f e93f
00000350: 7819 2b40 bebe 0c3f e64d 8a40 29df fa3f
00000360: f1bb 3e3d b9be 343e a839 9a41 2a77 293f
00000370: a78d 2940 6f11 4040 c7e5 443f b94e de3f
00000380: cf8d 2a40 b457 b73f 4410 9e3e f221 833e
00000390: 0afa 8a3f 8de6 3540 8b11 a53f f3da 933e
000003a0: 7ed1 593e 7cb1 773e 19c3 f03e 7d0b 0541
000003b0: f42b 4b3f cbb0 9d3e 11c1 073f 36d6 1440
000003c0: 3490 e040 c1f4 4740 5960 263f 2ba9 3940
000003d0: eaf7 753e 8ae3 d93e a744 8540 55b6 3940
000003e0: 3c80 cc40 1566 9b3f 4feb cc3f 892c 5640
000003f0: 6e40 7b3e 143f 193f ec48 153e 9149 233f
6.709795 3.149993 7.7380033 1.5762858 2.3470557 1.8940519 1.0157611 1.9645206
1.2092282 3.6772227 1.4906199 0.44915366 2.7541623 0.35293934 0.4585807 2.2699773
0.7903493 3.5409038 13.701564 4.865453 5.550088 37.519474 3.4962337 0.24540329
0.69970834 0.0594119 13.972045 0.47888878 1.3026806 4.681636 9.787792 0.3341817
1.0066123 4.4897246 1.4158268 0.48956344 0.15170011 1.1023597 0.5145397 6.1915784
2.5931728 5.6642923 0.64718574 8.194809 0.03564604 1.743277 2.9112492 0.7099524
6.2239494 10.067068 2.5296578 1.8451885 7.8903084 0.28459895 0.07911504 3.3125227e-05
2.237011 3.8534632 5.0411544 2.3281734 1.0725873 3.2764637 5.0235476 10.19585
31.48174 1.9239892 4.513186 1.1009861 3.599108 2.4572482 0.5148302 0.22348908
0.67669886 37.51748 2.7230082 0.40914726 0.7391353 0.7052643 0.12776066 0.18575329
4.211812 2.6274633 0.049416497 0.4280552 0.6615767 4.9775243 1.1426939 27.568432
23.143831 0.5727144 5.9119053 1.3040396 2.8130026 0.6843615 0.43816486 0.07848558
3.714094 21.913494 8.223777 0.009288799 2.561864 3.936339 0.0147284 2.9878707
1.7725922 0.23173048 0.19163291 1.161705 2.6607916 1.6823831 2.686807 3.6001897
0.7431509 0.099149555 4.2995033 0.26417184 2.731898 0.28021535 2.8322845 3.7425776
1.7116957 0.583627 0.717712 1.193148 0.27638212 1.3027687 4.7354946 14.516631
0.93200547 4.7190614 0.34335107 1.8641063 5.429301 8.871291 0.7529849 1.5843455
1.7158022 21.13805 4.810003 3.925927 0.27643052 0.3525946 0.3499789 8.60893
3.0531738 4.282504 37.55362 0.3343104 1.1719143 31.8278 5.5352263 2.2455637
2.667331 5.081793 0.47304526 2.865803 0.5491914 0.785665 2.8150082 1.7382584
1.9151603 1.1058656 3.337423 6.523943 1.1233338 0.15335807 0.48478857 8.997006
6.2058334 1.752527 3.6576593 0.083884194 1.6728027 1.4179829 2.2543218 0.19808058
0.3063732 0.3215849 0.61282635 0.7110564 3.9177904 7.075518 0.5418284 3.2680206
6e-45 0.21450321 5.033277 0.17199749 0.37248623 9.870849 0.68749696 0.5888044
1.4867039 0.9395882 7.2682185 5.9599466 0.3008495 0.12741327 1.3038491 7.590417
3.4983702 2.1842208 0.36169782 0.45147908 1.0468884 8.343812 0.45120496 2.2016618
2.5598648 3.1267126 8.439641 1.8242172 2.6734295 0.5497855 4.322009 1.9599353
0.046565954 0.1765088 19.278152 0.66197455 2.6492708 3.001064 0.7691311 1.7367774
2.6649053 1.432364 0.30871785 0.25611836 1.0857556 2.8421967 1.2895979 0.28877982
0.21271321 0.24188799 0.47023848 8.315305 0.7936394 0.30798945 0.5302897 2.3255744
7.017603 3.1243136 0.64990765 2.9009502 0.24020353 0.4255641 4.1646304 2.9017537
6.3906536 1.2140528 1.600931 3.3464682 0.24536297 0.59861875 0.14578599 0.6378413
