Udacity/Deep Reinforcement Learning Nano Degree/Collaboration and Competition/model/checkpoint_critic_local_0.pth (torch_old, 575065 bytes, 9 tensors)

fcs1.weight f4 [400, 52]
-0.16572537 1.0167816 0.035932332 0.1432949 0.18608898 0.117654026 -0.022910379 0.13798338
0.18724191 1.1365347 0.015090563 -0.06488825 0.098945774 0.53324825 0.0006636375 -0.063381925
0.57234436 1.0771998 -0.008029029 -0.08369986 0.038670857 0.8865687 0.00019938273 -0.08512125
0.018446537 0.15769932 0.017571272 0.007340058 -0.17374106 0.06300971 -0.032673527 0.06444969
0.2145049 0.25073037 -0.02972209 0.019794337 -0.1083343 0.48005274 -0.0014606657 0.024254574
0.33033618 0.38749355 -0.0111590875 0.02338191 -0.01967938 0.8342701 -0.016554989 0.0008759474
3.1323311 -0.11212465 0.77045566 -0.68245995 0.045772463 0.5582709 -0.009066043 0.065955386
-0.7049957 0.16119997 0.021637885 0.038638946 0.13819534 1.0855484 0.03444127 0.3016508
-1.9183084 -0.1388011 -0.005316857 0.26639163 0.07241758 1.1262462 0.030047495 0.14950922
-1.4250873 -0.085982144 -0.029044962 0.11095365 -0.043077964 -0.2185274 0.023263415 -0.017480494
0.7122053 0.10114069 -0.004222134 0.04771236 0.022219827 -0.15841515 0.037610047 -0.021275742
1.8964576 -0.1348943 -0.01646062 0.04410376 0.1155371 -0.37337932 -0.059511922 -0.078968935
1.3987883 -0.1222501 0.036875825 -0.12796606 0.50259835 0.3172744 -0.17850119 0.091855
-0.2630166 0.5543433 0.024353376 -0.05782611 -0.05537018 0.055622432 0.014568926 -0.029749157
-0.5043996 0.47600847 -0.026306108 -0.017377263 0.21519303 -0.2709892 -0.008136 0.025256144
-0.77958715 0.3770199 -0.03194573 0.065296896 0.746876 -1.1903043 -0.020655615 0.0819776
0.082847744 -0.014294893 -0.008538253 -0.03814907 0.09553848 0.050618548 0.013140605 -0.008578391
0.10804263 -0.048633456 -0.002499871 -0.010255275 -0.22229107 -0.3184109 0.024084533 0.055227943
-0.13723145 -0.05443631 0.009949301 0.045606233 -0.7508205 -1.2030405 -0.0021216138 0.061927307
0.025520101 -0.045512237 -0.49387053 0.3751919 0.17081407 0.34787902 0.046226766 -0.3107138
0.26400292 -0.10837605 0.071962714 -0.3113963 0.080818266 0.16178188 0.14058451 -0.13027975
0.2448498 -0.15597135 0.071855456 -0.1138121 0.30553272 0.22352563 -0.05651892 0.19429575
0.461864 -0.58919466 -0.033344176 0.19227716 0.5997678 1.3256361 0.06671138 0.16849466
-0.34502298 -0.14012927 0.07517444 0.092061885 0.34501624 1.1668868 -0.038716923 -0.06774938
-0.31134972 -0.15249467 -0.042704623 -0.05105146 0.37246245 1.2665272 -0.11864827 0.50119364
-0.50948495 -0.6078229 -0.114615075 0.5562506 -0.21279128 -1.0561289 -0.9942584 -0.3520492
0.11902034 -0.18071906 -0.021030542 0.008449091 0.501432 0.5127697 -0.0061831614 0.036342885
0.41785538 0.16303502 -0.0041056387 -0.061000384 0.05557429 0.035752114 0.00386952 -0.023848413
0.56837875 -0.28234938 -0.037214115 0.037256993 -1.1685041 -0.48479015 0.03593004 -0.016733026
0.1505512 -0.16842899 0.035395183 0.021507433 -0.51876634 0.5662076 -0.04088533 -0.01647274
0.31360295 0.03726088 -0.016840992 -0.043390553 -0.08313279 0.04058087 -0.033468593 -0.034815192
0.41078234 -0.021155871 -0.0018069447 -0.06591948 1.198005 -0.5265568 -0.015236478 -0.08083665
00000000: e9b3 29be e625 823f c82d 133d e6bb 123e
00000010: 1c8e 3e3e 98f4 f03d 8cae bbbc 844b 0d3e
00000020: 58bc 3f3e f879 913f 693e 773c 21e4 84bd
00000030: 15a4 ca3d f582 083f f5f7 2d3a 62ce 81bd
00000040: 2985 123f afe1 893f 308c 03bc d56a abbd
00000050: 5565 1e3d 2bf6 623f 6511 5139 0d54 aebd
00000060: 311d 973c ee7b 213e a1f1 8f3c df84 f03b
00000070: 2de9 31be 3c0b 813d add4 05bd 33fe 833d
00000080: 2ca7 5b3e bb5f 803e be7b f3bc bc27 a23c
00000090: 60de ddbd 79c9 f53e cf73 bfba 87b1 c63c
000000a0: d321 a93e 8e65 c63e 9bd4 36bc 6b8b bf3c
000000b0: a736 a1bc ba92 553f 549e 87bc d69f 653a
000000c0: 1d78 4840 9ca1 e5bd 953c 453f b2b5 2ebf
000000d0: e87b 3b3d d7ea 0e3f be89 14bc 9e13 873d
000000e0: 997a 34bf 9b11 253e ef41 b13c df43 1e3d
000000f0: 1483 0d3e 40f3 8a3f 4a12 0d3d f971 9a3e
00000100: 218b f5bf e021 0ebe 0739 aebb 7c64 883e
00000110: ab4f 943d d628 903f 2a26 f63c f218 193e
00000120: 4369 b6bf 6817 b0bd b3ef edbc ab3b e33d
00000130: 8572 30bd a6c5 5fbe eb92 be3c 4133 8fbc
00000140: 1653 363f da22 cf3d d459 8abb 096e 433d
00000150: 5b06 b63c 9537 22be fe0c 1a3d 774a aebc
00000160: 1fbf f23f bb21 0abe 6cd8 86bc 25a6 343d
00000170: b79e ec3d 932b bfbe c6c2 73bd 77ba a1bd
00000180: 7f0b b33f 435e fabd 1b0b 173d 8909 03be
00000190: 49aa 003f ca71 a23e 04c9 36be 791e bc3d
000001a0: 1daa 86be 71e9 0d3f bb80 c73c 12db 6cbd
000001b0: d8cb 62bd 59d4 633d 81b2 6e3c 81b4 f3bc
000001c0: 5520 01bf 62b7 f33e e87f d7bc c35a 8ebc
000001d0: 905b 5c3e 19bf 8abe db4c 05bc f9e5 ce3c
000001e0: 0693 47bf c108 c13e 87d9 02bd 61ba 853d
000001f0: 4433 3f3f e45b 98bf f735 a9bc dfe3 a73d
00000200: 14ac a93d 2035 6abc 07e4 0bbc 3342 1cbd
00000210: aea9 c33d 6555 4f3d b14b 573c 618c 0cbc
00000220: 7445 dd3d e033 47bd e0d4 23bb be05 28bc
00000230: 45a0 63be c106 a3be ed4c c53c b236 623d
00000240: 6786 0cbe 9cf8 5ebd 6502 233c 9acd 3a3d
00000250: c635 40bf 3bfd 99bf c60a 0bbb 7da7 7d3d
00000260: 880f d13c 0a6b 3abd 99dc fcbe 2719 c03e
00000270: e2e9 2e3e 331d b23e 4758 3d3d e115 9fbe
00000280: 642b 873e 43f4 ddbd 3061 933d 566f 9fbe
00000290: 0c84 a53d 26aa 253e 63f5 0f3e 0e68 05be
000002a0: e8b9 7a3e f4b6 1fbe f428 933d 5116 e9bd
000002b0: c96e 9c3e e7e3 643e 6280 67bd 77f5 463e
000002c0: 7079 ec3e 76d5 16bf e793 08bd 4ee4 443e
000002d0: 628a 193f 72ae a93f fa9f 883d dd89 2c3e
000002e0: daa6 b0be 0c7e 0fbe 0ff5 993d f18a bc3d
000002f0: f8a5 b03e 8c5c 953f a395 1ebd 30c0 8abd
00000300: 3b69 9fbe 9027 1cbe 0beb 2ebd 561b 51bd
00000310: 66b3 be3e 901d a23f ddfd f2bd 3a4e 003f
00000320: 9b6d 02bf 489a 1bbf 4fbb eabd 7066 0e3f
00000330: f5e5 59be 3b2f 87bf b887 7ebf cb3f b4be
00000340: f0c0 f33d 6b0e 39be 3e48 acbc 0e6e 0a3c
00000350: d95d 003f e044 033f 1e9c cabb 47dc 143d
00000360: 24f1 d53e a7f2 263e 9888 86bb 8adb 79bd
00000370: dea1 633d cf70 123d c697 7d3b bf5d c3bc
00000380: 4581 113f 1990 90be d46d 18bd ca9a 183d
00000390: 8b91 95bf 6a36 f8be 612b 133d b313 89bc
000003a0: 182a 1a3e a678 2cbe 8afa 103d 5b30 b03c
000003b0: dfcd 04bf fbf2 103f 6077 27bd d7f1 86bc
000003c0: 9190 a03e dd9e 183d 1ff6 89bc 4bba 31bd
000003d0: 8641 aabd 2038 263d 5d16 09bd 609a 0ebd
000003e0: 1052 d23e 144f adbc 01d7 ecba cb00 87bd
000003f0: 3a58 993f 6dcc 06bf 6ca2 79bc b08d a5bd

fcs1.bias f4 [400]
-0.68904126 -0.44969732 0.6158911 -0.13974956 -1.1155612 -0.17681576 -0.2632439 -0.43528703
-0.12299957 -0.63337654 0.40655136 -0.46941897 -0.18556538 0.07218406 -0.5875699 -0.83847326
-0.62844104 0.530198 -0.00031546896 -0.33785114 -0.4511808 -0.8075156 -0.38513145 -0.6007313
-0.33610934 -0.59634596 0.027254574 -0.29230157 -0.60940725 -0.6476673 -0.15331061 0.08307764
-0.47376418 -0.13865586 -0.15956755 -0.6290964 0.058653176 0.05238979 0.009679746 -0.059490133
0.025387956 -0.59626836 -0.27050105 -0.31374332 -0.17706482 -0.13675383 -0.13603434 0.10687569
0.084767774 -0.6077167 0.29333746 -0.37301177 0.0078881355 -0.43188724 0.058747485 -0.28209984
-0.2603854 -1.1045991 -0.028719783 -0.046403103 -0.30943763 -0.22671562 -0.20383988 0.012156884
-0.42842802 0.105269164 0.15141964 0.3071197 -0.48807147 -0.43552428 -0.23765543 -0.30924964
-0.12067916 -0.5194308 -0.64338255 -0.33705282 -0.28006604 -0.20343773 -0.14472072 -0.47202107
-0.11179427 -0.16210385 -0.9544831 0.016427716 -0.50614107 -0.13771461 -0.46901062 -0.21168455
-0.40424374 0.3937444 -0.14053315 -0.36611655 -0.34441474 -0.104710236 -0.81795293 -0.17133059
-0.011564864 -0.41353422 -0.09391354 -0.18278646 -1.1150534 0.012783591 -0.22045913 0.3397224
-0.015889592 -0.1117589 0.26622802 -0.35921234 -0.31418908 -0.61338997 -1.4510636 -0.06601436
-0.79363596 -0.21802612 -0.35299233 -0.127646 -0.3861339 -0.04065717 0.00566674 -0.15895303
-0.17632742 0.07651424 -0.8200234 -0.39762488 0.019956296 -0.36527523 -0.3874085 -0.1041101
-1.2337598 -0.1792166 0.0632671 -0.18576197 -0.2300007 -0.19097091 -0.9063068 0.051383153
0.020861184 -0.1911416 -0.14572099 -0.84779316 -0.004311638 0.09982848 -0.48790407 -0.36980125
-0.2609995 0.055398166 -0.06915338 0.004642783 -0.22304507 -0.007053004 -0.35542813 -0.19765805
-0.48711753 -0.16305582 -0.84659135 -0.83421165 -0.4136194 -0.10120926 -0.39442572 -0.48851058
-0.46042687 -0.53649366 -0.4340579 -0.5637907 -0.2506129 -0.29848814 -0.2689948 -0.394836
-0.1256201 -0.21708937 -0.41209638 0.047796927 -0.31918496 -0.060997933 -0.3679501 -0.31958467
-0.44427973 0.028957674 -0.14113297 -0.0716617 -0.5421598 -0.77468413 0.030379776 -0.7175374
0.1275629 -0.537831 -0.33628854 0.0031569563 -0.27980432 -0.43815285 0.07049878 0.113728836
-0.24809894 -0.52063 -0.1929595 -0.52994686 -0.5123272 0.086578675 0.22171895 -0.40057844
-0.05791932 -1.2185817 -0.4561031 -0.09092227 -0.10335541 0.18251662 0.08621522 -0.38638055
-0.22098115 -1.2455304 -0.13651864 0.38010374 -0.33369625 -0.46114412 -0.47258368 -0.2154932
-0.16547902 -0.3939857 -0.046494003 -0.52354884 -0.046792764 -0.64478326 -0.17608738 -0.71147984
-0.10640306 -0.27822974 -0.6137303 -0.35209298 -0.2669512 -1.3587977 -0.117776416 -0.43323895
-0.63574857 -0.34381056 0.07366602 -0.3667054 -0.4444185 -0.50322455 0.1342411 -0.09808232
-0.21681838 -0.29868236 0.12986475 0.2592622 -0.14170481 0.0075326753 -0.10514136 -0.25290072
-0.22660738 -0.23657018 -0.8000072 0.025875265 -0.09857267 -0.24332023 -0.08031482 0.20020482
00000000: 0265 30bf ba3e e6be 0aab 1d3f 821a 0fbe
00000010: b6ca 8ebf 310f 35be e8c7 86be f1dd debe
00000020: 33e7 fbbd f724 22bf 8027 d03e af57 f0be
00000030: da04 3ebe 3dd5 933d fb6a 16bf 2fa6 56bf
00000040: 83e1 20bf 0ebb 073f 8765 a5b9 d3fa acbe
00000050: 2b01 e7be 58b9 4ebf f32f c5be 87c9 19bf
00000060: 8616 acbe 21aa 18bf fc44 df3c 8da8 95be
00000070: 1d02 1cbf 86cd 25bf 75fd 1cbe 9c24 aa3d
00000080: 3891 f2be cdfb 0dbe ad65 23be 760c 21bf
00000090: 503e 703d ad96 563d cc97 1e3c edab 73bd
000000a0: 67fa cf3c 0ba5 18bf 1d7f 8abe f7a2 a0be
000000b0: 7b50 35be 3209 0cbe 964c 0bbe a4e1 da3d
000000c0: ba9a ad3d 5293 1bbf 5430 963e 66fb bebe
000000d0: 3d3d 013c 5320 ddbe 34a1 703d 646f 90be
000000e0: 3c51 85be 8163 8dbf c045 ebbc 2e11 3ebd
000000f0: 9c6e 9ebe 2428 68be 67bb 50be ab2d 473c
00000100: eb5a dbbe 5c97 d73d c00d 1b3e cb3e 9d3e
00000110: 81e4 f9be 0afd debe f25b 73be f855 9ebe
00000120: a326 f7bd 6bf9 04bf b8b4 24bf 3092 acbe
00000130: d164 8fbe fb51 50be ab31 14be bfac f1be
00000140: 65f4 e4bd 8dfe 25be 0159 74bf 6b93 863c
00000150: 7692 01bf 0f05 0dbe 2922 f0be d6c3 58be
00000160: 09f9 cebe de98 c93e ece7 0fbe a173 bbbe
00000170: 2157 b0be 5272 d6bd 5d65 51bf 4971 2fbe
00000180: 8e7a 3dbc c2ba d3be be55 c0bd 602c 3bbe
00000190: 12ba 8ebf 4472 513c 0ac0 61be 18f0 ad3e
000001a0: e42a 82bc dae1 e4bd 0a4f 883e aeea b7be
000001b0: 64dd a0be 2007 1dbf 74bc b9bf 8932 87bd
000001c0: ba2b 4bbf 3d42 5fbe 69bb b4be a2b5 02be
000001d0: 58b3 c5be 2288 26bd 0fb0 b93b 95c4 22be
000001e0: 2d8f 34be 7fb3 9c3d 0eed 51bf 7d95 cbbe
000001f0: 637b a33c 5b05 bbbe 685a c6be ad37 d5bd
00000200: d7eb 9dbf 8e84 37be 2e92 813d 6338 3ebe
00000210: 4e85 6bbe e18d 43be b903 68bf 2477 523d
00000220: 13e5 aa3c a0ba 43be e237 15be f908 59bf
00000230: a448 8dbb e072 cc3d 90ce f9be 9756 bdbe
00000240: baa1 85be 30e9 623d 4aa0 8dbd 7d22 983b
00000250: ed65 64be e31c e7bb adfa b5be df66 4abe
00000260: 7867 f9be 1bf8 26be 36ba 58bf e58e 55bf
00000270: ecc5 d3be cd46 cfbd 2bf2 c9be 0f1e fabe
00000280: 12bd ebbe a657 09bf d63c debe 9654 10bf
00000290: 5650 80be 70d3 98be b0b9 89be f227 cabe
000002a0: 8ea2 00be ad4c 5ebe 4cfe d2be b6c6 433d
000002b0: 366c a3be f8d8 79bd f563 bcbe 9aa0 a3be
000002c0: a278 e3be a538 ed3c 2985 10be 5fc3 92bd
000002d0: fcca 0abf b351 46bf 02df f83c 88b0 37bf
000002e0: d99f 023e 4baf 09bf 032e acbe f0e4 4e3b
000002f0: 8342 8fbe 9255 e0be aa61 903d aaea e83d
00000300: a60d 7ebe 0248 05bf 2d97 45be 99aa 07bf
00000310: e027 03bf 2950 b13d 4b0a 633e 9e18 cdbe
00000320: cf3c 6dbd 7cfa 9bbf 5886 e9be 7535 babd
00000330: 00ac d3bd a3e5 3a3e 9b91 b03d acd3 c5be
00000340: e248 62be 8a6d 9fbf 8bcb 0bbe f59c c23e
00000350: 3cda aabe 151b ecbe 7df6 f1be 40aa 5cbe
00000360: 5573 29be 7eb8 c9be 7f70 3ebd 4c07 06bf
00000370: c5a9 3fbd 8410 25bf 4050 34be 8b23 36bf
00000380: d9e9 d9bd 2174 8ebe 6e1d 1dbf 8845 b4be
00000390: d4ad 88be 15ed adbf c334 f1bd 7fd1 ddbe
000003a0: 6bc0 22bf f007 b0be 36de 963d cfc0 bbbe
000003b0: d28a e3be 53d3 00bf 8076 093e 62df c8bd
000003c0: a305 5ebe e5ec 98be 44fb 043e 04be 843e
000003d0: 111b 11be a9d4 f63b 5a54 d7bd 347c 81be
000003e0: c40b 68be 743f 72be 46cd 4cbf 5df8 d33c
000003f0: 78e0 c9bd f028 79be 197c a4bd 7e02 4d3e

fc2.weight f4 [300, 400]
0.06653714 0.030396404 -0.0470498 0.005815459 -0.008087894 -0.06514817 -0.04752247 -0.035746805
-0.10006507 -0.04084729 -0.024622949 -0.016947862 -0.026634395 0.009126626 -0.052367453 0.018700475
-0.047409557 0.025443468 -0.12831002 -0.005475236 -0.0040598605 -0.02026355 0.0068622627 -0.019284865
-0.016630583 -0.065320596 -0.049671255 -0.09870493 0.006199745 0.0027409634 -0.020586632 -0.02002591
-0.029915297 0.06116006 -0.060888983 -0.009714193 0.033738956 -0.119195595 -0.08434591 0.02230048
-0.030235602 -0.008681006 -0.049130905 -0.02188565 0.07575521 -0.0739074 0.15898617 -0.08057417
-0.047085114 0.06461852 -0.015822725 0.0053169443 0.045601547 -0.06356158 0.05498936 0.04998717
0.011558771 0.0037508039 0.006644567 -0.050255645 -0.030703938 -0.008141701 -0.015735865 0.029948214
0.00941028 0.047888882 0.02431934 -0.036276672 -0.0038035582 -0.061570015 0.02752581 -0.02431516
-0.056929734 0.024438765 -0.05053686 0.006260787 -0.02186846 0.012223407 0.022074532 -0.04810594
0.055529423 -0.052096356 0.051113345 -0.06299054 -0.022214878 0.052125435 -0.045444 0.047732156
0.06888065 0.0062520173 0.053500134 -0.018790713 0.020124108 -0.004401811 -0.04930117 -0.020454489
0.10804286 -0.014011816 -0.045643184 -0.00082604995 -0.017272599 -0.05713341 0.042237755 -0.0046750316
0.029080994 -0.015129578 -0.016152078 0.035221823 -0.009576196 -0.00024672126 -0.009556236 -0.048856303
-0.09467239 -0.056206893 0.06427479 0.0043254825 -0.03870167 -0.0120057175 0.0451975 -0.06251829
-0.030410737 0.021681739 0.01981775 -0.006455112 -0.020532206 0.08518594 0.08001614 -0.032975905
0.01522737 0.04136189 -0.014527351 -0.02903385 0.019421158 0.031725604 -0.016416196 0.004098704
-0.032799125 0.023960497 -0.03154753 0.008466641 -0.08133463 0.023419088 -0.038250636 -0.014062448
0.039905466 -0.014744726 -0.060713083 0.050154686 0.1438698 -0.044257663 -0.05611578 0.05585864
0.0040925345 -0.07757232 -0.023323111 -0.04390474 0.0040623215 0.058813754 -0.052883115 0.066469654
0.029171258 0.01666966 -0.007881553 -0.04727425 -0.04467755 0.032477282 -0.06904379 -0.09151969
-0.08383658 -0.0034601698 -0.016387394 0.060186956 0.036026377 -0.010581282 -0.025511788 -0.024024878
-0.06283774 -0.046716515 -0.01887508 0.017032975 0.042062987 -0.055751402 0.022420622 -0.008393871
0.05229687 -0.099210694 -0.019881818 0.03592436 0.03005838 0.012406389 0.022968713 0.0076234587
0.056775868 -0.058964144 -0.11338928 -0.020687712 0.044214346 0.071905896 0.0038677147 -0.027433878
-0.023905082 0.010270262 -0.03321116 0.09392773 -0.03934525 0.02330854 -0.029612409 -0.012560715
-0.039680477 0.02623054 0.041270312 -0.019985715 0.032808926 -0.005564253 -0.025778001 0.010882234
0.11865101 -0.040668026 -0.11248029 -0.066215396 0.0029676463 0.008697144 -0.024928369 -0.047959927
0.016883323 -0.057044145 -0.06666954 -0.053775545 -0.055506017 0.015157393 -0.0816924 -0.003432684
-0.01009086 0.0073084948 -0.031482197 0.015443341 -0.035728294 0.0031734018 -0.010375526 -0.016052296
-0.010715169 -0.03850809 -0.13041925 0.023927469 0.02874526 -0.048380874 0.0137390345 -0.05655395
0.044043828 -0.009931091 0.030909525 -0.09725782 -0.003646546 -0.015809417 0.010071947 0.0026304964
00000000: a044 883d e101 f93c 4bb7 40bd 9b8f be3b
00000010: 1683 04bc 676c 85bd eca6 42bd 3e6b 12bd
00000020: eaee ccbd 7d4f 27bd 11b6 c9bc 3ed6 8abc
00000030: 6030 dabc d887 153c 417f 56bd bd31 993c
00000040: 8630 42bd d26e d03c b463 03be 9c69 b3bb
00000050: 9408 85bb bfff a5bc d5dc e03b 4bfb 9dbc
00000060: dc3c 88bc cec6 85bd 1674 4bbd cf25 cabd
00000070: 3b27 cb3b bca1 333b 4ca5 a8bc 610d a4bc
00000080: ed10 f5bc f982 7a3d ba66 79bd 4728 1fbc
00000090: dc31 0a3d d21c f4bd 8cbd acbd 7faf b63c
000000a0: a7b0 f7bc c73a 0ebc 7d3d 49bd 8949 b3bc
000000b0: 8c25 9b3d c35c 97bd 45cd 223e 1204 a5bd
000000c0: 52dc 40bd b756 843d a99e 81bc c339 ae3b
000000d0: b0c8 3a3d 932c 82bd 863c 613d 59bf 4c3d
000000e0: 0061 3d3c 0cd0 753b abba d93b ddd8 4dbd
000000f0: d386 fbbc c564 05bc 80e8 80bc f555 f53c
00000100: 932d 1a3c 2227 443d 5a39 c73c d996 14bd
00000110: 1e45 79bb d730 7cbd cf7d e13c 9630 c7bc
00000120: 272f 69bd ce33 c83c bdff 4ebd 4a27 cd3b
00000130: 7c25 b3bc af44 483c a6d5 b43c bc0a 45bd
00000140: d272 633d fd62 55bd 3a5c 513d 2f01 81bd
00000150: fafb b5bc 7b81 553d 7d23 3abd cb82 433d
00000160: 4c11 8d3d b9dd cc3b f522 5b3d fbee 99bc
00000170: 50db a43c 113d 90bb 06f0 49bd 2c90 a7bc
00000180: 9345 dd3d d191 65bc 59f4 3abd 468b 58ba
00000190: 447f 8dbc b904 6abd 7f01 2d3d 0231 99bb
000001a0: 443b ee3c 0de2 77bc 5d51 84bc c244 103d
000001b0: 7ae5 1cbc 5e5a 81b9 c291 1cbc 8c1d 48bd
000001c0: 99e3 c1bd 3339 66bd 80a2 833d c7bc 8d3b
000001d0: a485 1ebd a1b3 44bc 0421 393d 9709 80bd
000001e0: f01f f9bc e79d b13c d658 a23c 6785 d3bb
000001f0: 2833 a8bc f775 ae3d 81df a33d be11 07bd
00000200: 387c 793c 166b 293d 2004 6ebc 66d8 edbc
00000210: 1f19 9f3c b5f2 013d 427b 86bc 6c4e 863b
00000220: 6058 06bd ce48 c43c fc37 01bd abb7 0a3c
00000230: c592 a6bd 63d9 bf3c b3ac 1cbd 2f66 66bc
00000240: ea73 233d dd93 71bc 48ae 78bd 006f 4d3d
00000250: 9b52 133e 8647 35bd a9d9 65bd 07cc 643d
00000260: ab1a 863b 3dde 9ebd 1c10 bfbc 75d5 33bd
00000270: 391d 853b b1e6 703d f79b 58bd 3e21 883d
00000280: 90f8 ee3c d08e 883c a121 01bc a5a2 41bd
00000290: cfff 36bd e606 053d d566 8dbd ad6e bbbd
000002a0: 83b2 abbd 04c4 62bb db3e 86bc 9986 763d
000002b0: 6590 133d 1d5d 2dbc 19fe d0bc d2cf c4bc
000002c0: 13b1 80bd d159 3fbd e99f 9abc bd88 8b3c
000002d0: 3d4a 2c3d 955b 64bd 74ab b73c 7286 09bc
000002e0: 3e35 563d fa2e cbbd 32df a2bc 6c25 133d
000002f0: fe3c f63c 2b44 4b3c e228 bc3c 35ce f93b
00000300: d08d 683d 6384 71bd a438 e8bd 4779 a9bc
00000310: 1a1a 353d 6643 933d 7c79 7d3b 03bd e0bc
00000320: 97d4 c3bc 9a44 283c 6d08 08bd 2f5d c03d
00000330: 7c28 21bd 8df1 be3c b995 f2bc 75cb 4dbc
00000340: ff87 22bd 6ee1 d63c 0f0b 293d 15b9 a3bc
00000350: a762 063d 5654 b6bb 632c d3bc 664b 323c
00000360: 4dff f23d 8493 26bd 115c e6bd f09b 87bd
00000370: d87c 423b 777e 0e3c 9436 ccbc a171 44bd
00000380: e54e 8a3c 1fa7 69bd 0a8a 88bd bf43 5cbd
00000390: 475a 63bd b756 783c 584e a7bd e2f6 60bb
000003a0: 2254 25bc 197c ef3b 7af3 00bd 1106 7d3c
000003b0: d557 12bd d9f8 4f3b 1cfe 29bc 1b80 83bc
000003c0: ad8e 2fbc a9ba 1dbd a08c 05be 8a03 c43c
000003d0: 2e7b eb3c 062b 46bd b019 613c 1da5 67bd
000003e0: 4d67 343d 04b6 22bc f935 fd3c 1c2f c7bd
000003f0: e4fa 6ebb c082 81bc cf04 253c 6864 2c3b

fc2.bias f4 [300]
-0.13880138 -0.17686714 -0.0026992024 -0.13793805 -0.16990547 -0.15322399 -0.16998059 -0.18080935
-0.18888988 -0.08200816 -0.1539803 -0.16185424 -0.124398164 -0.13714515 -0.15477459 -0.19139259
-0.09950096 -0.20516077 -0.13016853 -0.27058744 -0.13621259 -0.11881843 -0.05002374 -0.16624996
-0.2104196 -0.1392838 -0.16088524 -0.121881194 -0.10782195 -0.14852485 -0.19799346 -0.13595323
-0.2067484 -0.15539649 -0.17637405 -0.12637231 -0.2262876 -0.22772384 -0.13739143 -0.17113174
-0.18636252 -0.14698248 -0.23870829 -0.14239265 -0.13894217 -0.17767948 -0.20886815 -0.107631624
-0.1492379 -0.24177782 -0.18643636 -0.15993187 -0.17757556 -0.1289585 -0.13469227 -0.18144514
-0.18797937 -0.114981025 -0.14025104 -0.16049527 -0.10610082 -0.108817965 -0.23789102 -0.01031272
-0.121545516 -0.1412279 -0.12446371 -0.14534375 -0.14099368 -0.26650017 -0.19104318 -0.15611155
-0.13343938 -0.15552732 -0.12069737 -0.19467184 -0.20646252 -0.18368268 -0.17358324 -0.15944478
-0.12437864 -0.21237257 -0.221641 -0.14326952 -0.119544275 -0.120102204 -0.22339872 -0.0922255
-0.1865014 -0.18313624 -0.19885437 -0.12311052 -0.16377017 -0.11919989 -0.20050806 -0.15549208
-0.19858254 -0.15725598 -0.17683049 -0.1634706 -0.17728628 -0.29761687 -0.09659542 -0.07800614
-0.078291774 -0.11471048 -0.14353244 -0.12294279 -0.1457956 -0.087403715 -0.13935007 -0.12660493
-0.1589602 -0.23819436 -0.1542919 -0.14865717 -0.13578972 -0.16088521 -0.1682297 -0.12902951
-0.1489164 -0.13767003 -0.16950956 -0.13113187 -0.07234972 -0.1874671 -0.1328397 -0.11127413
-0.18503834 -0.12029614 -0.21383125 -0.11333487 -0.13502179 -0.16825338 -0.22036655 -0.0800942
-0.15140235 -0.1501708 -0.12878233 -0.1375063 -0.12079238 -0.14569914 -0.14974824 -0.15350267
-0.10013145 -0.15816292 -0.08230088 -0.20957312 -0.3044388 -0.12459912 -0.100029014 -0.13154848
-0.08319437 -0.08715718 -0.12282551 -0.11033768 -0.16942355 -0.18318707 -0.15433134 -0.15607767
-0.14892027 -0.16814773 -0.15467665 -0.21618022 -0.14889525 -0.16788591 -0.105770275 -0.08066034
-0.15234658 -0.19190356 -0.10780716 -0.08592091 -0.16243295 -0.16042936 -0.18865262 -0.10765266
-0.1254175 -0.12776849 -0.1737154 -0.16142452 -0.15340392 -0.13349266 -0.12756577 -0.11688939
-0.079802155 -0.12185292 -0.15133852 -0.10443381 -0.100252405 -0.13400921 -0.17911838 -0.15250759
-0.2247032 -0.2884079 -0.12254194 -0.10511776 -0.22184914 -0.15701906 -0.15171008 -0.16622618
-0.2210388 -0.16501147 -0.12512729 -0.16166952 -0.21298943 -0.22602184 -0.15372573 -0.1766816
-0.12836736 -0.17589259 -0.17585783 -0.11635323 -0.12982936 -0.15187018 -0.17532475 -0.1615257
-0.20753382 -0.15831302 -0.2950321 -0.20840101 -0.095976666 -0.08895821 -0.26581076 0.13211763
-0.15729477 -0.26404873 -0.12832482 -0.18069015 -0.06654524 -0.18804133 -0.19507872 -0.17943583
-0.20530102 -0.1424949 -0.15263838 -0.13331485 -0.18510151 -0.14664236 -0.14252162 -0.16140723
-0.19974056 -0.18336359 -0.11638588 -0.0028473404 -0.15631141 -0.108824536 -0.18967687 -0.1566097
-0.16984403 0.0068976167 -0.337836 -0.11973226 -0.085168906 -0.24644583 -0.16162387 -0.15492307
00000000: f321 0ebe a91c 35be 1ae5 30bb a23f 0dbe
00000010: b3fb 2dbe c0e6 1cbe 640f 2ebe 1626 39be
00000020: 596c 41be e5f3 a7bd 03ad 1dbe 1ebd 25be
00000030: 77c4 febd c76f 0cbe 3b7d 1ebe 6bfc 43be
00000040: 29c7 cbbd aa15 52be e64a 05be 708a 8abe
00000050: 507b 0bbe 1457 f3bd b1e5 4cbd 6e3d 2abe
00000060: 3c78 57be 6aa0 0ebe 1abf 24be d99c f9bd
00000070: c1d1 dcbd e616 18be ccbe 4abe 5337 0bbe
00000080: dab5 53be 4220 1fbe 669b 34be be67 01be
00000090: f0b7 67be 7030 69be 57b0 0cbe 293d 2fbe
000000a0: d1d5 3ebe 9382 16be f26f 74be 61cf 11be
000000b0: db46 0ebe 9cf1 35be 88e1 55be f86d dcbd
000000c0: d2d1 18be 9b94 77be 2ce9 3ebe 2ec5 23be
000000d0: 5ed6 35be b20d 04be c5ec 09be c1cc 39be
000000e0: aa7d 40be 2c7b ebbd f89d 0fbe df58 24be
000000f0: 634b d9bd f4db debd b499 73be aff6 28bc
00000100: dbec f8bd 0c9e 10be d4e6 febd fed4 14be
00000110: a660 10be b672 88be d3a0 43be b5db 1fbe
00000120: 55a4 08be 8e42 1fbe 2f30 f7bd 0e58 47be
00000130: e96a 53be 5017 3cbe cebf 31be 7e45 23be
00000140: 3aba febd 3278 59be dcf5 62be 3fb5 12be
00000150: a1d3 f4bd 25f8 f5bd a2c2 64be b9e0 bcbd
00000160: 39fa 3ebe 1188 3bbe 7ba0 4bbe 5e21 fcbd
00000170: 5eb3 27be 121f f4bd fc51 4dbe 5139 1fbe
00000180: 3959 4bbe b607 21be 0d13 35be d664 27be
00000190: 898a 35be 3d61 98be d2d3 c5bd afc1 9fbd
000001a0: 7057 a0bd 54ed eabd 2bfa 12be 6ec9 fbbd
000001b0: 714b 15be b800 b3bd c9b1 0ebe b9a4 01be
000001c0: 76c6 22be 39e9 73be b2fe 1dbe 9639 18be
000001d0: 760c 0bbe 18bf 24be 6844 2cbe 5020 04be
000001e0: 8a7d 18be 5ff9 0cbe ea93 2dbe 6f47 06be
000001f0: 172c 94bd 60f7 3fbe 2107 08be b1e3 e3bd
00000200: b17a 3dbe d35d f6bd 94f6 5abe 1d1c e8bd
00000210: 2743 0abe 9d4a 2cbe c5a7 61be 6e08 a4bd
00000220: 3809 1bbe 60c6 19be 84df 03be 74ce 0cbe
00000230: ff61 f7bd 2832 15be 9a57 19be ce2f 1dbe
00000240: b811 cdbd 76f5 21be 5d8d a8bd 569a 56be
00000250: 67df 9bbe d32d ffbd 03dc ccbd a5b4 06be
00000260: cf61 aabd 777f b2bd f18b fbbd b9f8 e1bd
00000270: 5e7d 2dbe 6495 3bbe 0909 1ebe d3d2 1fbe
00000280: 8e7e 18be eb2e 2cbe 8e63 1ebe 595e 5dbe
00000290: ff77 18be 49ea 2bbe 169e d8bd 4031 a5bd
000002a0: be00 1cbe 5e82 44be 00ca dcbd 4df7 afbd
000002b0: d354 26be 9847 24be 272e 41be ff78 dcbd
000002c0: 726d 00be bed5 02be 73e2 31be 784c 25be
000002d0: eb15 1dbe 4db2 08be 9aa0 02be b463 efbd
000002e0: 506f a3bd 068e f9bd 7cf8 1abe 65e1 d5bd
000002f0: 2251 cdbd b639 09be cf6a 37be f32a 1cbe
00000300: 9818 66be 33aa 93be 45f7 fabd fb47 d7bd
00000310: 6c2c 63be 9bc9 20be e359 1bbe 3237 2abe
00000320: ff57 62be c4f8 28be 5e21 00be b28c 25be
00000330: e719 5abe 4572 67be 476a 1dbe 05ec 34be
00000340: bc72 03be 301d 34be 1314 34be 9a4a eebd
00000350: fdf1 04be db83 1bbe 5588 33be fe66 25be
00000360: bf83 54be cf1c 22be 730e 97be 1367 55be
00000370: 6a8f c4bd b92f b6bd 5918 88be d849 073e
00000380: e111 21be 6531 87be 9567 03be d706 39be
00000390: df48 88bd e88d 40be b7c2 47be 07be 37be
000003a0: 6e3a 52be 2fea 11be 3c4d 1cbe b083 08be
000003b0: 408b 3dbe 6a29 16be 30f1 11be f047 25be
000003c0: ca88 4cbe aac3 3bbe b85b eebd 729a 3abb
000003d0: 1910 20be 66df debd a73a 42be 4b5e 20be
000003e0: 98eb 2dbe 6705 e23b d7f8 acbe 3036 f5bd
000003f0: 096d aebd 4c5c 7cbe ba80 25be 27a4 1ebe

fc3.weight f4 [1, 300]
-0.014983928 0.0140981395 0.023310434 0.002438318 -0.0014298495 0.007074655 -0.0062620244 -0.009408733
0.0014236285 0.009919353 0.0062925294 0.021338837 -0.02702244 0.0012834178 -0.00041306013 0.008246217
-0.00074571645 -0.021298181 0.00046614214 -0.032721527 0.007103381 0.006907711 0.026484549 -0.030984776
0.024435513 -0.015785864 -0.0059706494 -0.0020843172 -0.012421644 -0.001057171 0.006591163 -0.017253222
-0.016432853 -0.016050234 0.0087569 -0.014414856 0.039325513 -0.011496193 0.008818813 0.004490644
-0.015405162 0.0045178467 0.0075993026 -0.0065461057 0.028175633 0.011662652 -0.01003057 0.007914024
0.0042319493 -0.028500095 -0.041981608 0.012061342 -0.0041364674 -0.005791947 -0.0032466794 0.008968638
-0.005719436 0.009376121 -0.009876349 -0.016355526 0.018277401 -0.0005129518 0.0065749134 0.02333008
-0.0201349 0.00850381 0.004444646 -0.026687276 0.0221998 -0.00037555644 -0.006373433 -0.01260531
-0.027043642 8.012882e-05 0.01568584 0.021859864 -0.00028798575 -0.025270386 0.0011326734 0.0032429898
-0.01823242 0.034230184 0.021081507 0.0072879563 -0.004727126 -0.0039484925 0.002403109 0.014358876
-0.008653182 -0.025607234 0.0010032882 -0.017212829 0.015955064 -0.0045975917 0.03125036 0.0029768352
0.00068229035 -0.029652132 -0.016117757 0.044151757 0.011850269 0.049729954 0.00088866765 -0.0057373336
0.012572763 0.019682618 0.022761993 -0.0025947627 -0.0037995926 0.003209109 -0.002808005 -0.0003813645
0.0044105886 0.008984361 0.011702157 -0.0005914246 0.013198219 -0.018380493 0.00829676 0.0044254144
-0.012996786 0.007827037 0.0018428168 -0.002746127 -0.0049792198 0.022535367 0.0066453107 -0.0072972607
-0.010497495 0.0011762825 0.0078223245 0.019696431 -0.010453937 -0.008265957 -0.027733508 -0.018412549
-0.008064893 0.02093539 -0.0072172913 -0.01376448 0.003986255 0.0012564034 0.0036959276 -0.012763395
0.0137397135 0.030113362 -0.02944861 -0.0095854895 0.024450962 0.01732 0.016144786 0.0036359853
-0.023218129 0.0031651831 -0.005257255 -0.0005217494 -0.008806777 0.0062339497 -0.009373522 0.0037793813
0.027987948 -0.0044639297 0.03819148 0.031542957 0.023984125 -0.0007631904 0.02325233 -0.02795624
-0.01876286 0.008923811 0.024801716 -0.028644348 -0.01970117 0.022140326 -0.017040843 -0.005673511
-0.00022209587 0.00090811774 -0.036688868 -0.0032292125 0.011963709 -0.018523136 0.021426197 0.009158046
-0.007962377 -0.02391783 0.0037253483 -0.0003154714 -0.0033146765 0.0071722325 0.008743599 0.0014135859
0.004774167 0.027956044 0.007444958 0.0087609 -0.010699868 0.03544054 -0.001920553 0.0023726914
0.02204992 0.011552526 -0.008181627 0.016784994 -0.003613995 -0.0077448892 0.0075769736 -0.01943765
-0.0032156312 -0.008983604 -0.02860781 0.020772433 -0.0015856059 0.0058918763 0.009634495 -0.021255719
-0.019070841 0.0023647207 -0.023483142 -0.009428274 0.017643875 0.024570039 0.041429535 0.020638281
-0.008053456 -0.030728092 0.004872881 0.017368848 0.0033020556 0.0020824722 -0.023772005 0.014979846
-0.015873212 -0.0041287695 0.001823058 0.010535703 0.0131420875 -0.019336274 -0.005231754 -0.011777804
-0.03330004 -0.030051831 0.010994028 0.02531387 0.00068440347 0.015234842 0.024381435 -0.003271413
-0.019576397 0.020709274 0.033912737 -0.0015969179 0.005774179 -0.015316371 0.011764132 -0.01525364
00000000: 267f 75bc e2fb 663c 86f5 be3c 30cc 1f3b
00000010: ca69 bbba 82d2 e73b ab31 cdbb 1627 1abc
00000020: 0c99 ba3a c884 223c 9031 ce3b c9ce ae3c
00000030: 2a5e ddbc 5b38 a83a fe8f d8b9 241b 073c
00000040: 2f7c 43ba 8679 aebc 8a64 f439 0207 06bd
00000050: 7bc3 e83b 145a e23b 20f6 d83c c9d3 fdbc
00000060: fc2c c83c 5b51 81bc 70a5 c3bb 0a99 08bb
00000070: 2784 4bbc c690 8aba affa d73b a156 8dbc
00000080: 319e 86bc c87b 83bc 1a79 0f3c 4a2c 6cbc
00000090: ca13 213d 875a 3cbc c87c 103c 4126 933b
000000a0: ef65 7cbc 720a 943b 9203 f93b b780 d6bb
000000b0: 96d0 e63c b514 3f3c 4357 24bc d3a9 013c
000000c0: 2aac 8a3b 0879 e9bc e8f4 2bbd ef9c 453c
000000d0: 348b 87bb 5fca bdbb 3ec6 54bb 32f1 123c
000000e0: 1b6a bbbb 4d9e 193c 69d0 21bc 06fc 85bc
000000f0: 7dba 953c 9d77 06ba 5f72 d73b b91e bf3c
00000100: f2f1 a4bc 9053 0b3c 65a4 913b 469f dabc
00000110: 5bdc b53c 55e6 c4b9 3bd8 d0bb 8186 4ebc
00000120: a18a ddbc d50a a838 977f 803c 7513 b33c
00000130: cbfc 96b9 d703 cfbc 3676 943a 5788 543b
00000140: 285c 95bc f334 0c3d 20b3 ac3c cfcf ee3b
00000150: 02e6 9abb 5b62 81bb 7b7d 1d3b 7e41 6b3c
00000160: 13c6 0dbc 43c6 d1bc c480 833a eb01 8dbc
00000170: 32b4 823c 65a7 96bb 6100 003d 0217 433b
00000180: bbdb 323a 07e9 f2bc 6309 84bc 79d8 343d
00000190: a127 423c a3b1 4b3d 7af5 683a 3e00 bcbb
000001a0: fdfd 4d3c 713d a13c 5c77 ba3c e50c 2abb
000001b0: 9602 79bb ea4f 523b 8206 38bb e0f1 c7b9
000001c0: b386 903b 2433 133c 67ba 3f3c d509 1bba
000001d0: 583d 583c b092 96bc 22ef 073c 1103 913b
000001e0: 79f0 54bc f93c 003c ac8a f13a 5ef8 33bb
000001f0: b928 a3bb 179c b83c e8c0 d93b dc1d efbb
00000200: affd 2bbc 7e2d 9a3a 3529 003c 695a a13c
00000210: fd46 2bbc f06d 07bc 6231 e3bc ead5 96bc
00000220: 9d22 04bc b280 ab3c 077f ecbb 6a84 61bc
00000230: 219f 823b e7ad a43a 6037 723b 8f1d 51bc
00000240: 891c 613c 4cb0 f63c 363e f1bc 750c 1dbc
00000250: 624d c83c ace2 8d3c 1242 843c b649 6e3b
00000260: f233 bebc f66e 4f3b 0d45 acbb 02c6 08ba
00000270: 4d4a 10bc 2946 cc3b 6793 19bc 7faf 773b
00000280: fb46 e53c 2846 92bb ab6e 1c3d 3033 013d
00000290: 5b7a c43c d710 48ba ac7b be3c 7c04 e5bc
000002a0: 92b4 99bc 2d35 123c f82c cb3c 8da7 eabc
000002b0: 5964 a1bc a15f b53c 3d99 8bbc dce8 b9bb
000002c0: 68e2 68b9 c00e 6e3a 1147 16bd 32a1 53bb
000002d0: 6f03 443c d5bd 97bc fe85 af3c a10b 163c
000002e0: a174 02bc 53ef c3bc f924 743b db65 a5b9
000002f0: 0b3b 59bb 0c05 eb3b 5041 0f3c 1248 b93a
00000300: 9e70 9c3b 1304 e53c d6f4 f33b e189 0f3c
00000310: 804e 2fbc 1a2a 113d 11bb fbba 287f 1b3b
00000320: 09a2 b43c ce46 3d3c 3b0c 06bc af80 893c
00000330: c6d8 6cbb d7c8 fdbb 4348 f83b b53b 9fbc
00000340: 57bd 52bb f72f 13bc ed5a eabc f32a aa3c
00000350: 1bd4 cfba a410 c13b 00da 1d3c 7920 aebc
00000360: 743a 9cbc 6ef9 1a3b b85f c0bc 0c79 1abc
00000370: e389 903c 1b47 c93c 04b2 293d 9d11 a93c
00000380: a5f2 03bc 7bb9 fbbc b0ac 9f3b 1d49 8e3c
00000390: 4d67 583b 167a 083b 82bd c2bc 076e 753c
000003a0: 8a08 82bc a14a 87bb adf3 ee3a f19d 2c3c
000003b0: e951 573c 1b67 9ebc 226f abbb b1f7 40bc
000003c0: 9f65 08bd 422f f6bc 4c20 343c 085f cf3c
000003d0: 8a69 333a 8f9b 793c 93bb c73c 3465 56bb
000003e0: ae5e a0bc 7fa6 a93c 15e8 0a3d ac4f d1ba
000003f0: 5335 bd3b 84f1 7abc 59be 403c 67ea 79bc

bn1.weight f4 [400]
0.23389405 0.6065569 0.5279175 0.063049756 0.4431732 0.06912849 0.03737157 0.11665424
0.031414486 0.17277385 0.3335342 0.11681403 0.04084492 -0.1401404 0.19199379 0.065882996
0.09184699 0.48665297 0.110278994 0.047347628 0.23890081 0.67066866 0.18996768 0.09446631
0.08855587 0.080154076 0.019469844 0.07391069 0.10590432 0.33075184 0.11843705 0.101985686
0.11259406 -0.13965298 0.037639555 0.07127081 -0.043656897 -0.121446006 0.10027934 0.0015077924
0.09303275 0.17418821 0.13177624 0.0413076 0.76802325 0.20433345 -0.109592736 0.0010699646
0.045950692 0.043436028 0.248192 0.110471636 0.21805397 0.083496176 0.12471816 0.14492019
0.049417727 0.20478706 0.13023303 0.19527653 -0.06554384 0.03919573 0.047901455 -0.007945862
0.048016697 0.2020623 0.8214055 0.18016562 0.10628443 0.1237095 0.08161121 0.082804225
0.023655098 0.3191942 0.07865242 0.21246931 0.057795648 0.09487674 0.08341455 0.13021809
0.052411612 0.5169135 0.255156 0.13736185 0.12673171 0.18009579 0.1547317 0.27744803
0.26879293 0.115890816 0.12790084 0.09080867 0.086989485 -0.0023462658 0.20055114 0.030758258
-0.121235 0.098029815 0.060769968 0.069791675 0.18640834 -0.007911007 0.102249935 0.15927383
0.008648714 0.0007518606 0.1590687 0.09637682 0.011202278 0.062469803 0.34211543 0.07625983
0.37319726 0.40580276 0.75478095 0.043635074 0.4682313 -0.0010085825 0.22659266 -0.0016303319
0.06734965 0.108578034 0.056285165 0.94119906 0.06201032 0.11863807 0.15521462 0.099258415
0.21152617 0.07488431 0.14975435 0.113500744 0.26018903 0.088888206 0.07878301 -0.00344005
0.08899772 0.022395352 0.052205946 0.31566116 0.090694234 0.11657284 0.045545787 0.2049126
0.03384575 0.07674707 0.051851936 0.080627136 -0.044241995 0.0025961292 0.19690466 0.08609298
0.118745625 0.08497991 0.048449412 0.4957321 0.053271234 0.055546734 0.82163954 0.06694233
0.004136834 0.07227575 0.7754387 0.041343566 0.12408056 0.087803744 0.0696637 0.060285565
-0.00052071974 -0.0029043073 0.18977028 0.06629967 0.08368582 0.5034167 0.19602254 0.107827604
0.0481127 0.005982687 0.08031604 -0.0194369 0.66768813 0.26144233 0.18762572 0.18303834
-0.0023082367 0.10412738 0.46169794 0.06771752 0.08227479 0.053110585 0.05117551 0.28776428
0.05018932 0.14279024 0.43617293 0.20966461 0.08709119 0.07865588 0.55058813 0.6482298
0.035758223 0.33716753 0.83419776 0.04627273 0.06386394 0.5255268 -0.0014025179 0.071457416
0.22700377 0.30467194 -0.0011887711 0.34726465 0.061493196 0.15788406 0.3034388 0.1471079
0.097666144 0.19825622 -0.04224853 0.16877307 0.04990563 0.26300845 -0.053335942 0.9377395
0.06360181 0.011085695 0.11284696 0.18440278 0.13539036 0.46217075 -0.075625405 -0.06521177
0.07327772 0.050551035 0.15739244 0.1680916 0.1705359 -0.025837323 0.26661235 0.20024554
0.08594075 0.07316269 0.11018284 0.5030894 0.793482 0.00021768794 0.11405464 0.03412227
0.084676735 0.08669744 0.13304868 0.23218307 0.058753174 0.9542567 0.0007808543 1.1048045
00000000: ec81 6f3e 5047 1b3f 9a25 073f 3b20 813d
00000010: 99e7 e23e 3d93 8d3d ee12 193d 6be8 ee3d
00000020: 7aac 003d a1eb 303e ffc4 aa3e 323c ef3d
00000030: 014d 273d f780 0fbe 059a 443e aaed 863d
00000040: 461a bc3d 942a f93e f4d9 e13d 96ef 413d
00000050: 6aa2 743e f1b0 2b3f e386 423e 8e77 c13d
00000060: c85c b53d d227 a43d 397f 9f3c 7d5e 973d
00000070: 5de4 d83d 4e58 a93e 208f f23d dfdd d03d
00000080: b797 e63d 3101 0fbe ef2b 1a3d 6ef6 913d
00000090: 93d1 32bd afb8 f8bd 415f cd3d 1ea1 c53a
000000a0: f487 be3d 655e 323e 5af0 063e 2832 293d
000000b0: 2c9d 443f ca3c 513e 2872 e0bd 0e3e 8c3a
000000c0: cb36 3c3d fae9 313d 0b26 7e3e f43e e23d
000000d0: 8a49 5f3e 0b00 ab3d 3c6c ff3d f565 143e
000000e0: 3e6a 4a3d b3b3 513e cf5b 053e 92f6 473e
000000f0: d93b 86bd b48b 203d 5134 443d 5c2f 02bc
00000100: 28ad 443d 6be9 4e3e a147 523f 567d 383e
00000110: a7ab d93d 685b fd3d c723 a73d 4395 a93d
00000120: 56c8 c13c 6c6d a33e 8514 a13d 8e91 593e
00000130: 21bb 6c3d bc4e c23d 3fd5 aa3d e457 053e
00000140: 8fad 563d 7154 043f cfa3 823e 96a8 0c3e
00000150: f5c5 013e 086b 383e fd71 1e3e ab0d 8e3e
00000160: 3a9f 893e 2a58 ed3d 70f8 023e e5f9 b93d
00000170: 8b27 b23d cfc3 19bb 475d 4d3e bef8 fb3c
00000180: 0e4a f8bd dbc3 c83d eee9 783d f0ee 8e3d
00000190: d4e1 3e3e 2b9d 01bc 6a68 d13d ae18 233e
000001a0: 56b3 0d3c 8318 453a e8e2 223e 3661 c53d
000001b0: c289 373c 56e0 7f3d c129 af3e 1d2e 9c3d
000001c0: b613 bf3e 61c5 cf3e 5339 413f b1ba 323d
000001d0: 03bc ef3e 6a32 84ba e807 683e dcb0 d5ba
000001e0: 9dee 893d 295e de3d 468b 663d 6cf2 703f
000001f0: 89fe 7d3d 84f8 f23d 95f0 1e3e ff47 cb3d
00000200: 519a 583e f25c 993d 3459 193e 1473 e83d
00000210: 7f37 853e 050b b63d fd58 a13d 7672 61bb
00000220: 7044 b63d 7576 b73c e7d5 553d 579e a13e
00000230: e6bd b93d bebd ee3d 388e 3a3d 9cd4 513e
00000240: d7a1 0a3d 912d 9d3d b262 543d d71f a53d
00000250: 1837 35bd d223 2a3b 60a1 493e 8451 b03d
00000260: e830 f33d f209 ae3d e472 463d 99d0 fd3e
00000270: f032 5a3d f984 633d f856 523f 0f19 893d
00000280: 478e 873b 4f05 943d 2783 463f df57 293d
00000290: f31d fe3d 73d2 b33d d8ab 8e3d ffed 763d
000002a0: e980 08ba 3156 3ebb 2453 423e 1fc8 873d
000002b0: 7963 ab3d ebdf 003f 22ba 483e b8d4 dc3d
000002c0: d311 453d 6b0a c43b bc7c a43d 223a 9fbc
000002d0: 9ced 2a3f c5db 853e f520 403e 676e 3b3e
000002e0: c945 17bb bc40 d53d ac63 ec3e 7caf 8a3d
000002f0: af7f a83d 7c8a 593d 699d 513d d755 933e
00000300: 5193 4d3d 9b37 123e 0f52 df3e 52b2 563e
00000310: de5c b23d 5616 a13d 58f3 0c3f 63f2 253f
00000320: 3777 123d 39a1 ac3e fc8d 553f 7988 3d3d
00000330: 19cb 823d ed88 063f b1d4 b7ba 4458 923d
00000340: ad73 683e f6fd 9b3e 8ad0 9bba accc b13e
00000350: 4ae0 7b3d 5cac 213e 555c 9b3e 74a3 163e
00000360: 3005 c83d ae03 4b3e cb0c 2dbd d9d2 2c3e
00000370: d969 4c3d 0ba9 863e ca76 5abd b20f 703f
00000380: aa41 823d c6a0 353c 4f1c e73d 15d4 3c3e
00000390: c5a3 0a3e a5a1 ec3e 7ee1 9abd c08d 85bd
000003a0: a112 963d 9a0e 4f3d 7c2b 213e 3420 2c3e
000003b0: f7a0 2e3e cba8 d3bc 6a81 883e 2b0d 4d3e
000003c0: b401 b03d 52d6 953d 8aa7 e13d 78ca 003f
000003d0: a321 4b3f 2943 6439 7b95 e93d cbc3 0b3d
000003e0: ff6a ad3d 6d8e b13d ea3d 083e 66c1 6d3e
000003f0: 2ba7 703d 2b4a 743f 3fb2 4c3a 3c6a 8d3f

bn1.bias f4 [400]
0.04618461 0.4381367 0.1978697 0.015305677 0.10223726 -0.0056123803 0.019123316 0.034410235
0.016253792 0.018186845 0.074106894 0.022750748 -0.0022326058 -0.024259238 0.0066968477 0.007710297
0.034755427 0.13745046 0.07930216 0.0060799485 0.0661461 0.15628389 -4.237966e-05 0.022456793
0.008615442 0.035003383 0.0060495925 0.011401244 0.030912105 0.08780906 0.0161149 0.020126577
0.031724676 -0.023061229 -0.0023158502 0.0053300597 -0.00981463 -0.016341686 0.048681114 -0.00062646106
0.007845415 0.018244294 0.03519524 0.006828365 0.15817828 0.09905243 -0.060865752 5.6416447e-05
0.0044430257 0.0012861735 0.03641299 0.027667359 0.07366409 0.0068009486 0.054354757 -0.02219868
0.007724625 0.07993869 0.024650482 0.04553971 -0.0004185905 0.0015251045 0.004551969 0.0008751643
0.012935363 0.042321634 0.17011745 0.065009736 0.014772384 0.026613457 0.008180982 0.013316958
0.00040445244 0.079299726 0.004885563 0.050916303 0.0063871713 0.026478622 0.044420663 0.06679622
0.0036318465 0.26498654 0.056820925 0.02022401 0.026892943 0.05847076 0.030984478 0.072565876
0.08769119 0.01864646 -0.005368708 0.026069839 0.02487176 0.00014938385 0.063644335 -0.0006194286
-0.121942796 0.017949041 0.006545415 0.0029717684 0.06501606 -0.0015701567 0.01665901 0.021653282
0.00024423978 0.000538655 0.025050404 0.036862105 -0.0015160901 0.016161721 0.027732683 0.0036651604
0.20495333 0.14478825 0.23210387 0.0077071325 0.13765892 0.0019826659 0.061430804 0.00023525274
0.013165883 0.024334498 0.012665761 0.21277665 0.007133013 -0.015711406 0.02366907 0.02694266
0.023329241 0.0132389525 0.026023768 0.019644273 0.108356155 0.017261129 0.011487732 0.0014971566
0.007080742 -0.0021523074 -0.0004974495 0.09629713 0.025227923 0.0605151 0.00016258028 0.071026854
-0.0011743862 0.023594303 0.014426692 0.012142297 -0.12904945 0.0017092992 0.034709223 0.013585928
0.0067345253 0.018294776 0.008451238 0.1754624 -0.00048388657 0.00552268 0.24713926 -0.0019695035
0.00015577949 -0.003835317 0.16678028 0.01804039 0.021327611 0.018995779 0.007959726 0.04798748
0.0016433308 -0.00035057016 0.056892022 -0.0016591476 0.021932406 0.20052128 0.04012152 0.02720141
0.013453461 -0.00039009456 0.026931364 0.00028618833 0.28228942 0.0054803123 -0.010026031 0.067287005
-0.0005650402 0.013487773 0.09105602 0.0042985035 0.009379665 0.019562759 0.013982286 0.0603568
0.006350871 0.042873714 0.14303812 0.06583182 0.0028302665 0.025426988 0.066695414 0.20461455
0.01234531 0.050250325 0.23126689 -0.017205575 0.01199312 0.16566704 0.0021682018 0.008857671
0.08133869 0.016822113 -0.0008373897 0.11313424 0.01576789 -0.004636584 0.13209385 0.022559756
-0.003369569 0.033072386 0.16232085 0.059054453 0.0040478185 0.12278435 -0.0050684684 0.17441188
0.0008582952 0.0032204865 0.022309467 0.026971811 0.028158946 0.24666464 0.03818713 -0.0014345621
0.0039665396 -0.0029463836 0.03441612 0.04654414 0.12556416 -0.00011548185 0.12962599 0.03223938
0.009234752 0.0110118305 0.075517006 0.14537637 0.2573298 -0.0012047568 0.03270832 0.00923524
0.013903665 0.009750817 0.04769847 0.08080907 0.005584637 0.21185341 -0.0012199623 0.2529375
00000000: 132c 3d3d 7453 e03e 5b9e 4a3e aac4 7a3c
00000010: c561 d13d 0fe8 b7bb 80a8 9c3c bff1 0c3d
00000020: ac26 853c 94fc 943c 5bc5 973d c75f ba3c
00000030: e950 12bb 4fbb c6bc 3b71 db3b a9a6 fc3b
00000040: b55b 0e3d d0bf 0c3e 2c69 a23d 4e3a c73b
00000050: 9b77 873d e208 203e d0c0 31b8 4ff7 b73c
00000060: c827 0d3c b55f 0f3d a93b c63b 49cc 3a3c
00000070: 623b fd3c 3dd5 b33d 6503 843c 7ee0 a43c
00000080: bcf1 013d e7ea bcbc 85c5 17bb c8a7 ae3b
00000090: 8bcd 20bc 00df 85bc d965 473d 1739 24ba
000000a0: 0e8a 003c 0f75 953c e228 103d 7ac0 df3b
000000b0: 7df9 213e 00dc ca3d 5e4e 79bd b3a0 6c38
000000c0: cd96 913b d294 a83a ca25 153d a8a6 e23c
000000d0: 33dd 963d 7eda de3b 18a3 5e3d 02da b5bc
000000e0: da1e fd3b e5b6 a33d cfef c93c d987 3a3d
000000f0: 4476 dbb9 04e6 c73a af28 953b 486b 653a
00000100: d8ee 533c 7359 2d3d 4533 2e3e d323 853d
00000110: df07 723c 7704 da3c 8709 063c 5f2f 5a3c
00000120: b00c d439 e567 a23d 1317 a03b 9d8d 503d
00000130: 7a4b d13b b2e9 d83c 71f2 353d 75cc 883d
00000140: 4604 6e3b 51ac 873e 0fbd 683d d3ac a53c
00000150: 974e dc3c 097f 6f3d 29d3 fd3c 6b9d 943d
00000160: 7097 b33d 76c0 983c fdeb afbb 6a90 d53c
00000170: dcbf cb3c eca3 1c39 f657 823d 2661 22ba
00000180: 25bd f9bd de09 933c ec7a d63b 00c2 423b
00000190: 2427 853d b7cd cdba 7a78 883c 3962 b13c
000001a0: 4f0d 8039 8634 0d3a 8136 cd3c b8fc 163d
000001b0: 8bb7 c6ba 9665 843c a72f e33c 3033 703b
000001c0: 49df 513e 5f43 143e a3ac 6d3e 1d8c fc3b
000001d0: 76f6 0c3e 9def 013b de9e 7b3d 2dae 7639
000001e0: b7b5 573c 2459 c73c 0d84 4f3c 1fe2 593e
000001f0: 0dbc e93b 35b5 80bc a3e5 c13c dab6 dc3c
00000200: f71c bf3c 31e8 583c cc2f d53c 07ed a03c
00000210: d5e9 dd3d 3667 8d3c 0a37 3c3c 3d3c c43a
00000220: 9205 e83b ba0d 0dbb 4567 02ba 6e37 c53d
00000230: caaa ce3c aede 773d 507a 2a39 8776 913d
00000240: dded 99ba d748 c13c ef5d 6c3c 7cf0 463c
00000250: 8a25 04be 900a e03a 422b 0e3d 8397 5e3c
00000260: 4bad dc3b edde 953c 1077 0a3c 6aac 333e
00000270: 28b2 fdb9 99f7 b43b 1312 7d3e c912 01bb
00000280: bd58 2339 f159 7bbb 73c8 2a3e 71c9 933c
00000290: 3eb7 ae3c 099d 9b3c 8369 023c 858e 443d
000002a0: 0865 d73a bbcc b7b9 9c07 693d c177 d9ba
000002b0: 97ab b33c 7355 4d3e 7756 243d 7ed5 de3c
000002c0: e86b 5c3c 9b85 ccb9 2a9f dc3c 8c0b 9639
000002d0: 3d88 903e 3194 b33b 3944 24bc c5cd 893d
000002e0: 351f 14ba d2fb 5c3c 947b ba3d 76da 8c3b
000002f0: 2bad 193c 1442 a03c f515 653c b138 773d
00000300: f81a d03b 599c 2f3d 9678 123e d5d2 863d
00000310: fe7b 393b 424c d03c 9b97 883d 7a86 513e
00000320: fc43 4a3c 49d3 4d3d 3ad1 6c3e b5f2 8cbc
00000330: cb7e 443c 9fa4 293e 6418 0e3b c41f 113c
00000340: e694 a63d 87ce 893c 4684 5bba edb2 e73d
00000350: a92b 813c 7cee 97bb 9c43 073e 3dcf b83c
00000360: fdd3 5cbb e976 073d 7037 263e 15e3 713d
00000370: 90a3 843b 5c76 fb3d 6515 a6bb 0799 323e
00000380: 37ff 603a cc0e 533b 58c2 b63c fdf3 dc3c
00000390: 97ad e63c a895 7c3e 1c6a 1c3d eb07 bcba
000003a0: bff9 813b 1d18 41bb ebf7 0c3d 11a5 3e3d
000003b0: e493 003e d92e f2b8 adbc 043e 710d 043d
000003c0: 5b4d 173c f76a 343c a9a8 9a3d 8bdd 143e
000003d0: bbc0 833e eee8 9dba 29f9 053d 674f 173c
000003e0: 33cc 633c e4c1 1f3c 795f 433d 3a7f a53d
000003f0: 55ff b63b 1af0 583e 24e7 9fba 0681 813e

bn1.running_mean f4 [400]
4.1730433 19.755495 3.6306791 1.1623948 0.20411749 7.757245 0.33770236 3.242886
0.17348635 4.412326 1.2640475 0.65576833 3.5707133 0.3456817 0.6460849 0.6820301
1.8444196 0.6205176 10.432209 0.17279151 0.8101041 1.4551072 5.0098414e-09 2.470037
1.0576422 1.2431226 0.34830332 0.96980655 5.284228 1.0116663 4.356724 2.845281
8.517364 1.109041 1.0886831 0.8488185 1.4784917 0.61832523 1.2116958 4.82578
0.7666347 0.33990836 0.7579456 0.25248423 28.203907 6.829763 6.457249 4.0460434
7.2608986 12.974776 0.17450514 2.0151582 1.8339161 0.05662578 1.4774766 9.900694
0.91503334 0.58192 1.4757551 2.9235563 0.8203067 0.38820493 0.007889539 0.00049683795
1.5947047 0.8307007 0.8658464 1.3684745 30.883568 1.9929973 2.752323 2.5558684
0.09187111 0.8577038 4.726848 1.8474609 0.30801973 1.3312277 4.414866 2.4464436
1.4828681 29.136929 0.3037874 1.3296735 0.19290376 6.6766195 2.7147365 0.73479134
1.0007771 1.0591543 2.236545 2.3132834 5.6539845 0.63134694 3.0971773 1.4092617
0.7134618 2.601092 1.3613603 6.780229 9.2013035 0.62244654 0.7934323 0.26336798
0.2653568 0.15963343 1.1063265 0.762658 3.817151 1.8065058 25.522877 1.2904596
5.8828964 1.4523102 5.2297444 0.4486772 1.5295566 0.52070236 0.1640712 18.548523
0.98126644 0.7636803 2.1266356 31.925682 0.31352493 1.0993761 0.92305714 4.8590875
4.955569 4.016719 0.53636044 0.8644734 4.1986184 1.9348186 0.6877534 2.8063433
0.7691236 11.013134 0.45443448 1.2715294 5.3027916 7.317466 1.7937939 4.004131
3.0941167 6.8360257 2.4851196 9.651499 6.816091 9.184995 0.97098064 4.396002
0.29638588 1.0234056 1.0966539 1.730197 0.5591542 0.08148628 36.36327 1.9649627
19.457014 0.8631961 0.47753334 23.965876 0.35487193 2.1097417 1.0806966 0.48612154
1.5935992 0.12200239 1.0112587 2.1178894 0.54056704 1.1597086 0.53723264 0.7305812
0.2506296 1.6724393 0.8257855 0.11946554 32.19876 0.73129845 1.8242054 0.5368147
7.9704413 0.25002652 0.8343277 0.49373576 2.2641964 2.11709 1.4587045 2.4105496
0.36921448 2.8646717 0.043482803 3.2257311 1.7358356 1.7212536 0.61408234 39.06435
3.60468 1.4148341 1.0654837 9.621718 2.2883692 22.15505 5.799503 0.5250722
0.853478 28.635685 5.204645 4.110956 8.162002 3.6239471 9.289608 3.9875364
0.6082001 0.306082 14.915495 4.0932837 14.680479 2.9066126 0.10724275 11.988332
2.4234228 0.3314317 0.32028645 4.3219233 1.1715407 2.014311 10.92676 2.9854204e-05
2.343527e-09 0.37147203 0.3191918 2.9140227 1.3101217 0.0009949461 4.072294 0.3013068
2.3026106 0.26562667 25.840897 0.9623853 33.91163 0.9081103 1.1709746 6.169964
0.9594512 0.31936213 2.8133693 5.79433 0.3095941 32.417908 0.03186108 0.8279484
00000000: 9289 8540 410b 9e41 0c5d 6840 5ac9 943f
00000010: 2d04 513e 5a3b f840 53e7 ac3e 728b 4f40
00000020: 68a6 313e c631 8d40 4fcc a13f 6fe0 273f
00000030: 9186 6440 31fd b03e d265 253f 8699 2e3f
00000040: f115 ec3f 3eda 1e3f 54ea 2641 42f0 303e
00000050: fb62 4f3f f440 ba3f 0823 ac31 1615 1e40
00000060: d260 873f a41e 9f3f d054 b23e 3e45 783f
00000070: 6518 a940 487e 813f 486a 8b40 1519 3640
00000080: 1f47 0841 0ef5 8d3f f859 8b3f 2b4c 593f
00000090: 373f bd3f 904a 1e3f d918 9b3f ca6c 9a40
000000a0: 2c42 443f 7808 ae3e b908 423f 9d45 813e
000000b0: 9aa1 e141 6b8d da40 c9a1 ce40 3079 8140
000000c0: 4859 e840 af98 4f41 7ab1 323e 5af8 0040
000000d0: c3bd ea3f 6ff0 673d f41d bd3f 3e69 1e41
000000e0: a03f 6a3f b6f8 143f 8be5 bc3f 8c1b 3b40
000000f0: 9fff 513f ccc2 c63e 2043 013c 3b3e 023a
00000100: 491f cc3f cda8 543f 1ca8 5d3f 2c2a af3f
00000110: 8c11 f741 891a ff3f 0f26 3040 5993 2340
00000120: ec26 bc3d 7a92 5b3f 5742 9740 9979 ec3f
00000130: c3b4 9d3e ab65 aa3f 9546 8d40 8892 1c40
00000140: 9fce bd3f 6e18 e941 068a 9b3e be32 aa3f
00000150: 9088 453e dea6 d540 3ebe 2d40 491b 3c3f
00000160: 7719 803f 5e92 873f 8e23 0f40 d60c 1440
00000170: 71ed b440 f49f 213f 2738 4640 b062 b43f
00000180: 6fa5 363f 4b78 2640 0e41 ae3f a3f7 d840
00000190: 8a38 1341 a858 1f3f 611e 4b3f 2bd8 863e
000001a0: d9dc 873e f276 233e 1b9c 8d3f 8e3d 433f
000001b0: 344c 7440 953b e73f da2e cc41 c82d a53f
000001c0: b040 bc40 4de5 b93f 115a a740 05b9 e53e
000001d0: 83c8 c33f c04c 053f 4802 283e 6063 9441
000001e0: 4734 7b3f 8d80 433f cc1a 0840 cc67 ff41
000001f0: 5786 a03e 5bb8 8c3f 794d 6c3f a57d 9b40
00000200: 0594 9e40 f688 8040 eb4e 093f 214e 5d3f
00000210: 155b 8640 23a8 f73f 9b10 303f 219b 3340
00000220: 49e5 443f cc35 3041 a3ab e83e 7ac1 a23f
00000230: 78b0 a940 ae28 ea40 0a9b e53f d721 8040
00000240: 0206 4640 b9c0 da40 330c 1f40 8a6c 1a41
00000250: 6b1d da40 bdf5 1241 3092 783f 0cac 8c40
00000260: e4bf 973e f4fe 823f 285f 8c3f 1877 dd3f
00000270: bb24 0f3f 47e2 a63d fd73 1142 e683 fb3f
00000280: f7a7 9b41 6bfa 5c3f 407f f43e 1dba bf41
00000290: c6b1 b53e 0206 0740 4454 8a3f ece4 f83e
000002a0: 0ffb cb3f 64dc f93d ed70 813f 808b 0740
000002b0: 9a62 0a3f 5571 943f 1488 093f 5f07 3b3f
000002c0: 8652 803e 7e12 d63f ae66 533f 59aa f43d
000002d0: 88cb 0042 6036 3b3f 907f e93f b06c 093f
000002e0: db0d ff40 7a03 803e 8096 553f efca fc3e
000002f0: 98e8 1040 677e 0740 d4b6 ba3f 7246 1a40
00000300: ae09 bd3e c856 3740 061b 323d 6172 4e40
00000310: dc2f de3f 0a52 dc3f 8034 1d3f e541 1c42
00000320: 14b3 6640 4919 b53f c561 883f 8ff2 1941
00000330: a474 1240 8b3d b141 8795 b940 226b 063f
00000340: 897d 5a3f e215 e541 748c a640 f48c 8340
00000350: 8f97 0241 c0ee 6740 3ca2 1441 cc33 7f40
00000360: 00b3 1b3f c8b6 9c3e dea5 6e41 2efc 8240
00000370: 3ee3 6a41 f105 3a40 16a2 db3d 35d0 3f41
00000380: 5c19 1b40 6ab1 a93e 96fc a33e 324d 8a40
00000390: 0cf5 953f 79ea 0040 02d4 2e41 6a6f fa37
000003a0: c30b 2131 9531 be3e 1c6d a33e 597f 3a40
000003b0: 11b2 a73f da68 823a 3c50 8240 e344 9a3e
000003c0: f95d 1340 3800 883e 28ba ce41 e25e 763f
000003d0: 82a5 0742 eb79 683f 7fe2 953f 5870 c540
000003e0: 989e 753f 6f83 a33e 3e0e 3440 276b b940
000003f0: 1e83 9e3e f0ab 0142 c480 023d 6df4 533f
