Udacity/Deep Reinforcement Learning Nano Degree/Continuous Control/checkpoint_actor.pth (torch_old, 52457 bytes, 6 tensors)

fc1.weight f4 [128, 33]
00000000: e008 1bbd b9e7 743e 6909 5abe 5318 f13c
00000010: 9c0a 25bb a558 4abd e731 2b3f df61 57bd
00000020: 1504 f83e 91ee 2ebc 3ae5 2fbd 0ed6 debd
00000030: 3a26 20bd e77b 4a3e 0b2e 2bbe d5c9 0c3f
00000040: a871 2a3e 7f20 c63d 8a94 99be 8136 8fbc
00000050: c196 69bc e3d0 48bd 6ded 743d df0c db3c
00000060: e0a6 ebbc ded5 9b3e 3a80 71be b6cb a43e
00000070: 8035 88be fe7d 23bd 42f7 a5be 6520 2abd
00000080: dded 8abe 2bac 383e 8efe 3cbe e3d7 b2be
00000090: 8c62 16be 9901 7bbd 7567 803d 065d afbe
000000a0: 5ebb 603e 3ed2 c63e 8caa 393c 94fa 9bbd
000000b0: c230 2abd d465 f6bd 2043 91be 252f 423e
000000c0: ac1c c13e 5792 91bd f6cb bb3e 835c 253e
000000d0: 381b 943e c4b4 623d 3f8d ca3d a22f a03c
000000e0: 8933 25be 30b7 fa3d c312 463e 0ba3 93bd
000000f0: 1ecc 0bbe 8f4c 743c ec43 b3bc 1322 843d
00000100: d29b 533d d1e8 e3bd 57c5 a1bd 3405 e03d
00000110: 8dac 6c3e d00c 91be cbfa 373e 9181 783f
00000120: 5b22 53bf 802a 513e 500b 0e3e f82f f03d
00000130: 64e4 62bd 603f d33d a5c8 e7bc 906e a6bd
00000140: 286a f03c a2c4 b4bd 4adc 91be 4624 debe
00000150: 8aa0 07bf b7c4 ccbd f1cb 963d 16b5 5ebd
00000160: db71 3fbe 220e 293c 840b 32be 2f43 51be
00000170: 993f 2abe 5f22 62be d594 953e e0e6 d9bb
00000180: fb3b 9d3d 0255 253d 8161 a43f 97cd 12be
00000190: 02f4 5f3e 153e 9fbe 0686 c23e 240d 80bc
000001a0: c9ab 00bf 542e f73e 4edf b6bd b64c 10bf
000001b0: b03f 633e d128 193e 8a19 9f3b 106f fabd
000001c0: 17a9 75be 9c09 443e f6a6 043e 581f d8bc
000001d0: 3e40 3ebe 58fb 7f3f f0a1 c9be 9136 153d
000001e0: 47c4 353e 1403 bb3c 6777 e9bd fd13 273d
000001f0: b12f a1bd e5e3 9c3e 3dcb 173e 80d2 10be
00000200: ae90 3d3d 2aeb f0bc e0b3 113c 0161 7b3e
00000210: 4b13 89be 65b9 63be b9f9 223e 7ecb 23be
00000220: b439 543f dcf3 e33d caa2 453f 337c 35bd
00000230: 2687 493e 0cad bbbe bfff 67be 24a6 d4bd
00000240: f85f a23d 9e65 9f3d a8de 463e c5b9 083e
00000250: efda 893d efc0 9d3e 9719 4bbf d9da 863e
00000260: cad9 abbd d428 b7bd d5c7 9cbd 437d 093e
00000270: f30c 3a3e 22ae 5b3d d564 f53d 9b8c 223e
00000280: 1174 b4bd 3a99 1e3d 5e14 2bbe dc03 cfbc
00000290: f162 49bf 3345 aabd 61a4 c1bd 0b8b bebd
000002a0: d8ec 82be 4c1e 34be 56a9 803e b3a0 1ebf
000002b0: 0c47 693d 6616 5cbe 4ef9 2abd 204c cfbc
000002c0: d187 973d 691f 5b3d c628 0a3e 2cdb 803d
000002d0: 3921 8c3c 95ad 0abd 1051 29be 3811 753e
000002e0: 2192 eb3d 2e5e 3e3c 77b8 a63d b493 d5bb
000002f0: f76f d93d 7042 4fbd d286 ab3b d526 d43d
00000300: 5287 95be c339 3dbe 307f e03b 70c0 583e
00000310: f113 85bd 5727 3ec0 6321 8abe 8cbd 62bd
00000320: c917 15be 9872 38be 00d9 063f 0f2c cf3d
00000330: 8eb7 bcbe 2075 ae3d 6fd5 8e3e c419 92bc
00000340: 53e6 f7bd 1ebf 77bd 7f78 b5bc b848 fabd
00000350: 7a5c cbbc 6987 c03e 4faa 193f 3658 22bf
00000360: 46c1 423e 4c28 a93e 6165 ff3d aae7 c2bd
00000370: 62a0 2cbe a45e ddbd a989 f8bd c1b8 53bd
00000380: 52a1 6a3d 8c7c 2c3e 7d3b 693e c9db b1bd
00000390: 1d16 e8bd a43b 84bd 5145 4cbf 3954 963d
000003a0: e710 213e 8fc6 003d f070 c13e b9ad 753e
000003b0: caba 05bf 7141 3e3f 08dc 13bd 1f79 d53d
000003c0: 9439 183e 426b 063e 4b5a ffbd 595d 353d
000003d0: fbfa 9a3e 6bf1 863e 9cd3 a9bd 153e 5a3e
000003e0: 592d 9dbd 336c 253e d2f3 6f3d 8377 14bd
000003f0: 3883 00bd ddf1 1dbd 1114 9a3c 4602 cc3d
-0.03785026 0.2391652 -0.21292652 0.029430544 -0.0025183326 -0.049400944 0.6687302 -0.05258357
0.48440614 -0.010676996 -0.042943217 -0.108806714 -0.039098956 0.19773827 -0.16716783 0.5499547
0.16644919 0.09674167 -0.2999614 -0.017482044 -0.014257134 -0.049027335 0.05979674 0.026739536
-0.028766096 0.30436605 -0.23584071 0.3218667 -0.26603317 -0.039915077 -0.32415205 -0.0415348
-0.271346 0.18034427 -0.1845648 -0.34930333 -0.1468603 -0.06128082 0.06269733 -0.3425066
0.21946475 0.38832277 0.011332165 -0.07616153 -0.041550405 -0.12031141 -0.28371525 0.18963297
0.37717187 -0.0710799 0.36679047 0.16148572 0.28927016 0.055348173 0.09890222 0.019553963
-0.1613294 0.122419715 0.19343095 -0.07208832 -0.13652083 0.014910831 -0.021882974 0.06451812
0.051662274 -0.111283906 -0.07898968 0.109384924 0.23112698 -0.28330088 0.17966764 0.970727
-0.824743 0.20426369 0.13871503 0.11727899 -0.05539359 0.10314822 -0.028293917 -0.08126557
0.029347494 -0.08826567 -0.2848838 -0.4338705 -0.5297934 -0.09998458 0.073631175 -0.054371916
-0.18695776 0.010318311 -0.17387205 -0.20435785 -0.16625823 -0.22083424 0.29215112 -0.006649837
0.07677456 0.040364273 1.2842256 -0.14336239 0.21870425 -0.31102052 0.37992877 -0.015631266
-0.50262123 0.48277533 -0.08929311 -0.5636705 0.22192264 0.14956976 0.0048553394 -0.12228215
-0.23990284 0.1914429 0.12954316 -0.026382133 -0.18579194 0.99992895 -0.3938136 0.03642899
0.17750655 0.022828616 -0.11399727 0.040790547 -0.078704245 0.3064262 0.14823623 -0.141428
0.046280555 -0.02940901 0.008892983 0.24548723 -0.26772532 -0.22238691 0.15915574 -0.15995595
0.8290055 0.11130497 0.7720152 -0.0443079 0.19680461 -0.36655462 -0.22656153 -0.10383251
0.07928461 0.07783054 0.19420874 0.13352115 0.067312114 0.3081126 -0.7933592 0.26338843
-0.08391149 -0.08943334 -0.076553024 0.1342669 0.18169002 0.053632863 0.11982123 0.15873949
-0.088112004 0.038720347 -0.16706988 -0.025270395 -0.786666 -0.0831398 -0.09455181 -0.09303864
-0.25571322 -0.17589682 0.25129193 -0.6196396 0.05695252 -0.2149292 -0.04174166 -0.025304854
0.07398952 0.053496752 0.13492116 0.06291804 0.017105686 -0.033856947 -0.16534829 0.2393235
0.11502481 0.011619134 0.081406526 -0.0065178517 0.10617059 -0.05060047 0.0052345777 0.10358969
-0.29204804 -0.18479066 0.0068510994 0.21167159 -0.06497944 -2.971151 -0.26978597 -0.055356547
-0.14559855 -0.18012464 0.52674866 0.101158254 -0.3685879 0.085184336 0.27897212 -0.017834552
-0.12104478 -0.060484998 -0.022152184 -0.12220901 -0.02482437 0.3760331 0.60025495 -0.6341585
0.1901904 0.33038557 0.12470508 -0.09516843 -0.16858056 -0.10809067 -0.121356316 -0.051689867
0.057282753 0.16844386 0.22776599 -0.08684499 -0.11332343 -0.06456688 -0.7979327 0.07340283
0.15729104 0.03143936 0.37781477 0.23992051 -0.5223814 0.74318606 -0.03609851 0.10423493
0.14865714 0.13126853 -0.12468394 0.044278476 0.30269608 0.26356062 -0.082923144 0.21312745
-0.07674665 0.16154556 0.058582135 -0.036246788 -0.03137514 -0.038560737 0.018808397 0.09961371

fc1.bias f4 [128]
00000000: 84de 49be beaa 6f3e 91e8 a93d 7ea8 98bd
00000010: aeed 70be aec1 893e b34a 9f3d e191 e3be
00000020: 96bc afbe a269 98be 0b42 48bf 4095 2dbe
00000030: f0dd 8dbe f2ae e3bc 51d2 1fbc 7983 2d3f
00000040: df72 7f3d f02a 85bd 26e7 e5be 1886 79be
00000050: 992d 0fbf 1543 f8be 3421 cb3d c6d7 7cbe
00000060: e35e 09bf 767b 853d 7edd 093e 974d a0be
00000070: 5036 a2bd f743 9cbe 4432 863e 0925 34be
00000080: 072b 153e 13eb 66be 4921 92be 86d4 8dbe
00000090: 6554 7dbe ee22 9a3e 3654 40be af74 c3be
000000a0: c479 e7bd dc29 1a3e ca4a c9be a107 f0b9
000000b0: d1d8 47be 38c5 1dbd 6afe c1be 3e9e b83d
000000c0: d7f5 b83e 0be1 24be 42a6 0a3e 32c5 d73d
000000d0: 0dfb b2bc 186b e9bd ab31 dcbd 06ca 903e
000000e0: 33b8 2fbf e155 7f3d 70c1 553e 67db 6dbd
000000f0: 3ec1 59bd 9855 2c3e 0659 a3be efcd f1be
00000100: 2234 1dbd 1f51 eabd 1917 553e d1a0 fc3c
00000110: 77f6 2bbe f976 35bb ae3f afbe bbe8 c83d
00000120: 854f 0a3e 7566 633c 3643 f7bc 5fcb bebe
00000130: 7a3c 2c3e ab07 4cbe 39d0 983d daac f6be
00000140: be5e f3bd 540a 0b3f baaa 313e 2138 26bd
00000150: 2581 92be b43e 1fbf 1204 5f3e c04b 0a3f
00000160: d584 863e 9345 3bbe 7860 a7be 0b33 8b3c
00000170: 1e48 483e 98d2 debe 35af 1e3d 4b87 88bd
00000180: 3bbc f73e cc4d 85be 8876 573e 7019 603c
00000190: b2ad d6be 7e19 d63e f3f8 adbe 449e a7be
000001a0: 9322 a3be e3de c6bd a728 d63d dc44 0cbf
000001b0: c418 87be 0ddb 843d cc9f f63d 8832 a9bd
000001c0: 99f7 883e e861 97be 55f9 7cbe 533a c03d
000001d0: 1714 233e dc07 88be b4ea e93d 1b05 33be
000001e0: b1f0 07bf 32c3 083e f85c 993e acd0 90be
000001f0: abe4 b63d 6e1a 2abe 101b b43e 3712 823e
-0.19713789 0.23404977 0.08296312 -0.07454012 -0.23528168 0.26905578 0.077779196 -0.44447234
-0.34323567 -0.2976809 -0.78225774 -0.16951466 -0.27708387 -0.027793381 -0.009754733 0.67778736
0.06236541 -0.0650233 -0.44902915 -0.24367559 -0.5592895 -0.4848868 0.09918442 -0.24691686
-0.5366041 0.06517689 0.13463399 -0.31309196 -0.079205155 -0.30520603 0.26210225 -0.17592253
0.14567195 -0.22550611 -0.2854102 -0.27701205 -0.24739225 0.30104774 -0.18782124 -0.3817496
-0.11302522 0.1505503 -0.39314872 -0.0004578205 -0.19516303 -0.03851816 -0.37889415 0.09014557
0.3612506 -0.16101472 0.13539985 0.10535659 -0.021848226 -0.1139738 -0.10751661 0.28279132
-0.6864044 0.06233776 0.20874572 -0.058070567 -0.053162806 0.16829526 -0.31903857 -0.47227427
-0.038379796 -0.11441254 0.20809592 0.030838402 -0.16793238 -0.0027689321 -0.3422827 0.09810015
0.13506897 0.013879408 -0.030183416 -0.37264535 0.16819945 -0.199248 0.0746159 -0.4817875
-0.11883305 0.54312634 0.17350283 -0.040580872 -0.28614154 -0.6220505 0.21778896 0.54021835
0.26273218 -0.18288259 -0.32690787 0.016992113 0.1955876 -0.43520045 0.03874131 -0.0666643
0.48385796 -0.26035917 0.2104131 0.01367794 -0.41929394 0.41816324 -0.33978996 -0.32737935
-0.31862316 -0.09710481 0.104569726 -0.5479257 -0.26386082 0.06487093 0.120421976 -0.08261591
0.26751402 -0.29566884 -0.24704488 0.093861245 0.15925632 -0.26568496 0.11421719 -0.17482416
-0.5310164 0.13355711 0.29953742 -0.28284204 0.08930334 -0.16611645 0.35176897 0.25404522

fc2.weight f4 [64, 128]
00000000: b1d9 6a3e 2f98 cc3e 9d12 363e a446 f33e
00000010: a2c1 9c3e 4f6e c53e 4251 bc3e 421c cb3e
00000020: af28 9bbe 1c4e 3abe 7889 aabe 3498 583b
00000030: ef1d 6dbe d4ae 72bf 20b7 37bd d55d 3b3e
00000040: 0194 16be 9ca4 b93e 2fd0 e13e 93e0 0abe
00000050: 4bd1 8ebe ac11 c53e 1e62 0a3f 715b 8e3e
00000060: 3994 ac3e 4082 f4be f971 5e3d 4b4e 123d
00000070: 8939 9d3e d93a 863c 8870 fc3d 4653 483e
00000080: d4f0 a2be ec77 ef3d dbe4 d4be a30b 0abf
00000090: 7219 5c3e a188 a9be c69f 543e 153d 103f
000000a0: a390 e13e 6bb1 81be 4664 933e 4fb4 573e
000000b0: ddef 3a3e 7458 973e d358 e3bd 9902 c3bd
000000c0: cc22 823e 6337 d23e fbf2 633c fb8d 9ebe
000000d0: a003 b43e 4fc8 623b 07b3 fdbd 904b 7c3e
000000e0: cb51 783c 737d b1be c163 7e3d 72dd 473e
000000f0: 00b3 4abe 5fe5 853e 1e94 47bd 86ac 00be
00000100: 603d a93e 68c3 7cbd 19a3 9dbe 3a59 873d
00000110: 69c6 78bf e3dc 86be 0736 2b3e 654d 22be
00000120: b75e ab3e df81 093f 99dd c43e 8a53 4abe
00000130: b74c f7bc e266 0fbe 5c7b d93d bd80 a93e
00000140: 73b3 aabe 4926 4c3e a4d1 82be 31d1 f43e
00000150: 6c30 1cbf a5e4 763e dc05 2dbf dd92 cb3e
00000160: 82d4 67be c1b6 48be f831 633e f29c 92bd
00000170: e54f ea3e ecc4 3bbb d79a 06bd f74a a93e
00000180: 4225 c93e 5ccb e43d f4cb 98ba ef20 3abe
00000190: 17cc dd3e 930e d2bc 972f ad3d e69c a3bd
000001a0: 60bf e3bd cd2c 9fbd 7fc4 3bbe 3275 45be
000001b0: 9c9b 0bbd b9fd 803d 5743 083e 12d0 a93e
000001c0: 8606 3dbf 64fb 153e 1190 babe cdeb 77be
000001d0: dc6a d53a a9b1 b9be e9f4 67be b0c6 8f3d
000001e0: e041 9bbe b5e5 f2bd 9449 7f3e f50f 9c3e
000001f0: d0da b4bd b4e1 913d 9748 e6bc ca22 1ebe
00000200: 7ce9 9c3d 95a4 093f 46b6 5f3e a3f7 833e
00000210: 4487 4e3d 15a3 163e 3e09 013e 0218 31be
00000220: 3c9a e9bc 95a0 db3e c64d 203e 45fd 34bd
00000230: 2e04 af3e 882e 09bf 7ba1 ee3d 18f6 ccbe
00000240: 8578 d63c 24c8 debc d4fd 27be 1013 2f3e
00000250: 8c7c b9be 11de ae3d 0908 163d 8fe2 9c3e
00000260: c028 d6bd 2f15 203e 27dd 2c3e ca50 e13e
00000270: 9a09 c4bd 7449 153f 0555 e23d eeb7 0bbf
00000280: 58f1 cfbe 78fa 9f3d 26d2 033f a0e6 6b3e
00000290: 475c 9cbd c50f 093f 6bd7 db3e a3b6 9d3e
000002a0: aea1 97be 1e31 84be 8e0d f23d 0e67 a8bb
000002b0: db37 d53e 9338 59be 0256 db3c df26 80bd
000002c0: 70a9 89be 5014 cabe c0e5 a3bc c383 1ebe
000002d0: f677 2fbf 14af 7d3e d2f3 20bd c322 67bf
000002e0: bda2 e3be 8dc5 843e de66 83be d63b 1cbe
000002f0: 0b50 c43e 68ec 2d3e f311 1b3e 94ec ac3d
00000300: a0e2 e7bd 6e46 02bf 94e7 79be 3ea8 40be
00000310: 510e d4be fd4e 86bd b243 c43e eacb 9ebe
00000320: 79b2 08bf 5c84 f03d 7590 233d fe8e 953e
00000330: e581 4b3e 5303 753e 6de6 c73d f43f 2cbe
00000340: 0bf8 763e 1eb3 8d3e ec14 183f 847a 08bd
00000350: 09a2 853d 60dd a33d 9a10 bdbe b619 d5be
00000360: 7889 833e 52e5 c5be 94b9 5ebe 1a71 89bd
00000370: 847b be3e ab05 a43e 1763 abbe e7eb 86bf
00000380: 4eff 2b3d a4e9 2bbe 344b dc3d f8d1 a53e
00000390: 569f ea3d af24 dc3d 1eeb 3f3c 34a8 8abd
000003a0: c967 1fbe e28a 30be 40ad 8d3e 6045 0d3e
000003b0: 6fde 8b3e 7a07 ef3e fae6 36bd 4d92 82bd
000003c0: 54e4 abbd 2a27 cf3e b0f9 023f 42e9 013f
000003d0: 0f37 34be 3587 123e 499f 01bf afe0 a9bd
000003e0: 84de cb3e b3c2 a93e e77e 6f3e 8b0d 073f
000003f0: 9f09 8f3e abf7 2b3c 3427 83bd 86f6 63be
0.22934605 0.39959857 0.17780538 0.47514832 0.3061648 0.3856072 0.36780745 0.39669997
-0.30304477 -0.18193859 -0.33308005 0.0033049705 -0.2315595 -0.94798017 -0.044852376 0.18297513
-0.14704897 0.362584 0.44104144 -0.13562231 -0.27894053 0.38490045 0.54055965 0.2780414
0.33706835 -0.47755623 0.05430791 0.035719197 0.30707958 0.016385483 0.12326151 0.19563016
-0.31824362 0.11692795 -0.41580853 -0.53924006 0.21494082 -0.33112052 0.20764074 0.56343204
0.44055662 -0.25330672 0.2878744 0.21064876 0.18255563 0.29559672 -0.11100926 -0.0952198
0.25417173 0.41057882 0.0139129115 -0.30967698 0.35159016 0.0034604257 -0.123876624 0.246382
0.01515622 -0.34666023 0.06210685 0.19518068 -0.19794846 0.2615156 -0.04872524 -0.12565812
0.33054638 -0.06170979 -0.30788496 0.066088155 -0.9717775 -0.26340398 0.16719829 -0.15849836
0.334707 0.5371379 0.38450316 -0.1975843 -0.030187948 -0.1400409 0.10619232 0.33106032
-0.33340034 0.1993648 -0.25550568 0.4781585 -0.61011386 0.24110658 -0.67587066 0.39760485
-0.22639659 -0.19600965 0.2218703 -0.07158841 0.4576408 -0.002865131 -0.03286251 0.33065006
0.39286238 0.111716 -0.0011657462 -0.18176626 0.4331977 -0.025641715 0.08456343 -0.079889104
-0.11120486 -0.07772217 -0.18336676 -0.19282988 -0.034083948 0.06298394 0.13306938 0.33166558
-0.7383808 0.14646679 -0.3643804 -0.24211045 0.0016282457 -0.36268356 -0.2265202 0.070203185
-0.30323696 -0.118602194 0.24930412 0.30480924 -0.08830798 0.071231276 -0.028110785 -0.15442958
0.07661721 0.5376676 0.21846876 0.2577487 0.050421968 0.14710648 0.12601182 -0.17294315
-0.028515927 0.42895952 0.15654668 -0.04418685 0.34182876 -0.53586626 0.11651894 -0.40031505
0.026180515 -0.027195044 -0.16405421 0.17097116 -0.36227834 0.085384496 0.036628757 0.306416
-0.10456991 0.15633081 0.16881238 0.4400695 -0.09572144 0.58315206 0.110513724 -0.5457753
-0.40613818 0.07811445 0.51492536 0.23037195 -0.07634788 0.5353969 0.42937788 0.30803403
-0.2961554 -0.25818723 0.118189916 -0.005139238 0.41644177 -0.21212988 0.02677441 -0.06257414
-0.26887083 -0.39468622 -0.020007014 -0.1547995 -0.6854242 0.24773818 -0.039295025 -0.9028742
-0.44460097 0.2593197 -0.2566442 -0.152572 0.38342318 0.16984713 0.15143566 0.08443561
-0.11322522 -0.5088872 -0.24404746 -0.1881418 -0.41417173 -0.065580346 0.38332897 -0.3101495
-0.5339733 0.117439955 0.039932687 0.29210657 0.1987377 0.2392705 0.09760747 -0.16821271
0.24118058 0.27675718 0.59406924 -0.033319965 0.065250464 0.08001208 -0.36926728 -0.41621178
0.25690818 -0.3865152 -0.2175048 -0.067110255 0.3720361 0.32035574 -0.33474037 -1.0540742
0.041991524 -0.16788346 0.10756531 0.32386756 0.11456172 0.10749184 0.011713771 -0.067703635
-0.15566935 -0.1724048 0.27671242 0.13795996 0.2731814 0.46685392 -0.04465387 -0.06375561
-0.083931595 0.40459567 0.5116224 0.5074655 -0.17599128 0.1430939 -0.50633675 -0.08294808
0.39818203 0.33156356 0.23388253 0.5275504 0.27937028 0.01049606 -0.06403962 -0.2226201

fc2.bias f4 [64]
00000000: 1b4a b33e 12db d03d 4660 9ebc e136 e73d
00000010: 71ef 8bbe 0a99 23be bfa4 25be 60bc e63d
00000020: 9703 29be 687d aabe 7db5 a1be cf88 d53e
00000030: 4629 903e 87c3 5a3e d612 6cbe 9c30 8d3d
00000040: a9a8 a73d 777b 4fbe 28cd 7c3e a56e 1fbe
00000050: 4c7e 243e e4b8 6bbd fe3d 8cbe f074 bdbe
00000060: fee6 15be 04fb 0cbd e724 a6bd 9979 69be
00000070: 30cb 55bc 8d8f 8abe 85d4 6a3d 82cf ef3d
00000080: f645 a5be f56e 48be fec1 f33d 3c7c f2bd
00000090: 5d32 a0be c7f8 1e3d 12bf 11bd a05e 473e
000000a0: 3cc8 c9bd 5750 fe3d a0ed 1e3e 9f60 343c
000000b0: 9fd4 36be b185 cf3d 77a4 ed3d fb88 893e
000000c0: 50cf 373c 178f 213c 3fee 09be dfb8 89be
000000d0: 1f2a b2be 910a 55bd 4638 2ebe c908 61be
000000e0: ae69 853e 3c26 313e bf5e 5b3e 6817 0d3f
000000f0: e12e 103d 2111 a8be 2755 03be bd26 d6bc
0.35017475 0.10198034 -0.019333016 0.11289764 -0.27331117 -0.15976349 -0.16176127 0.112663984
-0.16505276 -0.33298802 -0.31583777 0.4170594 0.2815649 0.2136365 -0.2305406 0.06894037
0.08186466 -0.20261942 0.24687636 -0.15569551 0.16063803 -0.057549372 -0.27391046 -0.3700328
-0.14638898 -0.034419075 -0.08112507 -0.22800292 -0.013048932 -0.27062646 0.05733158 0.11709501
-0.32279938 -0.19573577 0.119022354 -0.11840102 -0.31288424 0.03881147 -0.03558261 0.1946969
-0.09852645 0.12417667 0.15520334 0.011009364 -0.17854546 0.101329215 0.11603635 0.2686232
0.011218861 0.009860775 -0.1346979 -0.26898858 -0.3479776 -0.05201203 -0.17013654 -0.21976008
0.2605719 0.17299742 0.21422862 0.5511384 0.035200957 -0.32825568 -0.12825452 -0.026141519

fc3.weight f4 [4, 64]
00000000: 50c4 d4be d5cf 183f d551 b4be be88 e6be
00000010: 0cd4 863f 3c37 593e 898e bcbe 6751 11be
00000020: 5e4b 313e 9305 4f3f a741 f33c f99a 683f
00000030: c3f1 c23e e3cb c2be ca55 a7be 4984 d0be
00000040: 159f da3d 6735 5f3f 3ee7 8c3d 3bc0 f03e
00000050: 51f5 6abe 4b84 043f 1df0 56bf 0ade ea3e
00000060: 6685 a03f 4661 48be c7d3 54bf 82f1 56bf
00000070: ca13 8f3f 1d27 8b3e 740f 943e c1e2 483e
00000080: 2279 503f 87aa 2a3f 1ee8 a5bf 9ccc dd3f
00000090: 8c62 dc3e ebf5 98bc ae3e 42bf abdc aebe
000000a0: 64ac e8bf d98f babe c9c1 0dbf 4bf8 6a3f
000000b0: 1fae 3b3e 41be f73e 3739 8f3d d3fb 2cbf
000000c0: 15fb 24bf 517f 0bbf 152f 90bd eb0f fe3e
000000d0: aedc 9d3f ee0b 56bf 4d6b f5bd 1385 01c0
000000e0: 188b 51be 7cec ecbe 3aa2 13bf b78a d3be
000000f0: 9eeb 6f3f 4cab be3f c95d 343e 4f4f aa3f
00000100: 725a 95bf 67cc 2f3f af1f 24bf ed16 7b3f
00000110: d9e4 ee3e ddeb 90bf 9f4f 4a3f e507 21bf
00000120: cac7 7a3e 87b5 23be 3662 943f eb33 c33e
00000130: b1e6 41be 356f 45be 6f00 09bf e704 733d
00000140: 8ef8 1cbf e6b8 85be 5d9f 91bd c5a4 c7bb
00000150: 5747 703f db07 89bf ce5d 3cbe 3c0f dfbe
00000160: 0623 213c f0ad 1e3f 9de8 e3bd 24c6 4b3e
00000170: c503 fc3c 77e2 d9be be49 9cbe 3627 99bc
00000180: e2dc 5bbd bc5c 59bf e3c5 bcbd 85dd 123e
00000190: 2949 df3e 780c 1abf 7bf5 643e 0227 433e
000001a0: c6f7 5d3e 1217 53be 77b3 2fbe 5607 773e
000001b0: 9f80 b03f e1e8 23be 29f1 efbe 191d 253f
000001c0: e272 11bf a1f9 e73e 7018 38bf 1c30 5ebf
000001d0: 548a 1e3d b799 f4be eaa5 cc3d 09b3 cd3e
000001e0: 62c0 83be 9171 2a3f 65b3 cd3d 718b 32bf
000001f0: 18a6 013f dfc8 0f3e b946 c83e 547f 1ebe
00000200: 410d d93b b407 183d 909b 56be 2ee0 e93b
00000210: f3fd c43f 1823 623e 3749 f63d a771 8dbd
00000220: 83d3 0abe f762 c8be 48fd 023d caf3 b6bb
00000230: 6b34 8bbd f869 22bd 93ae 4dbf 2637 0fbd
00000240: eb03 453c b27c 853d 0058 1c3f 3643 52be
00000250: 507b 8cbd 2b29 923c 890d ffbe 05e7 a13e
00000260: 5eb7 613f 1c61 d83d b1bc 6cbe c400 d5be
00000270: afd2 b73e d8d2 d9bd db72 863f ff50 ccbd
00000280: b411 2c3c 0c4b 44be 4800 91bc 0e26 db3d
00000290: ea61 843f 8a58 efbe 905a 97be ce2b 3bbf
000002a0: 715c 93bd 976c a03e d0a6 f7be 70e8 013e
000002b0: b7d3 db3b fe78 d53e 8967 163f edb0 9fbd
000002c0: e5c3 29bf b954 84bf ceee 0ebe 87e7 01bf
000002d0: 0680 6e3f fccd bebe 2de6 66bf ea68 dd3c
000002e0: 78d1 64be 54a4 ae3c 7c07 f5bd 3616 edbe
000002f0: e465 8ebc 53db 803f 6e0b 3c3c d145 af3f
00000300: e38c 373e cc59 ec3c c602 3abf 4919 873f
00000310: 875e 0fbc 59de c9bd 786e 293e a618 1c3f
00000320: 6fb3 193f e68b cdbc d600 b63f c294 9e3f
00000330: 34a0 27bf fa51 2f3f 25ec 88bf 2842 11bf
00000340: a86a 7abf c0df c3be ae79 173e 0f19 973e
00000350: fc22 c33e 3412 9abe 7e8a b2bd c533 943e
00000360: 5c8a 693e fe4d 883e 7fed 8fbe 7f2e b83f
00000370: 6985 d2bd aa56 473e ecf9 13be dfcd 8bbf
00000380: 4a25 95be 4615 893e 4c10 8e3c 24e2 533d
00000390: 8faa 823f e1b1 10bf 59a4 903e 3d85 81bd
000003a0: 4563 54bf 7c9f fa3e f356 d43d 7af8 6d3d
000003b0: 6ca5 213e ae06 b13d c4d7 04bf 8ffb d63e
000003c0: 4490 4abe 5db4 62be ea6d 55bf 9973 07bf
000003d0: 4560 40be 839e 3fbf 8334 31bf b22d 8fbe
000003e0: d2fc b3be 80bf 1bbf e402 67bf 7b94 a5be
000003f0: 4b54 5f3f 17bd 5d3e 3ed7 99bf a5e1 ac3c
-0.41556025 0.59692127 -0.35218683 -0.450262 1.0533462 0.21212476 -0.36827496 -0.14191209
0.17313907 0.8086788 0.029694391 0.9086147 0.38075075 -0.38046178 -0.3268264 -0.40725926
0.10674874 0.8719086 0.068800434 0.4702166 -0.22945143 0.51764363 -0.83960134 0.45872527
1.254071 -0.19568357 -0.83135647 -0.8396226 1.1177914 0.2717828 0.2891804 0.1961775
0.81434834 0.66666454 -1.2961462 1.7328067 0.43043935 -0.01867195 -0.7587689 -0.3415273
-1.817761 -0.36437872 -0.5537382 0.91785115 0.1832814 0.4838734 0.06993335 -0.67571753
-0.6444562 -0.54491144 -0.0704023 0.4962152 1.2332971 -0.83611953 -0.119833566 -2.0237472
-0.20463216 -0.46274173 -0.57669413 -0.4131677 0.937189 1.4896026 0.17613901 1.3305453
-1.1668227 0.6867127 -0.64110845 0.98081857 0.46658972 -1.132198 0.7902774 -0.6290267
0.24490276 -0.15987216 1.1592472 0.38125548 -0.18935658 -0.19280703 -0.53516287 0.059330847
-0.61316764 -0.2611763 -0.07110474 -0.00609264 0.93858856 -1.0705522 -0.18395159 -0.4356631
0.00983501 0.6198416 -0.11128352 0.19899803 0.030763516 -0.4255559 -0.3052501 -0.018695455
-0.053677447 -0.84907126 -0.092174314 0.14342315 0.43610504 -0.60175276 0.22359268 0.19057849
0.2167655 -0.2061427 -0.17158304 0.24123892 1.3789252 -0.16006805 -0.46863678 0.64497524
-0.5681592 0.4530764 -0.7191229 -0.8679216 0.03870614 -0.47773525 0.09992583 0.40175655
-0.25732714 0.6657954 0.100439824 -0.6974402 0.50644064 0.1404147 0.39116457 -0.1547826
0.0066238944 0.03711672 -0.2095778 0.00713732 1.5389999 0.220837 0.120256834 -0.06906443
-0.13557248 -0.39138004 0.03197983 -0.005583261 -0.06797107 -0.03965184 -0.80344504 -0.034964703
0.01202486 0.06517924 0.6107178 -0.20533451 -0.068594575 0.017841896 -0.49815014 0.31621566
0.8817042 0.10565397 -0.23118855 -0.41602147 0.35902926 -0.106359184 1.0503801 -0.09976386
0.010502268 -0.19169253 -0.01770033 0.10700618 1.0342381 -0.46747237 -0.2956128 -0.73113716
-0.07195366 0.31332847 -0.48369455 0.12686324 0.006708588 0.41693872 0.5875173 -0.07797418
-0.66314536 -1.0338355 -0.13958284 -0.5074391 0.931641 -0.3726653 -0.9019497 0.027027566
-0.22345531 0.021318592 -0.11964318 -0.46306008 -0.01738257 1.0066932 0.011477334 1.3693181
0.17924838 0.028851412 -0.7266048 1.0554591 -0.008750564 -0.098568626 0.16546047 0.6097511
0.6003942 -0.025091123 1.4219005 1.2389147 -0.65478826 0.6848446 -1.0697066 -0.5674157
-0.97818995 -0.38256645 0.14792511 0.29511306 0.38112628 -0.30092013 -0.087178215 0.28945747
0.22806686 0.26622003 -0.28110883 1.438919 -0.10279352 0.19466653 -0.14450806 -1.0922202
-0.29130012 0.26774043 0.017341755 0.051729336 1.02083 -0.5652142 0.28250387 -0.06324241
-0.82963973 0.48949802 0.10368147 0.058098294 0.1578576 0.08643852 -0.5189173 0.419888
-0.19781595 -0.22139116 -0.8337084 -0.52910763 -0.18786724 -0.74851245 -0.6922075 -0.2796455
-0.35153824 -0.6083908 -0.90238786 -0.32339844 0.87237996 0.21654163 -1.2018812 0.02110369

fc3.bias f4 [4]
00000000: beae 25be 5727 44be f4f9 64be 2f78 dcbd
-0.1617994 -0.19155632 -0.22360975 -0.10765111
