Udacity/Deep Reinforcement Learning Nano Degree/Continuous Control/checkpoint_critic.pth (torch_old, 52711 bytes, 5 tensors)

fcs1.weight f4 [128, 33]
00000000: a9ce d03c 9f6e d2bd 5d11 803d 23ca 073f
00000010: 6b35 513e 6cf0 a33e 2e8b b9bd f493 1f3d
00000020: ad49 323e 2898 0b3d f440 fe3b 7a8d 4f3c
00000030: 5a9f 9fbd f193 763d d705 bf3d 6e71 89bd
00000040: 6e8c 0bbd b2ff b43e af6f a8bc 454b 3fbe
00000050: 2d79 86bb 25c0 a93b 468d 5f3d 56de 503d
00000060: 7c10 793d 9a12 433d 1c79 39bc 0235 b93e
00000070: 1acb 393e d43b 52bd 518c a8be 541f 063d
00000080: d1ae 0fbf 4d17 55be ccd2 26bd cb80 1e3e
00000090: f1bd e33c d45e 0d3e ef12 60be 29ce 743e
000000a0: 0ed8 e63d 77d2 97bd d08c 523e eb80 48bd
000000b0: f6be 9f3d 8433 cb3d d2d3 a03d 84b2 1dbe
000000c0: 741b 433e f1b5 be3e aa9f 92bd 4206 3e3f
000000d0: 5b6e 073d eec2 033d 0e9b 9b3c 3ec0 913d
000000e0: edfe f2bd add8 c1bd 8dae 643d 3d1f 9b3d
000000f0: 688d 523e 50e8 46be 2771 45bd 22d3 4ebe
00000100: 6b96 853d 741a 51bc d250 3dbe 10ce 093e
00000110: ed4e 803e 7df1 f6bc 8139 063e 7418 743d
00000120: 598a 893d 3eb3 9039 981f 813d 3732 223d
00000130: 5bfc 363d 41fb 80bd 3478 8c3d bdc6 223e
00000140: 06b5 efbd f362 38be 53df ae3a 7122 62bd
00000150: 9fe1 1dbd fb19 833e 3a48 57bd 1c5b a73c
00000160: fe19 31bd 7006 ca3d a93d 083d 7230 bcbd
00000170: d9a7 0c3a 73bf 913e 33cd 2f3e 00a2 acb9
00000180: 30fb bbbe 40db d0bb 425b 89bf 8443 cc3d
00000190: d93c a2bc 1832 00be 8fcf 84be c2bf d73e
000001a0: cda7 7dbc 8e78 a23c 6e3b 9c3d b2ce 2b3d
000001b0: bcbd 4ebe 4079 e63d ecfa 443d a7e4 933d
000001c0: 63cb 91bd 8164 bdbc 4d7e a13d 001f b73e
000001d0: 6b71 2dbe 1ab8 c73e 9524 1b3f cfb3 0cbc
000001e0: c493 bc3b 76d0 c8bc 93a2 39be 9a5c 203d
000001f0: ecb7 d93d a43e 47be 8d20 843e 8686 1a3e
00000200: add9 46bd f501 6abe 3d6d b43d 75cd 443f
00000210: 2041 d73d 9e8b aa3e 0db3 38bc b9d5 3cbf
00000220: 8ae1 e1bd 2868 603d e3fb 50bf 10f9 10be
00000230: c4fb 8b3d 413e b53d cc09 3c3d bd17 2c3e
00000240: f6aa 0bbd 789c b33c 458e 3dbe 8bf4 c0bd
00000250: 063c cf3d 0e7b 3c3e c7a7 333e 2895 9dbe
00000260: 9870 803d 3a44 2cbd d297 3a3d a4ed 90bc
00000270: 03d9 45bd 0007 87bd 30d4 d43d 2ad3 8f3e
00000280: b748 01be a829 473c e7e7 8dbe 838d 80bd
00000290: b46f 8fbe bb38 52be 68c9 f7bc 67c5 1e3e
000002a0: accf 5f3e dfbb 343e 98fc 33bf 3e8d adbe
000002b0: e5ca 863d ff07 113e 9cf2 163d a1e8 4bbe
000002c0: 0333 eb3c b766 ab3d b955 e13d 3a11 0ebe
000002d0: e531 d7bd e542 393e 7a03 053e f2da 09be
000002e0: c010 c53c 1953 d4bd a1db 47bd e83a f0bd
000002f0: 5a43 a1bc 18a6 ed3b fdbd eb3c db36 743d
00000300: 2769 ab3d b02a e73d 402d 163b 334c bebd
00000310: a29e 093d 621c 9fbd ea0e cfbc 8e9a 28bd
00000320: 7b05 693e b275 f4be 4976 0cbf 091f 073f
00000330: 29d9 8e3e 71fa cf3c 4aa5 f2be ee4e 15bc
00000340: 466a efbd 0d2f 35bd d535 c8bd 23f3 d0bc
00000350: f5dd 253d c386 15bd f33c 2b3e aff3 cb3e
00000360: 1c0e 1c3f 4513 41bc 4365 3abc 212e 18bd
00000370: 6c9e 02bd 9039 9f3c 3007 e7bc 6235 a3bd
00000380: 0e68 2f3e 6bab 283e ffce 29bd 7abd 423d
00000390: 5616 73bd 7406 ebbc a736 b2be b432 30be
000003a0: 54a7 4dbd 6acc 873b b6b6 ddbd a775 8fbd
000003b0: 61a0 b23d c6df 3dbe 06d3 eb3d 6281 44be
000003c0: 6cdb 653e 2f4b 723d bb13 cbbd 8eca ed3c
000003d0: d1d1 69bd 91ac c73d 029d c7bd 5e96 18be
000003e0: 7961 713e b3bb b33d 97c3 22bf 59fa e5b9
000003f0: 7a36 163d cb13 39bd 286e ef3b a4e1 09bd
0.025489168 -0.102750055 0.06253312 0.5304281 0.20430534 0.32019365 -0.090597495 0.03895946
0.17410918 0.034080654 0.007759208 0.012668008 -0.07794066 0.06019968 0.09327286 -0.06711088
-0.03406947 0.3535133 -0.020561067 -0.18681057 -0.0041038007 0.005180376 0.05457809 0.050993286
0.060806736 0.04762516 -0.011320379 0.36173254 0.18143883 -0.051326588 -0.32919553 0.03274472
-0.56126124 -0.2080967 -0.040728375 0.15478818 0.027800532 0.13805705 -0.21882223 0.23906769
0.11271678 -0.0741319 0.20561528 -0.04895107 0.07800095 0.09921935 0.078529015 -0.1540013
0.19053441 0.37248185 -0.0715936 0.742283 0.033064228 0.03216832 0.018994834 0.071167454
-0.118650295 -0.09465156 0.055830527 0.075743176 0.20561755 -0.19424558 -0.048203614 -0.20197728
0.065228306 -0.012762655 -0.18487862 0.13457513 0.25060216 -0.030144447 0.13107873 0.059593633
0.06715841 0.00027599366 0.06304854 0.03959867 0.04467426 -0.06297923 0.068588644 0.15896125
-0.11704449 -0.18006496 0.0013341702 -0.055208627 -0.038545247 0.2560576 -0.052559115 0.020429187
-0.04323768 0.09864509 0.03326193 -0.09188928 0.00053655874 0.28466377 0.17168121 -0.00032927096
-0.36715078 -0.006373793 -1.0730975 0.09973815 -0.019804405 -0.12519109 -0.25939605 0.42138487
-0.015481901 0.019832876 0.07628523 0.041945167 -0.20189565 0.11253595 0.04809086 0.07221346
-0.07118871 -0.023119213 0.07885418 0.3576584 -0.16937797 0.39007646 0.60602695 -0.008587792
0.0057549197 -0.024513464 -0.18128423 0.03915081 0.106307834 -0.19457489 0.25806084 0.15090379
-0.048547436 -0.22852309 0.08809898 0.76876 0.105104685 0.33309644 -0.011273158 -0.73763615
-0.11029346 0.05478683 -0.8163435 -0.1415751 0.0683513 0.088497646 0.04590778 0.1680593
-0.034098588 0.021925196 -0.18511303 -0.09421643 0.101188704 0.18406317 0.1754447 -0.3077786
0.062714756 -0.042057253 0.045554943 -0.01769144 -0.04830266 -0.06593132 0.10392034 0.28090793
-0.12625395 0.012155928 -0.2771599 -0.06276991 -0.2801491 -0.20529453 -0.030247405 0.1550499
0.21856564 0.17649792 -0.703073 -0.33896822 0.06581668 0.14163207 0.036852464 -0.1991296
0.028710848 0.08369201 0.110026784 -0.13873759 -0.105075635 0.18091924 0.12989607 -0.13462427
0.024055839 -0.10367412 -0.04879344 -0.117299855 -0.019685436 0.007252466 0.028777117 0.059622627
0.083696656 0.11287439 0.0022915155 -0.092918776 0.03359855 -0.077690855 -0.025275666 -0.04116302
0.22755997 -0.47746044 -0.5486799 0.5278173 0.27900055 0.025387974 -0.4739173 -0.009113057
-0.11690192 -0.044234324 -0.09775893 -0.025506562 0.040494878 -0.036505472 0.16722469 0.39834353
0.6095903 -0.011784379 -0.011376682 -0.037153367 -0.031889364 0.019436628 -0.02820167 -0.07969166
0.17129537 0.16471641 -0.041457172 0.04754398 -0.059347473 -0.0286896 -0.3480732 -0.17206842
-0.050208405 0.004144241 -0.10825865 -0.07004862 0.08721996 -0.18542394 0.11514859 -0.1918998
0.22446984 0.059153732 -0.09915873 0.02902725 -0.057084862 0.09749711 -0.09746744 -0.1490111
0.23572339 0.08776035 -0.63579696 -0.00043864807 0.036673047 -0.04518489 0.007306833 -0.033662453

fcs1.bias f4 [128]
00000000: f6a0 97be 5573 c8bc 246b b5be b89f 63be
00000010: f414 82be a523 e5bd 59db 933c 60f9 b0be
00000020: 797d debe 1f27 0d3e 67b2 5abe 4e12 18be
00000030: 5a99 933c 09bf 90be 3879 93be b9ba cf3d
00000040: e051 c1bd b444 9dbe 94ca 9fbe 43e4 5bbd
00000050: 24c9 9ebe 0935 eebe fd52 edbe 5e9f 9d3d
00000060: 7867 91be 6664 2fbe 28b2 c4be aec1 04bf
00000070: f127 c4be 4412 d1bd c179 99be ee19 f5bd
00000080: 6fc1 1abe 53cb 1f3e 53a7 78be a5e7 1f3e
00000090: beb7 04bf 5cd2 853e eebe 74be 9793 56be
000000a0: 8483 34be 81d1 f3bd f64e d5bd 83fc 2cbc
000000b0: 99ec 85be a3c3 21be 0355 75be 18be e3be
000000c0: 625b 0ebd b7df 38bc edb3 2dbe d1df e7be
000000d0: 421d 58be 8bdf 30be be46 61be 8068 b33d
000000e0: a434 b53d 09a4 88be 0ccb ee3c 1ece 94be
000000f0: 125b f9bd 6c47 813e d43d 26be 29c2 f7bd
00000100: 1f76 04bf 60c3 07be b573 ee3d d466 48bd
00000110: b9fa 4dbe d4f1 babe 6080 ebbe c119 abbe
00000120: ef3a 0bbd 6a1a 1fbd fe95 6dbc 98c4 92be
00000130: 15da 85be f1a8 09bf 87c5 39bd 2e2a f4be
00000140: 9e42 8bbe 9228 67bd e08c ef3c 06d0 06be
00000150: 73dc 7bbd 9d05 c6be 2c7d eebe bc6b 4dbe
00000160: 216f a53c 832c aebc 4c4f 96be 6e7f 943e
00000170: 7ed0 d0be 19a9 e23e 73c4 87be 8099 d8be
00000180: a51d 583d 1a63 13bf 5005 273f 2c56 973b
00000190: 50cf c8bd 43d0 aabc 093e 0cbe 6c5a 8bbe
000001a0: 27ba b5bd 6411 873d bdbb 1abe 5ad9 bfbe
000001b0: 4bc6 0abf 18d5 bdbe 3c90 dfbd db88 d03e
000001c0: c455 863d 2dd0 dabe f8ab a0be 82c9 77be
000001d0: c161 87bd a07a a53e 267d adbd d6e0 82bd
000001e0: b43d cdbe b215 093e 03e2 80bd b143 77be
000001f0: 4635 5fbe f4a2 6cbd 4406 45be bc06 c6bd
-0.2961499 -0.024469057 -0.35433304 -0.22228897 -0.2540661 -0.11188439 0.018048929 -0.34565258
-0.43455103 0.13784455 -0.21357118 -0.14850733 0.01801746 -0.28270748 -0.2880342 0.101430364
-0.094394445 -0.3071648 -0.31209242 -0.053684484 -0.31012833 -0.46524838 -0.46352378 0.076964125
-0.28399253 -0.17128143 -0.38417172 -0.5185803 -0.38311723 -0.10208562 -0.29975703 -0.11967836
-0.15112852 0.15604906 -0.24282579 0.15615709 -0.5184287 0.26137054 -0.23900959 -0.20954739
-0.17628294 -0.11905194 -0.10415451 -0.01055825 -0.26157072 -0.15797286 -0.2395821 -0.44480968
-0.03475512 -0.0112838065 -0.16963167 -0.45287946 -0.21104911 -0.17272775 -0.21999642 0.08760166
0.08847931 -0.2668765 0.029149555 -0.29063505 -0.121755734 0.25249803 -0.16234523 -0.1209758
-0.5174274 -0.13258123 0.11643163 -0.04892619 -0.20115174 -0.36512625 -0.4599638 -0.33418086
-0.03399175 -0.03884355 -0.014501093 -0.28665614 -0.26142946 -0.5377341 -0.045354392 -0.4768843
-0.27199262 -0.056435175 0.02924198 -0.13165292 -0.061489534 -0.38676158 -0.46579874 -0.20060629
0.020194592 -0.02126146 -0.29357374 0.2900347 -0.40784067 0.44269636 -0.26517066 -0.4230461
0.052762646 -0.5757309 0.6524248 0.004618427 -0.09805167 -0.02085126 -0.1369554 -0.27217424
-0.08873396 0.06595114 -0.15110679 -0.37470514 -0.5420882 -0.3707664 -0.109161824 0.40729412
0.06559327 -0.4273695 -0.31381202 -0.24197963 -0.06610442 0.32320118 -0.08471136 -0.0639054
-0.40086138 0.13387182 -0.06293108 -0.24146916 -0.21797666 -0.05777259 -0.19240671 -0.09669253

fc2.weight f4 [64, 132]
00000000: a37f 223e 8c13 7b3e faf6 1f3e ad22 80be
00000010: e930 a03d 651e f43c ea3a 34bd ad3c 5ebc
00000020: 155c 5b3e 88e6 81be 098b 9f3d 2bb7 49bd
00000030: 049e 56be 0971 13be 54e1 b4bd a6eb 773d
00000040: b17b a33c c4ca 2a3e ac65 2cbe 00c7 6e3e
00000050: af83 aebe 2d90 17be c5b5 e0bd f6c0 ab3d
00000060: 038a f43c 63b6 573d b606 a0bd 48df 54bd
00000070: dc41 543e bd00 8b3e 1a22 97bd 0209 75be
00000080: 6c1f bf3d baf1 13be 7320 8e3d f85f b8be
00000090: 4723 92be 7433 de3d 4a10 28be 3de6 ff3d
000000a0: e15c 40be aa45 813d bf2c fd3d 8ca1 a4bd
000000b0: b705 ffb9 4939 393b 86b9 3cbe 93af 193e
000000c0: 3b52 853d e0cf 09bc edf2 fd3d b15b 24bc
000000d0: 97ac 863d 0249 013c 73b2 0d3e 24e9 853c
000000e0: fb1c 693c 0bfe a1bd 4289 113e 90bd 403e
000000f0: 1b06 9d3d 5b84 d03d ab3c fb3d 2b61 843e
00000100: a124 5d3e 7fe0 55be 62cd 60be ca5f 66bd
00000110: b596 8ebd ae89 a2bd c481 903d 279d debd
00000120: 28e9 9fbd c287 dbbc cb46 963e f79c 0dbe
00000130: 90c2 103e b7f4 a1be 49ae b3bc 3df4 8c3e
00000140: 373f aebd ca1e 8abe ef25 2bbd ba4b 463e
00000150: 4ad0 d93d 74f1 5fbd ba19 f6be a184 323b
00000160: 8ec1 90be 28c2 86bd 5e12 703d ef26 0b3e
00000170: 4c30 9fbd bc72 e83d 6d65 cdbd 5219 a8be
00000180: 519e b93c 4a6a 2737 6fc2 83be 00f8 113e
00000190: b199 1f3e c38d 0a3d f8e2 ebbd 26ac 7fbe
000001a0: d348 703d d486 d5bd 8f65 223e 1298 21be
000001b0: 655d 133e 2101 043e a2f6 0e3e a453 1abe
000001c0: 6bfc ea3c e905 e93d 1662 5bbd 8b2f 333e
000001d0: 227f 8cbd 0691 693e 1d90 afbe 1ff3 5cbd
000001e0: ad6e 9e3e b9bb e03c c077 563e af93 233c
000001f0: 0fe3 a7bd 4d37 633e ff6f 073e 356d debd
00000200: d901 6bbc 1db4 923c b0bf c73c 41d0 123d
00000210: 0f62 91bd 94c2 32bd 6cff 21bc 6dee 143e
00000220: b2a7 173e a81f a03d 9bbc 3f3d 62cc d0bd
00000230: 4e2c bc3d b123 a83d e504 833c 0477 173d
00000240: 96b7 7ebb 9e30 a5bd c5d8 073e 17bf 71bd
00000250: ccec 083e a4d1 9c3b 5f80 3abe a88b fcbb
00000260: ad57 0a3e 52c9 e2bc 6a2f 94bd aa79 1c3d
00000270: d80e 0abd c18b 1ebd 3c30 bf3d d562 c33c
00000280: 8a4c 3f3d f37b 2cbe 501c 7f3c 7c57 df3d
00000290: 2f6b aa3b d86e 683e ab2a 023d 02c8 213d
000002a0: 8b73 303e b8a4 163e 9f63 733c a0e9 d3bd
000002b0: 5d3e 70bd 600a ed3b eb6f 813d fdcf 063d
000002c0: 66d1 9ebd b206 d6bc 78c3 023d db4c 41bd
000002d0: 3a10 063d 1cb2 6f3d 1a0b b3bd a1f0 36be
000002e0: e2d7 c1bc feed 853d fb4e 78bd d2de 5c3e
000002f0: 35ad 783d 14c4 743c 0fcf 8fbc a7cf 7c3c
00000300: 178f cc3b 8ad1 a93e 4f56 2dbd ad29 e2bd
00000310: f847 0dbc 60e1 1f3e c7ab 1a3e 5bec 02be
00000320: 1dfb 2b3d 7668 aa3c 79b8 eb3c 0274 b5ba
00000330: 8c67 b53d e1bd a13d 1ad7 1bbb ed29 2a3c
00000340: eb44 c0bd 60a4 0cbc b108 1b3d 5d3f e6bd
00000350: 6c73 f6bc d633 a93d 852e ed3d 10a1 98bd
00000360: 7a0b 61bd 1710 473e aea6 b73d 2262 dcbd
00000370: b6e6 ee3c 71f2 c73c 5aac e13d 51cc 0c3e
00000380: f4f5 08bc 4870 a53e dfaf 063c fb9f e93c
00000390: 005e 083e 793a 73be 921f ae3e abcb 01bd
000003a0: 9f1d b93d 69a6 0e3c 2b33 a13d f97d 033e
000003b0: af98 a8bd 710e 833e 49d0 243e 4cc6 0c3d
000003c0: 6ce8 89bc 09ae bbbd 0578 14bd 2e23 873e
000003d0: b413 18bd d049 c6bd 284d 1dbd d14d 3f3c
000003e0: b98e 783d a3da 293d 1be2 a53d 39d5 21bd
000003f0: 6390 aebd caae 8e3d 0848 4cbd f355 b23d
0.15869002 0.24519175 0.15621558 -0.25026456 0.07821829 0.02979965 -0.044001497 -0.013564271
0.21421845 -0.25371194 0.07790191 -0.04924695 -0.20958716 -0.14398588 -0.088320404 0.060527466
0.019956442 0.16678911 -0.1683566 0.233181 -0.34084842 -0.14801092 -0.1097217 0.08386414
0.029850965 0.052664172 -0.0781378 -0.05197075 0.20728248 0.27149 -0.07379551 -0.23929217
0.09332165 -0.1444768 0.06939783 -0.36010718 -0.2854254 0.10849658 -0.16412464 0.12495086
-0.1878543 0.063121155 0.1236205 -0.08038625 -0.00048641648 0.0028262904 -0.18430147 0.15008382
0.06509825 -0.008411378 0.1239985 -0.010031627 0.06575888 0.007890942 0.13837604 0.016346522
0.014228101 -0.07909783 0.14212516 0.18822312 0.0766718 0.10181495 0.12267431 0.25855383
0.21596004 -0.2088642 -0.21953347 -0.056243695 -0.06962339 -0.079364166 0.07056001 -0.10869818
-0.07808143 -0.026798133 0.29350886 -0.13829409 0.1413672 -0.31632015 -0.021933692 0.2753009
-0.08508151 -0.26976615 -0.041784223 0.19364825 0.10635431 -0.054673627 -0.48066503 0.0027239698
-0.2827267 -0.06580001 0.058611266 0.1358907 -0.07772884 0.11350009 -0.10029111 -0.32831818
0.022658499 9.978723e-06 -0.2573428 0.1425476 0.15585972 0.0338266 -0.115179 -0.24968013
0.0586632 -0.10426107 0.15859054 -0.15780666 0.14391096 0.12891056 0.1396127 -0.15070969
0.028684815 0.113780804 -0.05356034 0.17498605 -0.06860186 0.22809228 -0.34289637 -0.053942796
0.30943814 0.027433263 0.20944118 0.009983941 -0.08197605 0.22189064 0.13226317 -0.10860673
-0.014343702 0.01790815 0.024383396 0.035843138 -0.07098781 -0.043642595 -0.0098875575 0.14544077
0.14810064 0.07818538 0.046810728 -0.10195233 0.09188138 0.082099326 0.015993545 0.036978737
-0.003886675 -0.080659136 0.13266285 -0.059020128 0.13371581 0.0047857333 -0.18213032 -0.007707078
0.13510008 -0.027683888 -0.07235606 0.038201965 -0.033705562 -0.0387075 0.09335372 0.023850838
0.046703853 -0.16844158 0.015570715 0.10905358 0.0052007656 0.22698534 0.031778973 0.039497383
0.17231576 0.14711273 0.0148552945 -0.10347295 -0.058653224 0.007233903 0.06320175 0.032913197
-0.07754783 -0.02612624 0.031924695 -0.047192436 0.03273032 0.058519468 -0.08742352 -0.1786523
-0.023662511 0.06539534 -0.060622197 0.21569374 0.060712058 0.014939327 -0.017554788 0.015430368
0.0062426436 0.33167678 -0.04231864 -0.11043105 -0.008623116 0.15613317 0.1510459 -0.12785475
0.041987527 0.020801764 0.028774487 -0.0013843777 0.088576406 0.07897545 -0.0023779334 0.010385972
-0.09388145 -0.008584112 0.037850086 -0.11242554 -0.030084334 0.0826184 0.115811385 -0.07452595
-0.054942586 0.19439732 0.089673385 -0.10760905 0.029162746 0.024407597 0.110192016 0.13749816
-0.008359421 0.32312226 0.008220642 0.028518667 0.13317108 -0.23752774 0.3400846 -0.031688374
0.09038853 0.008706667 0.07871088 0.12841024 -0.08232247 0.25596955 0.1609508 0.034368798
-0.01683446 -0.09164054 -0.036247272 0.26394027 -0.037128165 -0.09682047 -0.03840366 0.011676268
0.060682986 0.041468274 0.08099767 -0.039509986 -0.08523633 0.06966932 -0.04987338 0.087078

fc2.bias f4 [64]
00000000: cef5 8a3e 43ce 753f 1742 37be 0ba8 b03e
00000010: f0ee 01bf 8565 103f 9b26 a53e b899 3cbd
00000020: 4a81 cebd 8b86 b43e 5252 96bd fcde c1bd
00000030: 38b4 84bd 0e92 a7be 21fd 283f 9910 3a3e
00000040: 11c8 103f 27ef 363e 2e5c cfbd 7e8d 403e
00000050: 3d62 06bd 1a7a 5b3e f4c4 033f a6c2 26bf
00000060: 7be1 073f d891 3f3e ab94 aebd a33d eebc
00000070: 3dff 243f 8513 d73e b9b4 033f 8358 31bd
00000080: 8b10 8abd 5110 1f3f b8af 36bf b82f 95be
00000090: 2a0f c1bd 0587 a23e 1565 c3bd 9bfa d23e
000000a0: 674a d0bd 0af5 db3e 4db0 be3e 44f1 b23e
000000b0: a32a 8f3d f39f 453e a5b7 d7bd 7796 8e3e
000000c0: 4898 84be 1ef4 1b3f e3f9 6fbc 1041 1e3f
000000d0: 2b5f 523e 5e2a 853e 10bd 28be 7a80 fc3e
000000e0: f46f a0bd ebfe 71bd 7d25 b13e 63dc 25be
000000f0: cee1 04bd d5ec 60bc 8682 f93e 9884 1e3f
0.2714066 0.96017855 -0.17896305 0.34503207 -0.50755215 0.56404907 0.32256016 -0.046045035
-0.10083254 0.35258898 -0.0733992 -0.09466359 -0.064796865 -0.32728618 0.66011244 0.18170394
0.5655528 0.17864667 -0.10125004 0.18803975 -0.03280853 0.21433297 0.514724 -0.6514076
0.5307843 0.18707979 -0.0852445 -0.029082125 0.6445196 0.4200708 0.51447636 -0.043297302
-0.067414366 0.6213427 -0.71361876 -0.2913797 -0.094267204 0.31743637 -0.09540764 0.41206822
-0.10170441 0.42960387 0.37243882 0.34949696 0.06990554 0.19299297 -0.10533074 0.2784917
-0.2589743 0.6091937 -0.01464698 0.6181803 0.20544116 0.26008886 -0.16478372 0.4931677
-0.07833853 -0.059081 0.34598914 -0.16197352 -0.032441907 -0.01372834 0.48732394 0.6192107

fc3.weight f4 [1, 64]
00000000: 7ab1 093d 801a d93d 2d08 b1be 2f09 d53d
00000010: e2fe 54bd faf5 8e3d 4aee 023d 773d febe
00000020: b1de 2abf 578e 513d 7e9a 0cbf 0456 4fbf
00000030: 2e76 16bf dc58 78bd e76a fe3c 8144 773e
00000040: db43 753d b1c1 0c3e 20a3 6cbe f9f1 893d
00000050: 688b 09bf 8ea8 4f3e aeba 263d 92e4 d1bc
00000060: 62b1 a93d 081e 2a3e de0b d1bd 5911 11bd
00000070: bb25 a53c 7d6a 253d 9040 073d fa41 8fbe
00000080: 660a 44bf 2588 e83c 1e43 43bd 03ba 89be
00000090: d9e5 fabe 3991 053e 9ede 11bf e0c6 533d
000000a0: 2da4 5ebf 6300 173d ac01 303d b830 933d
000000b0: 9a21 2cbf 0b2c 093e 1c0e 04bf d4d9 973d
000000c0: 59b3 e5be fb9a 753d ed74 d8be 1b84 263d
000000d0: a120 173d f1c7 693d eb4c 9fbe 505c be3d
000000e0: 3e11 2fbf 1f57 60bf 4ec4 803e 2006 3bbf
000000f0: 2375 10bf e201 d0be 00ef 633d b8dc 1b3e
0.03361652 0.106007576 -0.3457655 0.10402142 -0.052000888 0.0698051 0.03196553 -0.4965627
-0.6674605 0.051161136 -0.54923236 -0.80990624 -0.5877408 -0.060631618 0.031056834 0.24147226
0.059879165 0.13745762 -0.23109102 0.06735606 -0.5372834 0.20279142 0.040705375 -0.025621686
0.08285786 0.16613019 -0.102073416 -0.035416935 0.020159593 0.04038476 0.033020556 -0.27980024
-0.76578367 0.028385231 -0.04767143 -0.26899728 -0.49003485 0.1304368 -0.5698031 0.051703334
-0.8696926 0.036865603 0.042970344 0.07187027 -0.6723877 0.13395707 -0.5158403 0.07414594
-0.44863394 0.059962254 -0.42276707 0.04065333 0.03689635 0.057075445 -0.3111337 0.09294951
-0.68385684 -0.87632936 0.2514977 -0.7305622 -0.56428736 -0.40626436 0.05564785 0.15220916
