Udacity/Deep Reinforcement Learning Nano Degree/navigation/checkpoint.pth (torch_old, 28395 bytes, 6 tensors)

fc1.weight f4 [64, 37]
0.10771801 0.18445818 0.1412733 0.0035982437 -0.10051585 0.31620166 -0.5717539 -0.21396092
-0.29788 -1.2008603 0.13296625 0.11930108 0.17904827 0.04240381 0.0008247282 0.014561919
0.05570001 0.032807037 0.09404274 0.005341667 -0.016051974 -0.005560109 0.039364252 0.08433343
0.0902307 -0.04821344 0.12207987 -0.09181514 -0.0628627 0.10611597 0.19992663 0.15391828
0.08555178 0.046105925 -0.34135073 0.014214428 0.0023029551 0.17474379 0.14590977 -0.21494792
0.2787245 0.101699665 -0.03237213 0.13373198 0.19302161 0.08017389 0.008258189 -0.17833604
0.10619268 0.034811016 0.12870651 0.4004339 -0.065616935 0.14443384 0.11288346 -0.04623211
-0.059948176 0.07968466 0.013768027 -0.13129681 0.25589362 -0.022926264 -0.03245862 0.11822577
0.03767013 0.061194927 0.21987663 -0.13134634 -0.12064636 0.00056533265 0.15582688 -0.01585625
0.055365935 -0.01553561 -0.22190732 0.009229192 -0.040130444 -0.11475506 -0.07954416 0.1262568
0.13551664 -0.15271632 0.16379203 -0.47293985 0.112357035 0.12455619 0.03342536 -0.19173071
0.050498594 0.06524634 0.26253405 -0.18598816 -0.104579404 0.012415253 0.01077926 0.040531565
-0.07388857 -0.06840861 0.15427424 -0.24111846 0.10112946 0.07344018 -0.033331662 0.02113622
-0.057534408 0.13191672 -0.09796219 -0.22658163 -0.9093837 -0.009420749 0.00096327456 -0.12812719
0.0021950745 0.038115904 -0.06649607 -0.12496246 0.18832067 -0.4922793 -0.41228792 -0.5414032
-1.2405864 -0.23417833 0.09248065 -0.11238279 -0.0062457044 -0.0619131 -0.09760742 -0.07161885
0.11907668 -0.0102929035 0.13831334 -0.07986873 -0.073614605 0.17195539 0.14082523 -0.0052479524
-0.26106727 -0.19363938 0.18966922 0.036933 0.34211662 -0.12653449 -0.10580755 -0.030265037
-0.03983886 -0.21844728 0.056730565 0.05309394 -0.016641816 0.058238212 0.040355228 0.08949337
-0.00891082 -0.1169725 0.03663289 0.045543373 0.23843135 0.24161361 0.07508083 0.11244496
0.15700158 -0.038867675 -0.17391619 -0.19696121 0.09385633 0.122207694 -0.041442778 0.3514135
0.13526095 -0.0388643 -0.03390368 -0.07125064 -0.18813385 -0.06481548 0.004837281 -0.07075759
-0.054455746 -0.2904772 0.34540325 0.03731526 -0.25778988 -0.18304239 -1.125009 -0.046522457
0.0012194224 0.122189604 0.026543641 0.019844001 0.20013237 -0.0011091161 0.090663895 0.0018686383
0.1044463 0.06251815 0.065737724 -0.01591064 0.15938115 0.021792982 0.11417143 0.06228359
0.016700163 -0.035528395 0.1249938 0.03914705 0.22304784 0.0227672 -0.11055487 -0.084842645
-0.03734334 0.06072665 0.25929898 0.12900455 -0.16021544 -0.13966645 -0.6161099 0.29245543
-0.0018327464 0.040626165 -0.019534135 -0.26063168 -0.043546617 0.047903437 -0.033575226 -0.011734867
-0.042892493 -0.016301876 0.107717104 0.26660284 -0.47856358 -0.39071712 -0.51600426 -1.5999309
0.072441764 0.1348205 0.104693115 0.20916677 0.053861413 -0.12818588 -0.024309687 -0.11559645
0.13209276 0.048385084 -0.026392702 -0.018905535 0.0065043457 0.0056996294 -0.022550628 0.07101742
0.15182148 0.055297945 0.1541121 -0.042881716 -0.047648128 0.23789816 0.020873982 0.004890738
00000000: 439b dc3d 9be2 3c3e f3a9 103e 83d0 6b3b
00000010: 41db cdbd 2fe5 a13e 775e 12bf 9218 5bbe
00000020: ba83 98be cab5 99bf 4e28 083e 2054 f43d
00000030: 6e58 373e 9eaf 2d3d 9332 583a 1d95 6e3c
00000040: b225 643d ac60 063d 7b99 c03d 2709 af3b
00000050: 6e7f 83bc 9331 b6bb 693c 213d 01b7 ac3d
00000060: e0ca b83d 757b 45bd 0305 fa3d 9309 bcbd
00000070: 29be 80bd 5453 d93d 91b9 4c3e c19c 1d3e
00000080: c635 af3d 91d9 3c3d 86c5 aebe a2e3 683c
00000090: 2ded 163b 09f0 323e 5f69 153e 4f1b 5cbe
000000a0: fab4 8e3e ea47 d03d a398 04bd 09f1 083e
000000b0: 75a7 453e 3532 a43d 5b4d 073c b99d 36be
000000c0: 8c7b d93d ff95 0e3d a4cb 033e ac05 cd3e
000000d0: 2c62 86bd 77e6 133e 722f e73d e25d 3dbd
000000e0: 388c 75bd b631 a33d 4a93 613c ac72 06be
000000f0: 7d04 833e dccf bbbc 54f3 04bd 5a20 f23d
00000100: ff4b 1a3d 88a7 7a3d 5727 613e a87f 06be
00000110: 7015 f7bd d532 143a 1591 1f3e f7e4 81bc
00000120: 64c7 623d 1289 7ebc ac3b 63be 0936 173c
00000130: d25f 24bd b304 ebbd 0ce8 a2bd 7649 013e
00000140: e0c4 0a3e ab61 1cbe 19b9 273e 2c25 f2be
00000150: 721b e63d 5117 ff3d 08e9 083d 0e55 44be
00000160: 9dd7 4e3d e09f 853d dd6a 863e ae73 3ebe
00000170: ba2d d6bd 5869 4b3c 7e9b 303c 6d04 263d
00000180: e452 97bd d019 8cbd 11fa 1d3e c2e7 76be
00000190: f61c cf3d ce67 963d c886 08bd de25 ad3c
000001a0: 33a9 6bbd 2d15 073e 67a0 c8bd 0405 68be
000001b0: 5fcd 68bf 7c59 1abc 4384 7c3a c633 03be
000001c0: 3ddb 0f3b 6c1f 1c3d 172f 88bd 51ec ffbd
000001d0: 22d7 403e 080c fcbe 6717 d3be 6699 0abf
000001e0: 89cb 9ebf 72cc 6fbe 7f66 bd3d f328 e6bd
000001f0: c4a8 ccbb 9798 7dbd 66e6 c7bd e7ac 92bd
00000200: 79de f33d 91a3 28bc 03a2 0d3e 3792 a3bd
00000210: 41c3 96bd 1315 303e 7d34 103e 04f7 abbb
00000220: 9caa 85be 6749 46be a638 423e 0f47 173d
00000230: e929 af3e 4292 01be a1b1 d8bd 62ee f7bc
00000240: 132e 23bd a5b0 5fbe 4f5e 683d 0879 593d
00000250: 6b54 88bc 318b 6e3d 864b 253d 4d48 b73d
00000260: b0fe 11bc 478f efbd 5f0c 163d b08b 3a3d
00000270: 5927 743e 8f69 773e fac3 993d 8b49 e63d
00000280: 06c5 203e b633 1fbd 1617 32be 33b0 49be
00000290: bf37 c03d 0748 fa3d e7bf 29bd 78ec b33e
000002a0: d981 0a3e 2c30 1fbd 96de 0abd dbeb 91bd
000002b0: 29a6 40be fabd 84bd 0e82 9e3b 5be9 90bd
000002c0: fd0c 5fbd 6db9 94be b2d8 b03e e3d7 183d
000002d0: 09fd 83be 776f 3bbe 4b00 90bf 558e 3ebd
000002e0: 07d5 9f3a 8b3e fa3d 0d72 d93c e38f a23c
000002f0: 80ef 4c3e c35f 91ba fead b93d 19ed f43a
00000300: f1e7 d53d 8409 803d 80a1 863d 0857 82bc
00000310: d034 233e 3287 b23c b6d2 e93d 141d 7f3d
00000320: c8ce 883c 3986 11bd c0fc ff3d a858 203d
00000330: a766 643e 4782 ba3c 976a e2bd fbc1 adbd
00000340: 55f5 18bd 82bc 783d d6c2 843e c519 043e
00000350: 840f 24be b904 0fbe 61b9 1dbf b8bc 953e
00000360: c438 f0ba 9f67 263d 0d06 a0bc 8471 85be
00000370: f05d 32bd 6536 443d 2d86 09bd 9943 40bc
00000380: 0ab0 2fbd 838b 85bc c99a dc3d 2b80 883e
00000390: 4906 f5be 130c c8be db18 04bf 89ca ccbf
000003a0: 595c 943d 630e 0a3e 5869 d63d d02f 563e
000003b0: c99d 5c3d 2943 03be 1c25 c7bc d5bd ecbd
000003c0: 5343 073e 702f 463d 8235 d8bc c8df 9abc
000003d0: 6822 d53b f5c3 ba3b 18bc b8bc 9571 913d
000003e0: 1777 1b3e 1980 623d 90cf 1d3e bda4 2fbd
000003f0: af2a 43bd 939b 733e eaff aa3c 7c42 a03b

fc1.bias f4 [64]
-0.017999234 0.13660051 0.15771796 -0.05500947 -0.060797475 0.030236544 0.041707087 0.024842111
-0.21289727 0.10393324 -0.1079196 -0.07772048 -0.033275954 -0.06172108 -0.1208384 0.012048732
-0.04201915 -0.012458873 0.15291594 -0.11338574 0.08278756 -0.093015514 -0.052304547 -0.00741505
-0.10435028 -0.16981795 -0.12562345 -0.13525091 0.16221943 0.15717432 -0.05079136 0.01694504
-0.08902047 -0.06309851 0.003428746 0.19603398 0.042606827 -0.010222846 0.23415585 -0.15902056
-0.17475653 0.012930192 -0.0733076 0.0050892704 0.12569357 -0.16917779 -0.22906215 0.040799394
-0.08504533 0.12899815 0.00096782664 0.091135554 -0.18395521 -0.18395525 -0.0006769098 0.08607974
0.2318071 -0.00017009431 0.0039500017 0.037800938 -0.0005869657 0.017875357 0.17062773 -0.24194849
00000000: 2173 93bc 01e1 0b3e d180 213e 9c51 61bd
00000010: c606 79bd a1b2 f73c 0dd5 2a3d af81 cb3c
00000020: be01 5abe f3da d43d f404 ddbd ea2b 9fbd
00000030: 5e4c 08bd 3ecf 7cbd 207a f7bd 0b68 453c
00000040: 461c 2cbd 4d20 4cbc ff95 1c3e c836 e8bd
00000050: 868c a93d eb7e bebd 4b3d 56bd f3f9 f2bb
00000060: 99b5 d5bd c2e4 2dbe 6fa3 00be 377f 0abe
00000070: da1c 263e 4ef2 203e 9a0a 50bd 53d0 8a3c
00000080: 5d50 b6bd cb39 81bd d0b4 603b 22bd 483e
00000090: 7f84 2e3d b97d 27bc 8dc6 6f3e 49d6 22be
000000a0: 60f3 32be 28d9 533c 4c22 96bd e5c3 a63b
000000b0: d1b5 003e f13c 2dbe 458f 6abe 441d 273d
000000c0: 3f2c aebd 1718 043e bfb5 7d3a 47a5 ba3d
000000d0: c15e 3cbe c45e 3cbe a672 31ba 934a b03d
000000e0: d75e 6d3e 585b 32b9 046f 813b 28d5 1a3d
000000f0: 9ade 19ba 576f 923c 09b9 2e3e 58c1 77be

fc2.weight f4 [64, 64]
0.038171254 0.08824855 -0.06348732 0.07118566 0.050408334 0.04131378 0.13506904 -0.022589497
-0.12670447 0.07138723 0.137456 -0.11448521 0.085490435 -0.16648093 0.15246995 0.16904308
-0.05897466 -0.012259121 0.03959799 0.038149197 0.13163166 0.082253404 -0.0676155 -0.010461673
0.05475675 0.09151005 0.15194991 -0.07734937 0.33356798 -0.019978413 -0.0057648853 0.24533053
-0.008357167 -0.050248228 0.2112184 0.015161019 0.1289006 -0.038538415 0.077142075 -0.069571555
-0.07857399 0.13850088 -0.08089818 -0.054043394 0.18083802 0.10313422 -0.06349018 0.054560468
0.20607193 -0.06412411 0.19928609 0.007014065 -0.030311275 -0.0933745 -0.06013308 0.30117863
0.102068245 0.06244023 0.10740432 0.14446516 -0.013273704 -0.10289872 0.09074143 -0.051315103
0.23050813 -0.1392061 0.03771581 0.00036186373 -0.019092718 -0.12977676 0.0826935 -0.15772133
-0.020561239 -0.2120212 -0.007477862 0.07804299 -0.042566486 0.100749254 -0.065715805 0.16611122
-0.07651796 -0.04297173 0.0011753166 -0.13431938 0.011365044 -0.033278693 0.45705286 0.036612388
-0.019223176 -0.3167603 -0.22475275 0.14078902 0.254035 0.10673039 -0.062301878 -0.056560688
0.24477346 0.41600147 0.11139818 -0.006333438 -0.04063386 0.18726583 0.10739627 -0.040571652
-0.08857661 -0.08690649 0.0037384867 0.11418309 0.1585412 -0.28843403 -0.15603109 0.0830958
0.04720379 -0.13958557 0.034461975 0.04034401 -0.18169625 -0.003654007 0.38048998 -0.025498806
-0.041122627 -0.07518822 0.067052506 -0.14019887 0.06955631 -0.07480932 -0.2428884 -0.11861804
0.037770543 -0.035002112 0.11296116 -0.009174189 0.080879666 0.015585574 -0.021670764 0.029528255
0.045311727 0.031696238 0.14930974 0.02506894 0.0069093206 0.19700469 0.09982532 -0.004447065
0.08451724 -0.080101795 -0.08778353 -0.0797138 0.13124728 -0.0042035114 0.0095039485 -0.0043695327
-0.13604459 -0.119899474 0.053404137 -0.112278774 0.3630064 -0.18317893 -0.052481342 -0.04422058
0.0012521973 -0.0689803 0.15828347 -0.11136115 0.08366834 0.19302006 0.20113721 -0.074593864
-0.11632139 -0.11841745 0.13981116 0.023257134 -0.04723112 0.00788555 0.09879309 0.082540035
-0.12649865 -0.02835754 0.046020467 -0.12335356 -0.044326257 -0.16311082 -0.60694724 0.19443235
0.046990216 -0.027915398 0.061819017 -0.045768727 -0.049510438 -0.05768343 -0.061324004 -0.038663305
-0.04796309 0.04993285 0.07302967 0.063816346 0.33634526 -0.09779454 0.16109674 0.08283113
0.12729163 0.098536484 -0.16039461 0.06830728 0.076204844 0.13469459 0.19401495 -0.09107406
0.0394548 -0.14228569 0.073929876 0.16995932 0.047606844 -0.05959981 0.13726687 -0.05726055
0.051642418 -0.15061575 0.08272794 -0.29856616 -0.06773196 -0.1927961 -0.027583098 -0.00621145
0.089305796 0.34149066 -0.24567041 0.056697723 0.056212366 -0.56966364 -0.043643046 -0.2514406
-0.102077946 -0.14826159 -0.34676734 0.0060076984 -0.1599045 0.008584012 0.118834585 0.14934728
-0.014250206 -0.12769398 -0.2264249 0.18432562 -0.18765618 -0.094213374 -0.36798036 0.35038522
0.02850903 0.05648472 -0.11630255 0.22477512 -0.31711563 -0.13539661 0.041706555 -0.03330303
00000000: 7659 1c3d a8bb b43d a405 82bd cac9 913d
00000010: f878 4e3d a338 293d 8a4f 0a3e 9c0d b9bc
00000020: d1be 01be 7833 923d 44c1 0c3e 3977 eabd
00000030: 9c15 af3d fa79 2abe 1521 1c3e a119 2d3e
00000040: 6a8f 71bd 7bda 48bc 8131 223d 5542 1c3d
00000050: 73ca 063e 7974 a83d ff79 8abd 7067 2bbc
00000060: 9d48 603d 9f69 bb3d c298 1b3e 5969 9ebd
00000070: 6cc9 aa3e c5a9 a3bc 5de7 bcbb ed37 7b3e
00000080: 80ec 08bc 16d1 4dbd a349 583e ec65 783c
00000090: 85fe 033e 75da 1dbd aafc 9d3d 887b 8ebd
000000a0: 66eb a0bd 2dd3 0d3e f2ad a5bd 9b5c 5dbd
000000b0: 9a2d 393e 0938 d33d 2407 82bd cc7a 5f3d
000000c0: 8504 533e 8053 83bd a711 4c3e 3ed6 e53b
000000d0: 5a4f f8bc 213b bfbd 1b4e 76bd 1634 9a3e
000000e0: 2809 d13d 54c1 7f3d ccf6 db3d adee 133e
000000f0: f379 59bc 90bc d2bd a5d6 b93d c92f 52bd
00000100: 530a 6c3e 0b8c 0ebe e57b 1a3d 87b8 bd39
00000110: 5568 9cbc 33e4 04be 365b a93d b381 21be
00000120: 0b70 a8bc 161c 59be da08 f5bb 01d5 9f3d
00000130: 325a 2ebd a055 ce3d 0296 86bd 0f19 2a3e
00000140: 73b5 9cbd 2003 30bd 150d 9a3a 058b 09be
00000150: 7334 3a3c 3d4f 08bd d502 ea3e dff6 153d
00000160: ec79 9dbc 682e a2be 9625 66be ff2a 103e
00000170: e010 823e 7695 da3d 4130 7fbd 2eac 67bd
00000180: e5a5 7a3e 25fe d43e bb24 e43d bb88 cfbb
00000190: b16f 26bd 9dc2 3f3e 93f2 db3d 762e 26bd
000001a0: a767 b5bd 08fc b1bd 6601 753b d3d8 e93d
000001b0: a058 223e a0ad 93be 9dc6 1fbe 212e aa3d
000001c0: c358 413d 85ef 0ebe 0028 0d3d c33f 253d
000001d0: 950e 3abe 1178 6fbb 95cf c23e dfe2 d0bc
000001e0: 3370 28bd 48fc 99bd d352 893d 4b90 0fbe
000001f0: 8a73 8e3d a135 99bd bdb7 78be 04ee f2bd
00000200: 49b5 1a3d 605e 0fbd 2e58 e73d 564f 16bc
00000210: 3da4 a53d a35a 7f3c e386 b1bc 3de5 f13c
00000220: ca98 393d ead3 013d a7e4 183e 615d cd3c
00000230: 9567 e23b 99bb 493e 3871 cc3d afb8 91bb
00000240: 6017 ad3d 690c a4bd dac7 b3bd fd40 a3bd
00000250: b065 063e 9cbd 89bb 73b6 1b3c 4c2e 8fbb
00000260: 464f 0bbe db8d f5bd 4cbe 5a3d 6af2 e5bd
00000270: fadb b93e 4293 3bbe adf6 56bd a420 35bd
00000280: c520 a43a 8b45 8dbd 1015 223e 5111 e4bd
00000290: 4f5a ab3d 0da7 453e eaf6 4d3e abc4 98bd
000002a0: e939 eebd d984 f2bd a82a 0f3e bf85 be3c
000002b0: 6b75 41bd 6532 013c 0854 ca3d c00a a93d
000002c0: dd88 01be 124e e8bc f57f 3c3d cba0 fcbd
000002d0: 738f 35bd 8606 27be e560 1bbf 4619 473e
000002e0: d078 403d d5ae e4bc f035 7d3d fd77 3bbd
000002f0: 75cb 4abd 7645 6cbd e12e 7bbd 6a5d 1ebd
00000300: f274 44bd 6386 4c3d 9490 953d 25b2 823d
00000310: 7235 ac3e 8148 c8bd 8bf6 243e 5ea3 a93d
00000320: bd58 023e 7fcd c93d 7c3e 24be b0e4 8b3d
00000330: 4911 9c3d 61ed 093e dbab 463e 0985 babd
00000340: 5b9b 213d 57b3 11be 8c68 973d d109 2e3e
00000350: 65ff 423d ee1e 74bd b08f 0c3e 0a8a 6abd
00000360: 0087 533d 043b 1abe 446d a93d aadd 98be
00000370: 0eb7 8abd 576c 45be f3f5 e1bc 6b89 cbbb
00000380: f5e5 b63d ddd7 ae3e 0691 7bbe df3b 683d
00000390: f03e 663d 7ad5 11bf 0dc3 32bd d3bc 80be
000003a0: 3e0e d1bd e3d1 17be 7d8b b1be 3adc c43b
000003b0: 01be 23be f5a3 0c3c 8c5f f33d 7eee 183e
000003c0: b279 69bc 36c2 02be eedb 67be dbbf 3c3e
000003d0: f128 40be f1f2 c0bd ec67 bcbe b165 b33e
000003e0: c58b e93c 865c 673d 0830 eebd 732b 663e
000003f0: fb5c a2be 69a5 0abe 7ed4 2a3d c268 08bd

fc2.bias f4 [64]
0.41485944 -0.11750608 0.18309893 0.053991914 -0.08194848 0.25706214 -0.035516836 -0.02424766
0.18007684 0.044425953 -0.045330472 0.070669875 -0.084426366 0.15986912 -0.04450546 -0.022624943
-0.15491064 0.13584588 0.1405356 0.36036524 -0.11675739 -0.0658584 -0.0030179932 0.43236262
0.24260032 -0.0838489 0.028487414 0.37526083 -0.011729068 -0.19833747 -0.042928074 -0.13590263
-0.013660583 0.06705765 0.0059974617 -0.17600085 0.14603958 0.13821395 0.17153971 0.06811071
0.20473082 0.0026064077 -0.07199822 0.37194887 0.23903993 0.14887576 0.15331513 0.14751782
0.14622712 0.010949242 -0.19703339 0.24696927 -0.26795956 0.046838433 0.0040158443 0.013780424
0.06988797 0.04494918 0.36667967 -0.0043936567 0.104378186 -0.060794394 0.263707 0.20971265
00000000: 7568 d43e 07a7 f0bd 497e 3b3e a026 5d3d
00000010: 9bd4 a7bd a69d 833e 1a7a 11bd 07a3 c6bc
00000020: 1066 383e fdf7 353d 72ac 39bd 5ebb 903d
00000030: bbe7 acbd bbb4 233e 5b4b 36bd f257 b9bc
00000040: e5a0 1ebe 2f1b 0b3e 90e8 0f3e cb81 b83e
00000050: 801e efbd c5e0 86bd 86c9 45bb a25e dd3e
00000060: 386c 783e f9b8 abbd 705e e93c 3022 c03e
00000070: 472b 40bc fa18 4bbe 59d5 2fbd 0f2a 0bbe
00000080: a3d0 5fbc 8555 893d 5b86 c43b 9139 34be
00000090: 668b 153e f587 0d3e 1ba8 2f3e a17d 8b3d
000000a0: f5a4 513e 44d0 2a3b ce73 93bd 1570 be3e
000000b0: e2c6 743e e372 183e a4fe 1c3e e90e 173e
000000c0: 90bc 153e 7364 333c 1fc3 49be 83e5 7c3e
000000d0: ff31 89be a8d9 3f3d 5897 833b 4ac7 613c
000000e0: 6d21 8f3d a21c 383d 70bd bb3e aaf8 8fbb
000000f0: 3bc4 d53d 8b03 79bd 9b04 873e eabe 563e

fc3.weight f4 [4, 64]
0.19947518 -0.15976392 0.13435836 0.16229224 -0.028186072 0.19917938 -0.005500422 -0.028575055
0.1352389 -0.3392873 0.2488808 -0.117135376 -0.108012915 0.2110169 0.12151942 0.37448332
-0.030268677 0.2980709 0.15291218 0.1874708 -0.043177065 0.11313148 -0.018638091 0.17822947
0.06641571 0.19833264 0.1346595 0.13498649 -0.66877973 -0.18946056 -0.20573628 0.0059017367
0.49328765 0.05203729 -0.14829144 -0.13230664 0.13980483 0.03908372 0.17605619 -0.044488557
0.106183514 0.17715932 -0.06322202 0.1603061 0.13241255 0.29165804 0.18988015 0.095584676
-0.21753496 -0.017416622 -0.08391916 0.11069336 -0.22889908 -0.28797787 0.46075788 0.041971195
0.076236814 0.77099293 0.12508285 0.37058276 0.1041306 0.184229 0.09523496 0.005434168
0.20156646 -0.17279711 0.040805075 0.04592647 0.07900662 0.1566167 -0.85971165 0.072431006
0.1667694 0.14260408 0.23157081 0.2325845 -0.09508694 0.22995654 0.2702075 0.75064003
-0.06941722 0.25067732 0.14219436 0.18536921 -0.004918897 0.15272893 0.008330624 0.09902247
0.10136244 -0.33416024 0.1303785 0.114670604 0.039119836 -0.18913393 -0.10860249 0.0024482175
0.4168583 0.06981798 -0.21655163 -0.0138467625 0.101769395 -0.015453909 0.20591871 -0.027291367
0.031922795 0.15917414 -0.1321645 0.117576085 0.043895077 0.28185573 0.2791852 0.12854867
-0.29094452 -0.15428458 -0.042933043 0.11520057 -0.1477682 -0.17437142 0.5570205 0.2587122
-0.2429414 0.6684054 0.1253201 0.37550378 0.12549552 0.2031323 0.17683157 0.026740117
0.17645879 0.00077146577 0.05576226 -0.0040010456 0.28133228 0.13146667 -0.398663 -0.023090508
0.057400472 -0.003384356 0.3978889 0.48532993 -0.0061519207 0.0067813424 0.4676048 -0.21695665
0.021293355 0.020419316 0.14260352 0.04162676 0.263932 0.10320571 0.17499866 0.14978978
0.11758655 -0.37988612 0.14751843 0.1608932 -0.1118462 -0.18959814 -0.2267375 -0.071233325
0.56232935 0.33712116 -0.38392282 -0.037175518 0.29459068 -0.05417161 0.2953011 -0.051209427
0.043071683 0.2421715 0.02820687 0.11121524 0.15798368 0.09615811 0.16271779 0.24758834
-0.08458479 -0.17739196 -0.11038148 0.04263226 -0.26554024 -0.18764785 0.48958573 0.5869762
0.43870372 0.44118732 0.14518341 0.06336225 0.28199404 0.32122225 0.15530266 0.19807534
0.080235586 -0.19079715 0.07577626 0.21383107 0.09237282 0.13409497 -0.32916248 0.46576577
-0.033617318 -0.115588866 0.1131308 -0.26768798 0.048482116 -0.1265241 0.037453003 1.0599297
-0.24002303 0.17465071 0.1894172 0.12669133 0.23086664 0.33727297 0.1928754 0.19060375
0.06184111 -0.5614132 0.05932187 0.13006327 -0.3381674 -0.13465795 -0.020780487 -0.06901593
0.38406008 0.28496623 -0.028353581 -0.017278252 0.048819747 0.08343603 0.19237264 -0.21780704
0.07919893 0.0676243 -0.33320698 0.113272205 0.07005993 0.29482993 0.31452295 0.14318758
-0.48150623 -0.08071368 -0.079448044 0.1449701 -0.259718 -0.16886237 0.2351757 -0.35874885
0.26980323 0.58542067 0.13499932 0.34788057 0.029028123 0.121125296 0.1552611 0.2091713
00000000: 3943 4c3e 2799 23be 3d95 093e f02f 263e
00000010: 7ae6 e6bc aef5 4b3e e23c b4bb 3c16 eabc
00000020: 117c 0a3e 11b7 adbe 9cda 7e3e ace4 efbd
00000030: e035 ddbd d014 583e 2cdf f83d 47bc bf3e
00000040: 04f6 f7bc c09c 983e 0395 1c3e 58f8 3f3e
00000050: 6fda 30bd 7ab1 e73d e9ae 98bc c981 363e
00000060: f604 883d b617 4b3e 2ee4 093e e639 0a3e
00000070: 2635 2bbf f301 42be 88ac 52be 5b63 c13b
00000080: 3390 fc3e 0e25 553d b6d9 17be 647b 07be
00000090: ff28 0f3e 4016 203d 1348 343e a239 36bd
000000a0: be76 d93d 4169 353e 8c7a 81bd 4827 243e
000000b0: 2897 073e 3454 953e f16f 423e e6c1 c33d
000000c0: 7cc1 5ebe 4ead 8ebc cfdd abbd 33b3 e23d
000000d0: 8564 6abe d671 93be 75e8 eb3e fde9 2b3d
000000e0: 0c22 9c3d cb5f 453f b815 003e 06bd bd3e
000000f0: 6d42 d53d 87a6 3c3e 8c0a c33d 1b11 b23b
00000100: 7067 4e3e baf1 30be 3923 273d 651d 3c3d
00000110: 39ce a13d 2160 203e 1016 5cbf b556 943d
00000120: 99c5 2a3e ce06 123e e620 6d3e a22a 6e3e
00000130: f1bc c2bd ba79 6b3e a358 8a3e f229 403f
00000140: 9e2a 8ebd c758 803e 669b 113e 6dd1 3d3e
00000150: b32e a1bb f964 1c3e 2b7d 083c 4bcc ca3d
00000160: 1c97 cf3d 0d17 abbe f181 053e 6cd8 ea3d
00000170: 1f3c 203d 53ac 41be fb6a debd 4672 203b
00000180: 736e d53e bbfc 8e3d b6bf 5dbe 88dd 62bc
00000190: 796c d03d 6432 7dbc 5bdc 523e 2592 dfbc
000001a0: 7ac1 023d 8cfe 223e 2156 07be bbcb f03d
000001b0: 53cb 333d 654f 903e 5df1 8e3e 43a2 033e
000001c0: aef6 94be c7fc 1dbe 8fda 2fbd 47ee eb3d
000001d0: 8c50 17be 6c8e 32be e598 0e3f ed75 843e
000001e0: a1c5 78be 9e1c 2b3f ea53 003e 0842 c03e
000001f0: e681 003e ea01 503e 5613 353e 170e db3c
00000200: 9db1 343e 313c 4a3a f866 643d 341b 83bb
00000210: c90a 903e 339f 063e 8f1d ccbe 4e28 bdbc
00000220: c21c 6b3d 12cc 5dbb 18b8 cb3e 2a7d f83e
00000230: 0d96 c9bb 0636 de3b e569 ef3e e229 5ebe
00000240: 676f ae3c 6946 a73c a806 123e d280 2a3d
00000250: 1822 873e 845d d33d d932 333e 7e62 193e
00000260: 38d1 f03d 6f80 c2be 120f 173e 30c1 243e
00000270: 9f0f e5bd 0426 42be e02d 68be c7e2 91bd
00000280: d1f4 0f3f 259b ac3e 8891 c4be 5b45 18bd
00000290: 97d4 963e 0de3 5dbd b531 973e fac0 51bd
000002a0: ef6b 303d cefb 773e 1812 e73c d1c4 e33d
000002b0: 79c6 213e 8bee c43d 7e9f 263e cc87 7d3e
000002c0: ca3a adbd 3da6 35be af0f e2bd 2a9f 2e3d
000002d0: e4f4 87be c226 40be fbaa fa3e 1244 163f
000002e0: c69d e03e 4ee3 e13e f6aa 143e 11c4 813d
000002f0: 8661 903e 3e77 a43e a907 1f3e 43d4 4a3e
00000300: 8e52 a43d 5460 43be 9530 9b3d 88f6 5a3e
00000310: f62d bd3d 3150 093e fc87 a8be da78 ee3e
00000320: 50b2 09bd dbb9 ecbd 1fb1 e73d 660e 89be
00000330: 2f95 463d 898f 01be 5268 193d c7ab 873f
00000340: 99c8 75be a3d7 323e 95f6 413e 5fbb 013e
00000350: 4e68 6c3e 0baf ac3e 2181 453e a12d 433e
00000360: 1b4d 7d3d c7b8 0fbf 7dfb 723d 4e2f 053e
00000370: 4724 adbe c6e3 09be d73b aabc 3958 8dbd
00000380: 86a3 c43e 18e7 913e c545 e8bc 1f8b 8dbc
00000390: 37f7 473d 82e0 aa3d 55fd 443e cf08 5fbe
000003a0: 0c33 a23d 9c7e 8a3d 1b9a aabe 42fb e73d
000003b0: 957b 8f3d f3f3 963e 2709 a13e c49f 123e
000003c0: fc87 f6be 374d a5bd a8b5 a2bd 0b73 143e
000003d0: c2f9 84be 42ea 2cbe e6d1 703e eead b7be
000003e0: a623 8a3e 21de 153f 433d 0a3e 671d b23e
000003f0: 63cc ed3c 8a10 f83d c4fc 1e3e 0031 563e

fc3.bias f4 [4]
0.23507841 0.30634013 0.25652924 0.2573777
00000000: 65b8 703e 9dd8 9c3e cd57 833e 03c7 833e
